…
I0322 14:10:40.695013 24806 net.cpp:330] The NetState phase (0) differed from the phase (1) specified by a rule in layer accuracy
I0322 14:10:40.695276 24806 net.cpp:47] Initializing net from parameters: 
name: "cifar10_clean"
state {
  phase: TRAIN
}
layer {
  name: "cifar"
  type: "Data"
  top: "data"
  top: "label_clean"
  include {
    phase: TRAIN
  }
  transform_param {
    mean_file: "external/exp/db/cifar10/cifar10_mean.binaryproto"
  }
  data_param {
    source: "external/exp/db/cifar10/clean_train"
    batch_size: 100
    backend: LMDB
  }
}
layer {
  name: "conv1"
  type: "Convolution"
  bottom: "data"
  top: "conv1"
  param {
    lr_mult: 1
  }
  param {
    lr_mult: 2
  }
  convolution_param {
    num_output: 32
    pad: 2
    kernel_size: 5
    stride: 1
    weight_filler {
      type: "gaussian"
      std: 0.0001
    }
    bias_filler {
      type: "constant"
    }
  }
}
layer {
  name: "pool1"
  type: "Pooling"
  bottom: "conv1"
  top: "pool1"
  pooling_param {
    pool: MAX
    kernel_size: 3
    stride: 2
  }
}
layer {
  name: "relu1"
  type: "ReLU"
  bottom: "pool1"
  top: "pool1"
}
layer {
  name: "conv2"
  type: "Convolution"
  bottom: "pool1"
  top: "conv2"
  param {
    lr_mult: 1
  }
  param {
    lr_mult: 2
  }
  convolution_param {
    num_output: 32
    pad: 2
    kernel_size: 5
    stride: 1
    weight_filler {
      type: "gaussian"
      std: 0.01
    }
    bias_filler {
      type: "constant"
    }
  }
}
layer {
  name: "relu2"
  type: "ReLU"
  bottom: "conv2"
  top: "conv2"
}
layer {
  name: "pool2"
  type: "Pooling"
  bottom: "conv2"
  top: "pool2"
  pooling_param {
    pool: AVE
    kernel_size: 3
    stride: 2
  }
}
layer {
  name: "conv3"
  type: "Convolution"
  bottom: "pool2"
  top: "conv3"
  param {
    lr_mult: 1
  }
  param {
    lr_mult: 2
  }
  convolution_param {
    num_output: 64
    pad: 2
    kernel_size: 5
    stride: 1
    weight_filler {
      type: "gaussian"
      std: 0.01
    }
    bias_filler {
      type: "constant"
    }
  }
}
layer {
  name: "relu3"
  type: "ReLU"
  bottom: "conv3"
  top: "conv3"
}
layer {
  name: "pool3"
  type: "Pooling"
  bottom: "conv3"
  top: "pool3"
  pooling_param {
    pool: AVE
    kernel_size: 3
    stride: 2
  }
}
layer {
  name: "ip1"
  type: "InnerProduct"
  bottom: "pool3"
  top: "ip1"
  param {
    lr_mult: 1
  }
  param {
    lr_mult: 2
  }
  inner_product_param {
    num_output: 64
    weight_filler {
      type: "gaussian"
      std: 0.1
    }
    bias_filler {
      type: "constant"
    }
  }
}
layer {
  name: "ip2"
  type: "InnerProduct"
  bottom: "ip1"
  top: "ip2"
  param {
    lr_mult: 1
  }
  param {
    lr_mult: 2
  }
  inner_product_param {
    num_output: 10
    weight_filler {
      type: "gaussian"
      std: 0.1
    }
    bias_filler {
      type: "constant"
    }
  }
}
layer {
  name: "loss_clean"
  type: "SoftmaxWithLoss"
  bottom: "ip2"
  bottom: "label_clean"
  top: "loss_clean"
  loss_param {
    ignore_label: -1
    normalize: false
  }
}
I0322 14:10:40.695554 24806 layer_factory.hpp:74] Creating layer cifar
I0322 14:10:40.695572 24806 net.cpp:133] Creating Layer cifar
I0322 14:10:40.695580 24806 net.cpp:411] cifar -> data
I0322 14:10:40.695607 24806 net.cpp:411] cifar -> label_clean
I0322 14:10:40.695629 24806 net.cpp:163] Setting up cifar
I0322 14:10:40.695641 24806 data_transformer.cpp:23] Loading mean file from: external/exp/db/cifar10/cifar10_mean.binaryproto
I0322 14:10:40.695847 24806 db_lmdb.cpp:22] Opened lmdb external/exp/db/cifar10/clean_train
I0322 14:10:40.695894 24806 data_layer.cpp:55] Skipping first 0 data points.
I0322 14:10:40.695935 24806 data_layer.cpp:100] output data size: 100,3,32,32
I0322 14:10:40.696105 24806 net.cpp:170] Top shape: 100 3 32 32 (307200)
I0322 14:10:40.696118 24806 net.cpp:170] Top shape: 100 (100)
I0322 14:10:40.696127 24806 layer_factory.hpp:74] Creating layer conv1
I0322 14:10:40.696141 24806 net.cpp:133] Creating Layer conv1
I0322 14:10:40.696148 24806 net.cpp:453] conv1 <- data
I0322 14:10:40.696166 24806 net.cpp:411] conv1 -> conv1
I0322 14:10:40.696187 24806 net.cpp:163] Setting up conv1
I0322 14:10:40.870556 24806 net.cpp:170] Top shape: 100 32 32 32 (3276800)
I0322 14:10:40.870601 24806 layer_factory.hpp:74] Creating layer pool1
I0322 14:10:40.870616 24806 net.cpp:133] Creating Layer pool1
I0322 14:10:40.870620 24806 net.cpp:453] pool1 <- conv1
I0322 14:10:40.870627 24806 net.cpp:411] pool1 -> pool1
I0322 14:10:40.870637 24806 net.cpp:163] Setting up pool1
I0322 14:10:40.870808 24806 net.cpp:170] Top shape: 100 32 16 16 (819200)
I0322 14:10:40.870817 24806 layer_factory.hpp:74] Creating layer relu1
I0322 14:10:40.870823 24806 net.cpp:133] Creating Layer relu1
I0322 14:10:40.870826 24806 net.cpp:453] relu1 <- pool1
I0322 14:10:40.870831 24806 net.cpp:400] relu1 -> pool1 (in-place)
I0322 14:10:40.870839 24806 net.cpp:163] Setting up relu1
I0322 14:10:40.871058 24806 net.cpp:170] Top shape: 100 32 16 16 (819200)
I0322 14:10:40.871068 24806 layer_factory.hpp:74] Creating layer conv2
I0322 14:10:40.871078 24806 net.cpp:133] Creating Layer conv2
I0322 14:10:40.871081 24806 net.cpp:453] conv2 <- pool1
I0322 14:10:40.871086 24806 net.cpp:411] conv2 -> conv2
I0322 14:10:40.871094 24806 net.cpp:163] Setting up conv2
I0322 14:10:40.891507 24806 cudnn_conv_layer.cpp:348] fft context time 1.0401 mem 58982400
I0322 14:10:40.900672 24806 net.cpp:170] Top shape: 100 32 16 16 (819200)
I0322 14:10:40.900704 24806 layer_factory.hpp:74] Creating layer relu2
I0322 14:10:40.900717 24806 net.cpp:133] Creating Layer relu2
I0322 14:10:40.900723 24806 net.cpp:453] relu2 <- conv2
I0322 14:10:40.900732 24806 net.cpp:400] relu2 -> conv2 (in-place)
I0322 14:10:40.900741 24806 net.cpp:163] Setting up relu2
I0322 14:10:40.900986 24806 net.cpp:170] Top shape: 100 32 16 16 (819200)
I0322 14:10:40.901000 24806 layer_factory.hpp:74] Creating layer pool2
I0322 14:10:40.901010 24806 net.cpp:133] Creating Layer pool2
I0322 14:10:40.901015 24806 net.cpp:453] pool2 <- conv2
I0322 14:10:40.901022 24806 net.cpp:411] pool2 -> pool2
I0322 14:10:40.901031 24806 net.cpp:163] Setting up pool2
I0322 14:10:40.901425 24806 net.cpp:170] Top shape: 100 32 8 8 (204800)
I0322 14:10:40.901439 24806 layer_factory.hpp:74] Creating layer conv3
I0322 14:10:40.901453 24806 net.cpp:133] Creating Layer conv3
I0322 14:10:40.901459 24806 net.cpp:453] conv3 <- pool2
I0322 14:10:40.901468 24806 net.cpp:411] conv3 -> conv3
I0322 14:10:40.901480 24806 net.cpp:163] Setting up conv3
I0322 14:10:40.917053 24806 cudnn_conv_layer.cpp:348] fft context time 0.484928 mem 23756800
I0322 14:10:40.923029 24806 net.cpp:170] Top shape: 100 64 8 8 (409600)
I0322 14:10:40.923056 24806 layer_factory.hpp:74] Creating layer relu3
I0322 14:10:40.923069 24806 net.cpp:133] Creating Layer relu3
I0322 14:10:40.923075 24806 net.cpp:453] relu3 <- conv3
I0322 14:10:40.923082 24806 net.cpp:400] relu3 -> conv3 (in-place)
I0322 14:10:40.923091 24806 net.cpp:163] Setting up relu3
I0322 14:10:40.923354 24806 net.cpp:170] Top shape: 100 64 8 8 (409600)
I0322 14:10:40.923367 24806 layer_factory.hpp:74] Creating layer pool3
I0322 14:10:40.923377 24806 net.cpp:133] Creating Layer pool3
I0322 14:10:40.923382 24806 net.cpp:453] pool3 <- conv3
I0322 14:10:40.923388 24806 net.cpp:411] pool3 -> pool3
I0322 14:10:40.923398 24806 net.cpp:163] Setting up pool3
I0322 14:10:40.923779 24806 net.cpp:170] Top shape: 100 64 4 4 (102400)
I0322 14:10:40.923792 24806 layer_factory.hpp:74] Creating layer ip1
I0322 14:10:40.923804 24806 net.cpp:133] Creating Layer ip1
I0322 14:10:40.923810 24806 net.cpp:453] ip1 <- pool3
I0322 14:10:40.923818 24806 net.cpp:411] ip1 -> ip1
I0322 14:10:40.923835 24806 net.cpp:163] Setting up ip1
I0322 14:10:40.924924 24806 net.cpp:170] Top shape: 100 64 (6400)
I0322 14:10:40.924940 24806 layer_factory.hpp:74] Creating layer ip2
I0322 14:10:40.924949 24806 net.cpp:133] Creating Layer ip2
I0322 14:10:40.924954 24806 net.cpp:453] ip2 <- ip1
I0322 14:10:40.924964 24806 net.cpp:411] ip2 -> ip2
I0322 14:10:40.924973 24806 net.cpp:163] Setting up ip2
I0322 14:10:40.925011 24806 net.cpp:170] Top shape: 100 10 (1000)
I0322 14:10:40.925034 24806 layer_factory.hpp:74] Creating layer loss_clean
I0322 14:10:40.925060 24806 net.cpp:133] Creating Layer loss_clean
I0322 14:10:40.925068 24806 net.cpp:453] loss_clean <- ip2
I0322 14:10:40.925077 24806 net.cpp:453] loss_clean <- label_clean
I0322 14:10:40.925092 24806 net.cpp:411] loss_clean -> loss_clean
I0322 14:10:40.925110 24806 net.cpp:163] Setting up loss_clean
…
I0322 14:10:40.925798 24806 solver.cpp:166] Creating test net (#0) specified by net file: models/cifar10/clean_trainval.prototxt
I0322 14:10:40.925832 24806 net.cpp:330] The NetState phase (1) differed from the phase (0) specified by a rule in layer cifar
I0322 14:10:40.926004 24806 net.cpp:47] Initializing net from parameters: 
name: "cifar10_clean"
state {
  phase: TEST
}
layer {
  name: "cifar"
  type: "Data"
  top: "data"
  top: "label_clean"
  include {
    phase: TEST
  }
  transform_param {
    mean_file: "external/exp/db/cifar10/cifar10_mean.binaryproto"
  }
  data_param {
    source: "external/exp/db/cifar10/test"
    batch_size: 100
    backend: LMDB
  }
}
layer {
  name: "conv1"
  type: "Convolution"
  bottom: "data"
  top: "conv1"
  param {
    lr_mult: 1
  }
  param {
    lr_mult: 2
  }
  convolution_param {
    num_output: 32
    pad: 2
    kernel_size: 5
    stride: 1
    weight_filler {
      type: "gaussian"
      std: 0.0001
    }
    bias_filler {
      type: "constant"
    }
  }
}
layer {
  name: "pool1"
  type: "Pooling"
  bottom: "conv1"
  top: "pool1"
  pooling_param {
    pool: MAX
    kernel_size: 3
    stride: 2
  }
}
layer {
  name: "relu1"
  type: "ReLU"
  bottom: "pool1"
  top: "pool1"
}
layer {
  name: "conv2"
  type: "Convolution"
  bottom: "pool1"
  top: "conv2"
  param {
    lr_mult: 1
  }
  param {
    lr_mult: 2
  }
  convolution_param {
    num_output: 32
    pad: 2
    kernel_size: 5
    stride: 1
    weight_filler {
      type: "gaussian"
      std: 0.01
    }
    bias_filler {
      type: "constant"
    }
  }
}
layer {
  name: "relu2"
  type: "ReLU"
  bottom: "conv2"
  top: "conv2"
}
layer {
  name: "pool2"
  type: "Pooling"
  bottom: "conv2"
  top: "pool2"
  pooling_param {
    pool: AVE
    kernel_size: 3
    stride: 2
  }
}
layer {
  name: "conv3"
  type: "Convolution"
  bottom: "pool2"
  top: "conv3"
  param {
    lr_mult: 1
  }
  param {
    lr_mult: 2
  }
  convolution_param {
    num_output: 64
    pad: 2
    kernel_size: 5
    stride: 1
    weight_filler {
      type: "gaussian"
      std: 0.01
    }
    bias_filler {
      type: "constant"
    }
  }
}
layer {
  name: "relu3"
  type: "ReLU"
  bottom: "conv3"
  top: "conv3"
}
layer {
  name: "pool3"
  type: "Pooling"
  bottom: "conv3"
  top: "pool3"
  pooling_param {
    pool: AVE
    kernel_size: 3
    stride: 2
  }
}
layer {
  name: "ip1"
  type: "InnerProduct"
  bottom: "pool3"
  top: "ip1"
  param {
    lr_mult: 1
  }
  param {
    lr_mult: 2
  }
  inner_product_param {
    num_output: 64
    weight_filler {
      type: "gaussian"
      std: 0.1
    }
    bias_filler {
      type: "constant"
    }
  }
}
layer {
  name: "ip2"
  type: "InnerProduct"
  bottom: "ip1"
  top: "ip2"
  param {
    lr_mult: 1
  }
  param {
    lr_mult: 2
  }
  inner_product_param {
    num_output: 10
    weight_filler {
      type: "gaussian"
      std: 0.1
    }
    bias_filler {
      type: "constant"
    }
  }
}
layer {
  name: "accuracy"
  type: "Accuracy"
  bottom: "ip2"
  bottom: "label_clean"
  top: "accuracy"
  include {
    phase: TEST
  }
}
layer {
  name: "loss_clean"
  type: "SoftmaxWithLoss"
  bottom: "ip2"
  bottom: "label_clean"
  top: "loss_clean"
  loss_param {
    ignore_label: -1
    normalize: false
  }
}
I0322 14:10:40.926105 24806 layer_factory.hpp:74] Creating layer cifar
I0322 14:10:40.926117 24806 net.cpp:133] Creating Layer cifar
I0322 14:10:40.926125 24806 net.cpp:411] cifar -> data
I0322 14:10:40.926134 24806 net.cpp:411] cifar -> label_clean
I0322 14:10:40.926143 24806 net.cpp:163] Setting up cifar
I0322 14:10:40.926149 24806 data_transformer.cpp:23] Loading mean file from: external/exp/db/cifar10/cifar10_mean.binaryproto
I0322 14:10:40.926265 24806 db_lmdb.cpp:22] Opened lmdb external/exp/db/cifar10/test
I0322 14:10:40.926298 24806 data_layer.cpp:55] Skipping first 0 data points.
I0322 14:10:40.926323 24806 data_layer.cpp:100] output data size: 100,3,32,32
I0322 14:10:40.926744 24806 net.cpp:170] Top shape: 100 3 32 32 (307200)
I0322 14:10:40.926759 24806 net.cpp:170] Top shape: 100 (100)
I0322 14:10:40.926764 24806 layer_factory.hpp:74] Creating layer label_clean_cifar_1_split
I0322 14:10:40.926801 24806 net.cpp:133] Creating Layer label_clean_cifar_1_split
I0322 14:10:40.926811 24806 net.cpp:453] label_clean_cifar_1_split <- label_clean
I0322 14:10:40.926842 24806 net.cpp:411] label_clean_cifar_1_split -> label_clean_cifar_1_split_0
I0322 14:10:40.926856 24806 net.cpp:411] label_clean_cifar_1_split -> label_clean_cifar_1_split_1
I0322 14:10:40.926867 24806 net.cpp:163] Setting up label_clean_cifar_1_split
I0322 14:10:40.926879 24806 net.cpp:170] Top shape: 100 (100)
I0322 14:10:40.926887 24806 net.cpp:170] Top shape: 100 (100)
I0322 14:10:40.926894 24806 layer_factory.hpp:74] Creating layer conv1
I0322 14:10:40.926908 24806 net.cpp:133] Creating Layer conv1
I0322 14:10:40.926916 24806 net.cpp:453] conv1 <- data
I0322 14:10:40.926926 24806 net.cpp:411] conv1 -> conv1
I0322 14:10:40.926939 24806 net.cpp:163] Setting up conv1
I0322 14:10:40.959777 24806 net.cpp:170] Top shape: 100 32 32 32 (3276800)
I0322 14:10:40.959815 24806 layer_factory.hpp:74] Creating layer pool1
I0322 14:10:40.959828 24806 net.cpp:133] Creating Layer pool1
I0322 14:10:40.959835 24806 net.cpp:453] pool1 <- conv1
I0322 14:10:40.959841 24806 net.cpp:411] pool1 -> pool1
I0322 14:10:40.959851 24806 net.cpp:163] Setting up pool1
I0322 14:10:40.960193 24806 net.cpp:170] Top shape: 100 32 16 16 (819200)
I0322 14:10:40.960206 24806 layer_factory.hpp:74] Creating layer relu1
I0322 14:10:40.960216 24806 net.cpp:133] Creating Layer relu1
I0322 14:10:40.960221 24806 net.cpp:453] relu1 <- pool1
I0322 14:10:40.960230 24806 net.cpp:400] relu1 -> pool1 (in-place)
I0322 14:10:40.960237 24806 net.cpp:163] Setting up relu1
I0322 14:10:40.960436 24806 net.cpp:170] Top shape: 100 32 16 16 (819200)
I0322 14:10:40.960448 24806 layer_factory.hpp:74] Creating layer conv2
I0322 14:10:40.960458 24806 net.cpp:133] Creating Layer conv2
I0322 14:10:40.960464 24806 net.cpp:453] conv2 <- pool1
I0322 14:10:40.960472 24806 net.cpp:411] conv2 -> conv2
I0322 14:10:40.960482 24806 net.cpp:163] Setting up conv2
I0322 14:10:40.980835 24806 cudnn_conv_layer.cpp:348] fft context time 1.02566 mem 58982400
I0322 14:10:40.990177 24806 net.cpp:170] Top shape: 100 32 16 16 (819200)
I0322 14:10:40.990218 24806 layer_factory.hpp:74] Creating layer relu2
I0322 14:10:40.990234 24806 net.cpp:133] Creating Layer relu2
I0322 14:10:40.990258 24806 net.cpp:453] relu2 <- conv2
I0322 14:10:40.990278 24806 net.cpp:400] relu2 -> conv2 (in-place)
I0322 14:10:40.990295 24806 net.cpp:163] Setting up relu2
I0322 14:10:40.990643 24806 net.cpp:170] Top shape: 100 32 16 16 (819200)
I0322 14:10:40.990658 24806 layer_factory.hpp:74] Creating layer pool2
I0322 14:10:40.990670 24806 net.cpp:133] Creating Layer pool2
I0322 14:10:40.990677 24806 net.cpp:453] pool2 <- conv2
I0322 14:10:40.990689 24806 net.cpp:411] pool2 -> pool2
I0322 14:10:40.990717 24806 net.cpp:163] Setting up pool2
I0322 14:10:40.991206 24806 net.cpp:170] Top shape: 100 32 8 8 (204800)
I0322 14:10:40.991225 24806 layer_factory.hpp:74] Creating layer conv3
I0322 14:10:40.991247 24806 net.cpp:133] Creating Layer conv3
I0322 14:10:40.991255 24806 net.cpp:453] conv3 <- pool2
I0322 14:10:40.991287 24806 net.cpp:411] conv3 -> conv3
I0322 14:10:40.991314 24806 net.cpp:163] Setting up conv3
I0322 14:10:41.007566 24806 cudnn_conv_layer.cpp:348] fft context time 0.490208 mem 23756800
I0322 14:10:41.014628 24806 net.cpp:170] Top shape: 100 64 8 8 (409600)
I0322 14:10:41.014678 24806 layer_factory.hpp:74] Creating layer relu3
I0322 14:10:41.014699 24806 net.cpp:133] Creating Layer relu3
I0322 14:10:41.014710 24806 net.cpp:453] relu3 <- conv3
I0322 14:10:41.014734 24806 net.cpp:400] relu3 -> conv3 (in-place)
I0322 14:10:41.014751 24806 net.cpp:163] Setting up relu3
I0322 14:10:41.015063 24806 net.cpp:170] Top shape: 100 64 8 8 (409600)
I0322 14:10:41.015076 24806 layer_factory.hpp:74] Creating layer pool3
I0322 14:10:41.015086 24806 net.cpp:133] Creating Layer pool3
I0322 14:10:41.015092 24806 net.cpp:453] pool3 <- conv3
I0322 14:10:41.015103 24806 net.cpp:411] pool3 -> pool3
I0322 14:10:41.015115 24806 net.cpp:163] Setting up pool3
I0322 14:10:41.015627 24806 net.cpp:170] Top shape: 100 64 4 4 (102400)
I0322 14:10:41.015645 24806 layer_factory.hpp:74] Creating layer ip1
I0322 14:10:41.015660 24806 net.cpp:133] Creating Layer ip1
I0322 14:10:41.015666 24806 net.cpp:453] ip1 <- pool3
I0322 14:10:41.015676 24806 net.cpp:411] ip1 -> ip1
I0322 14:10:41.015691 24806 net.cpp:163] Setting up ip1
I0322 14:10:41.016914 24806 net.cpp:170] Top shape: 100 64 (6400)
I0322 14:10:41.016932 24806 layer_factory.hpp:74] Creating layer ip2
I0322 14:10:41.016942 24806 net.cpp:133] Creating Layer ip2
I0322 14:10:41.016947 24806 net.cpp:453] ip2 <- ip1
I0322 14:10:41.016959 24806 net.cpp:411] ip2 -> ip2
I0322 14:10:41.016974 24806 net.cpp:163] Setting up ip2
I0322 14:10:41.017012 24806 net.cpp:170] Top shape: 100 10 (1000)
I0322 14:10:41.017030 24806 layer_factory.hpp:74] Creating layer ip2_ip2_0_split
I0322 14:10:41.017042 24806 net.cpp:133] Creating Layer ip2_ip2_0_split
I0322 14:10:41.017048 24806 net.cpp:453] ip2_ip2_0_split <- ip2
I0322 14:10:41.017057 24806 net.cpp:411] ip2_ip2_0_split -> ip2_ip2_0_split_0
I0322 14:10:41.017071 24806 net.cpp:411] ip2_ip2_0_split -> ip2_ip2_0_split_1
I0322 14:10:41.017082 24806 net.cpp:163] Setting up ip2_ip2_0_split
I0322 14:10:41.017097 24806 net.cpp:170] Top shape: 100 10 (1000)
I0322 14:10:41.017109 24806 net.cpp:170] Top shape: 100 10 (1000)
I0322 14:10:41.017118 24806 layer_factory.hpp:74] Creating layer accuracy
I0322 14:10:41.017138 24806 net.cpp:133] Creating Layer accuracy
I0322 14:10:41.017146 24806 net.cpp:453] accuracy <- ip2_ip2_0_split_0
I0322 14:10:41.017154 24806 net.cpp:453] accuracy <- label_clean_cifar_1_split_0
I0322 14:10:41.017166 24806 net.cpp:411] accuracy -> accuracy
I0322 14:10:41.017177 24806 net.cpp:163] Setting up accuracy
…
