…
  data_param {
    source: "external/exp/db/cifar10/mixed_train_label_clean"
    batch_size: 100
    backend: LMDB
  }
}
layer {
  name: "label_noisy"
  type: "Data"
  top: "label_noisy"
  include {
    phase: TRAIN
  }
  data_param {
    source: "external/exp/db/cifar10/mixed_train_label_noisy"
    batch_size: 100
    backend: LMDB
  }
}
layer {
  name: "label_ntype"
  type: "Data"
  top: "label_ntype"
  include {
    phase: TRAIN
  }
  data_param {
    source: "external/exp/db/cifar10/mixed_train_label_ntype"
    batch_size: 100
    backend: LMDB
  }
}
layer {
  name: "conv1_clean"
  type: "Convolution"
  bottom: "data"
  top: "conv1_clean"
  param {
    lr_mult: 1
  }
  param {
    lr_mult: 2
  }
  convolution_param {
    num_output: 32
    pad: 2
    kernel_size: 5
    stride: 1
    weight_filler {
      type: "gaussian"
      std: 0.0001
    }
    bias_filler {
      type: "constant"
    }
  }
}
layer {
  name: "pool1_clean"
  type: "Pooling"
  bottom: "conv1_clean"
  top: "pool1_clean"
  pooling_param {
    pool: MAX
    kernel_size: 3
    stride: 2
  }
}
layer {
  name: "relu1_clean"
  type: "ReLU"
  bottom: "pool1_clean"
  top: "pool1_clean"
}
layer {
  name: "conv2_clean"
  type: "Convolution"
  bottom: "pool1_clean"
  top: "conv2_clean"
  param {
    lr_mult: 1
  }
  param {
    lr_mult: 2
  }
  convolution_param {
    num_output: 32
    pad: 2
    kernel_size: 5
    stride: 1
    weight_filler {
      type: "gaussian"
      std: 0.01
    }
    bias_filler {
      type: "constant"
    }
  }
}
layer {
  name: "relu2_clean"
  type: "ReLU"
  bottom: "conv2_clean"
  top: "conv2_clean"
}
layer {
  name: "pool2_clean"
  type: "Pooling"
  bottom: "conv2_clean"
  top: "pool2_clean"
  pooling_param {
    pool: AVE
    kernel_size: 3
    stride: 2
  }
}
layer {
  name: "conv3_clean"
  type: "Convolution"
  bottom: "pool2_clean"
  top: "conv3_clean"
  param {
    lr_mult: 1
  }
  param {
    lr_mult: 2
  }
  convolution_param {
    num_output: 64
    pad: 2
    kernel_size: 5
    stride: 1
    weight_filler {
      type: "gaussian"
      std: 0.01
    }
    bias_filler {
      type: "constant"
    }
  }
}
layer {
  name: "relu3_clean"
  type: "ReLU"
  bottom: "conv3_clean"
  top: "conv3_clean"
}
layer {
  name: "pool3_clean"
  type: "Pooling"
  bottom: "conv3_clean"
  top: "pool3_clean"
  pooling_param {
    pool: AVE
    kernel_size: 3
    stride: 2
  }
}
layer {
  name: "ip1_clean"
  type: "InnerProduct"
  bottom: "pool3_clean"
  top: "ip1_clean"
  param {
    lr_mult: 1
  }
  param {
    lr_mult: 2
  }
  inner_product_param {
    num_output: 64
    weight_filler {
      type: "gaussian"
      std: 0.1
    }
    bias_filler {
      type: "constant"
    }
  }
}
layer {
  name: "ip2_clean"
  type: "InnerProduct"
  bottom: "ip1_clean"
  top: "ip2_clean"
  param {
    lr_mult: 1
  }
  param {
    lr_mult: 2
  }
  inner_product_param {
    num_output: 10
    weight_filler {
      type: "gaussian"
      std: 0.1
    }
    bias_filler {
      type: "constant"
    }
  }
}
layer {
  name: "loss_clean"
  type: "SoftmaxWithLoss"
  bottom: "ip2_clean"
  bottom: "label_clean"
  top: "loss_clean"
  loss_param {
    ignore_label: -1
    normalize: false
  }
}
layer {
  name: "conv1_ntype"
  type: "Convolution"
  bottom: "data"
  top: "conv1_ntype"
  param {
    lr_mult: 1
  }
  param {
    lr_mult: 2
  }
  include {
    phase: TRAIN
  }
  convolution_param {
    num_output: 32
    pad: 2
    kernel_size: 5
    stride: 1
    weight_filler {
      type: "gaussian"
      std: 0.0001
    }
    bias_filler {
      type: "constant"
    }
  }
}
layer {
  name: "pool1_ntype"
  type: "Pooling"
  bottom: "conv1_ntype"
  top: "pool1_ntype"
  include {
    phase: TRAIN
  }
  pooling_param {
    pool: MAX
    kernel_size: 3
    stride: 2
  }
}
layer {
  name: "relu1_ntype"
  type: "ReLU"
  bottom: "pool1_ntype"
  top: "pool1_ntype"
  include {
    phase: TRAIN
  }
}
layer {
  name: "conv2_ntype"
  type: "Convolution"
  bottom: "pool1_ntype"
  top: "conv2_ntype"
  param {
    lr_mult: 1
  }
  param {
    lr_mult: 2
  }
  include {
    phase: TRAIN
  }
  convolution_param {
    num_output: 32
    pad: 2
    kernel_size: 5
    stride: 1
    weight_filler {
      type: "gaussian"
      std: 0.01
    }
    bias_filler {
      type: "constant"
    }
  }
}
layer {
  name: "relu2_ntype"
  type: "ReLU"
  bottom: "conv2_ntype"
  top: "conv2_ntype"
  include {
    phase: TRAIN
  }
}
layer {
  name: "pool2_ntype"
  type: "Pooling"
  bottom: "conv2_ntype"
  top: "pool2_ntype"
  include {
    phase: TRAIN
  }
  pooling_param {
    pool: AVE
    kernel_size: 3
    stride: 2
  }
}
layer {
  name: "conv3_ntype"
  type: "Convolution"
  bottom: "pool2_ntype"
  top: "conv3_ntype"
  param {
    lr_mult: 1
  }
  param {
    lr_mult: 2
  }
  include {
    phase: TRAIN
  }
  convolution_param {
    num_output: 64
    pad: 2
    kernel_size: 5
    stride: 1
    weight_filler {
      type: "gaussian"
      std: 0.01
    }
    bias_filler {
      type: "constant"
    }
  }
}
layer {
  name: "relu3_ntype"
  type: "ReLU"
  bottom: "conv3_ntype"
  top: "conv3_ntype"
  include {
    phase: TRAIN
  }
}
layer {
  name: "pool3_ntype"
  type: "Pooling"
  bottom: "conv3_ntype"
  top: "pool3_ntype"
  include {
    phase: TRAIN
  }
  pooling_param {
    pool: AVE
    kernel_size: 3
    stride: 2
  }
}
layer {
  name: "ip1_ntype"
  type: "InnerProduct"
  bottom: "pool3_ntype"
  top: "ip1_ntype"
  param {
    lr_mult: 1
  }
  param {
    lr_mult: 2
  }
  include {
    phase: TRAIN
  }
  inner_product_param {
    num_output: 64
    weight_filler {
      type: "gaussian"
      std: 0.1
    }
    bias_filler {
      type: "constant"
    }
  }
}
layer {
  name: "ip2_ntype"
  type: "InnerProduct"
  bottom: "ip1_ntype"
  top: "ip2_ntype"
  param {
    lr_mult: 1
  }
  param {
    lr_mult: 2
  }
  include {
    phase: TRAIN
  }
  inner_product_param {
    num_output: 3
    weight_filler {
      type: "gaussian"
      std: 0.1
    }
    bias_filler {
      type: "constant"
    }
  }
}
layer {
  name: "loss_ntype"
  type: "SoftmaxWithLoss"
  bottom: "ip2_ntype"
  bottom: "label_ntype"
  top: "loss_ntype"
  include {
    phase: TRAIN
  }
  loss_param {
    ignore_label: -1
    normalize: false
  }
}
layer {
  name: "loss_noisy"
  type: "SoftmaxWithNoisyLabelLoss"
  bottom: "ip2_clean"
  bottom: "ip2_ntype"
  bottom: "label_noisy"
  top: "loss_noisy"
  param {
    lr_mult: 0
    decay_mult: 0
  }
  include {
    phase: TRAIN
  }
  softmax_noisy_label_loss_param {
    matrix_c_filler {
      type: "blob_proto"
      source: "external/exp/db/cifar10/matrix_c.binaryproto"
    }
  }
}
I0322 14:34:05.037789  8642 layer_factory.hpp:74] Creating layer cifar
I0322 14:34:05.037806  8642 net.cpp:133] Creating Layer cifar
I0322 14:34:05.037814  8642 net.cpp:411] cifar -> data
I0322 14:34:05.037844  8642 net.cpp:163] Setting up cifar
I0322 14:34:05.037852  8642 data_transformer.cpp:23] Loading mean file from: external/exp/db/cifar10/cifar10_mean.binaryproto
I0322 14:34:05.037981  8642 db_lmdb.cpp:22] Opened lmdb external/exp/db/cifar10/mixed_train_images
I0322 14:34:05.038013  8642 data_layer.cpp:55] Skipping first 0 data points.
I0322 14:34:05.038030  8642 data_layer.cpp:100] output data size: 100,3,32,32
I0322 14:34:05.038107  8642 net.cpp:170] Top shape: 100 3 32 32 (307200)
I0322 14:34:05.038125  8642 layer_factory.hpp:74] Creating layer data_cifar_0_split
I0322 14:34:05.038131  8642 net.cpp:133] Creating Layer data_cifar_0_split
I0322 14:34:05.038136  8642 net.cpp:453] data_cifar_0_split <- data
I0322 14:34:05.038144  8642 net.cpp:411] data_cifar_0_split -> data_cifar_0_split_0
I0322 14:34:05.038151  8642 net.cpp:411] data_cifar_0_split -> data_cifar_0_split_1
I0322 14:34:05.038159  8642 net.cpp:163] Setting up data_cifar_0_split
I0322 14:34:05.038166  8642 net.cpp:170] Top shape: 100 3 32 32 (307200)
I0322 14:34:05.038169  8642 net.cpp:170] Top shape: 100 3 32 32 (307200)
I0322 14:34:05.038172  8642 layer_factory.hpp:74] Creating layer label_clean
I0322 14:34:05.038179  8642 net.cpp:133] Creating Layer label_clean
I0322 14:34:05.038183  8642 net.cpp:411] label_clean -> label_clean
I0322 14:34:05.038188  8642 net.cpp:163] Setting up label_clean
I0322 14:34:05.038213  8642 db_lmdb.cpp:22] Opened lmdb external/exp/db/cifar10/mixed_train_label_clean
I0322 14:34:05.038221  8642 data_layer.cpp:55] Skipping first 0 data points.
I0322 14:34:05.038228  8642 data_layer.cpp:100] output data size: 100,1,1,1
I0322 14:34:05.038249  8642 net.cpp:170] Top shape: 100 1 1 1 (100)
I0322 14:34:05.038254  8642 layer_factory.hpp:74] Creating layer label_noisy
I0322 14:34:05.038259  8642 net.cpp:133] Creating Layer label_noisy
I0322 14:34:05.038264  8642 net.cpp:411] label_noisy -> label_noisy
I0322 14:34:05.038269  8642 net.cpp:163] Setting up label_noisy
I0322 14:34:05.038295  8642 db_lmdb.cpp:22] Opened lmdb external/exp/db/cifar10/mixed_train_label_noisy
I0322 14:34:05.038301  8642 data_layer.cpp:55] Skipping first 0 data points.
I0322 14:34:05.038308  8642 data_layer.cpp:100] output data size: 100,1,1,1
I0322 14:34:05.038336  8642 net.cpp:170] Top shape: 100 1 1 1 (100)
I0322 14:34:05.038342  8642 layer_factory.hpp:74] Creating layer label_ntype
I0322 14:34:05.038374  8642 net.cpp:133] Creating Layer label_ntype
I0322 14:34:05.038388  8642 net.cpp:411] label_ntype -> label_ntype
I0322 14:34:05.038399  8642 net.cpp:163] Setting up label_ntype
I0322 14:34:05.038434  8642 db_lmdb.cpp:22] Opened lmdb external/exp/db/cifar10/mixed_train_label_ntype
I0322 14:34:05.038444  8642 data_layer.cpp:55] Skipping first 0 data points.
I0322 14:34:05.038452  8642 data_layer.cpp:100] output data size: 100,1,1,1
I0322 14:34:05.038486  8642 net.cpp:170] Top shape: 100 1 1 1 (100)
I0322 14:34:05.038491  8642 layer_factory.hpp:74] Creating layer conv1_clean
I0322 14:34:05.038501  8642 net.cpp:133] Creating Layer conv1_clean
I0322 14:34:05.038508  8642 net.cpp:453] conv1_clean <- data_cifar_0_split_0
I0322 14:34:05.038527  8642 net.cpp:411] conv1_clean -> conv1_clean
I0322 14:34:05.038542  8642 net.cpp:163] Setting up conv1_clean
I0322 14:34:05.167691  8642 net.cpp:170] Top shape: 100 32 32 32 (3276800)
I0322 14:34:05.167734  8642 layer_factory.hpp:74] Creating layer pool1_clean
I0322 14:34:05.167747  8642 net.cpp:133] Creating Layer pool1_clean
I0322 14:34:05.167750  8642 net.cpp:453] pool1_clean <- conv1_clean
I0322 14:34:05.167768  8642 net.cpp:411] pool1_clean -> pool1_clean
I0322 14:34:05.167776  8642 net.cpp:163] Setting up pool1_clean
I0322 14:34:05.167944  8642 net.cpp:170] Top shape: 100 32 16 16 (819200)
I0322 14:34:05.167953  8642 layer_factory.hpp:74] Creating layer relu1_clean
I0322 14:34:05.167958  8642 net.cpp:133] Creating Layer relu1_clean
I0322 14:34:05.167961  8642 net.cpp:453] relu1_clean <- pool1_clean
I0322 14:34:05.167965  8642 net.cpp:400] relu1_clean -> pool1_clean (in-place)
I0322 14:34:05.167973  8642 net.cpp:163] Setting up relu1_clean
I0322 14:34:05.168218  8642 net.cpp:170] Top shape: 100 32 16 16 (819200)
I0322 14:34:05.168226  8642 layer_factory.hpp:74] Creating layer conv2_clean
I0322 14:34:05.168237  8642 net.cpp:133] Creating Layer conv2_clean
I0322 14:34:05.168241  8642 net.cpp:453] conv2_clean <- pool1_clean
I0322 14:34:05.168247  8642 net.cpp:411] conv2_clean -> conv2_clean
I0322 14:34:05.168256  8642 net.cpp:163] Setting up conv2_clean
I0322 14:34:05.186908  8642 cudnn_conv_layer.cpp:348] fft context time 1.0209 mem 58982400
I0322 14:34:05.195235  8642 net.cpp:170] Top shape: 100 32 16 16 (819200)
I0322 14:34:05.195250  8642 layer_factory.hpp:74] Creating layer relu2_clean
I0322 14:34:05.195256  8642 net.cpp:133] Creating Layer relu2_clean
I0322 14:34:05.195260  8642 net.cpp:453] relu2_clean <- conv2_clean
I0322 14:34:05.195263  8642 net.cpp:400] relu2_clean -> conv2_clean (in-place)
I0322 14:34:05.195268  8642 net.cpp:163] Setting up relu2_clean
I0322 14:34:05.195438  8642 net.cpp:170] Top shape: 100 32 16 16 (819200)
I0322 14:34:05.195446  8642 layer_factory.hpp:74] Creating layer pool2_clean
I0322 14:34:05.195451  8642 net.cpp:133] Creating Layer pool2_clean
I0322 14:34:05.195454  8642 net.cpp:453] pool2_clean <- conv2_clean
I0322 14:34:05.195458  8642 net.cpp:411] pool2_clean -> pool2_clean
I0322 14:34:05.195466  8642 net.cpp:163] Setting up pool2_clean
I0322 14:34:05.195714  8642 net.cpp:170] Top shape: 100 32 8 8 (204800)
I0322 14:34:05.195724  8642 layer_factory.hpp:74] Creating layer conv3_clean
I0322 14:34:05.195730  8642 net.cpp:133] Creating Layer conv3_clean
I0322 14:34:05.195734  8642 net.cpp:453] conv3_clean <- pool2_clean
I0322 14:34:05.195739  8642 net.cpp:411] conv3_clean -> conv3_clean
I0322 14:34:05.195744  8642 net.cpp:163] Setting up conv3_clean
I0322 14:34:05.208834  8642 cudnn_conv_layer.cpp:348] fft context time 0.47632 mem 23756800
I0322 14:34:05.214473  8642 net.cpp:170] Top shape: 100 64 8 8 (409600)
I0322 14:34:05.214494  8642 layer_factory.hpp:74] Creating layer relu3_clean
I0322 14:34:05.214504  8642 net.cpp:133] Creating Layer relu3_clean
I0322 14:34:05.214509  8642 net.cpp:453] relu3_clean <- conv3_clean
I0322 14:34:05.214514  8642 net.cpp:400] relu3_clean -> conv3_clean (in-place)
I0322 14:34:05.214522  8642 net.cpp:163] Setting up relu3_clean
I0322 14:34:05.214679  8642 net.cpp:170] Top shape: 100 64 8 8 (409600)
I0322 14:34:05.214686  8642 layer_factory.hpp:74] Creating layer pool3_clean
I0322 14:34:05.214694  8642 net.cpp:133] Creating Layer pool3_clean
I0322 14:34:05.214699  8642 net.cpp:453] pool3_clean <- conv3_clean
I0322 14:34:05.214704  8642 net.cpp:411] pool3_clean -> pool3_clean
I0322 14:34:05.214709  8642 net.cpp:163] Setting up pool3_clean
I0322 14:34:05.214942  8642 net.cpp:170] Top shape: 100 64 4 4 (102400)
I0322 14:34:05.214951  8642 layer_factory.hpp:74] Creating layer ip1_clean
I0322 14:34:05.214959  8642 net.cpp:133] Creating Layer ip1_clean
I0322 14:34:05.214962  8642 net.cpp:453] ip1_clean <- pool3_clean
I0322 14:34:05.214969  8642 net.cpp:411] ip1_clean -> ip1_clean
I0322 14:34:05.214982  8642 net.cpp:163] Setting up ip1_clean
I0322 14:34:05.215721  8642 net.cpp:170] Top shape: 100 64 (6400)
I0322 14:34:05.215731  8642 layer_factory.hpp:74] Creating layer ip2_clean
I0322 14:34:05.215739  8642 net.cpp:133] Creating Layer ip2_clean
I0322 14:34:05.215744  8642 net.cpp:453] ip2_clean <- ip1_clean
I0322 14:34:05.215749  8642 net.cpp:411] ip2_clean -> ip2_clean
I0322 14:34:05.215755  8642 net.cpp:163] Setting up ip2_clean
I0322 14:34:05.215775  8642 net.cpp:170] Top shape: 100 10 (1000)
I0322 14:34:05.215782  8642 layer_factory.hpp:74] Creating layer ip2_clean_ip2_clean_0_split
I0322 14:34:05.215792  8642 net.cpp:133] Creating Layer ip2_clean_ip2_clean_0_split
I0322 14:34:05.215796  8642 net.cpp:453] ip2_clean_ip2_clean_0_split <- ip2_clean
I0322 14:34:05.215801  8642 net.cpp:411] ip2_clean_ip2_clean_0_split -> ip2_clean_ip2_clean_0_split_0
I0322 14:34:05.215808  8642 net.cpp:411] ip2_clean_ip2_clean_0_split -> ip2_clean_ip2_clean_0_split_1
I0322 14:34:05.215813  8642 net.cpp:163] Setting up ip2_clean_ip2_clean_0_split
I0322 14:34:05.215819  8642 net.cpp:170] Top shape: 100 10 (1000)
I0322 14:34:05.215823  8642 net.cpp:170] Top shape: 100 10 (1000)
I0322 14:34:05.215837  8642 layer_factory.hpp:74] Creating layer loss_clean
I0322 14:34:05.215844  8642 net.cpp:133] Creating Layer loss_clean
I0322 14:34:05.215847  8642 net.cpp:453] loss_clean <- ip2_clean_ip2_clean_0_split_0
I0322 14:34:05.215852  8642 net.cpp:453] loss_clean <- label_clean
I0322 14:34:05.215857  8642 net.cpp:411] loss_clean -> loss_clean
I0322 14:34:05.215865  8642 net.cpp:163] Setting up loss_clean
I0322 14:34:05.215873  8642 layer_factory.hpp:74] Creating layer loss_clean
I0322 14:34:05.216006  8642 net.cpp:170] Top shape: (1)
I0322 14:34:05.216012  8642 net.cpp:172]     with loss weight 1
I0322 14:34:05.216020  8642 layer_factory.hpp:74] Creating layer conv1_ntype
I0322 14:34:05.216035  8642 net.cpp:133] Creating Layer conv1_ntype
I0322 14:34:05.216039  8642 net.cpp:453] conv1_ntype <- data_cifar_0_split_1
I0322 14:34:05.216047  8642 net.cpp:411] conv1_ntype -> conv1_ntype
I0322 14:34:05.216053  8642 net.cpp:163] Setting up conv1_ntype
I0322 14:34:05.248142  8642 net.cpp:170] Top shape: 100 32 32 32 (3276800)
I0322 14:34:05.248174  8642 layer_factory.hpp:74] Creating layer pool1_ntype
I0322 14:34:05.248188  8642 net.cpp:133] Creating Layer pool1_ntype
I0322 14:34:05.248195  8642 net.cpp:453] pool1_ntype <- conv1_ntype
I0322 14:34:05.248206  8642 net.cpp:411] pool1_ntype -> pool1_ntype
I0322 14:34:05.248232  8642 net.cpp:163] Setting up pool1_ntype
I0322 14:34:05.248522  8642 net.cpp:170] Top shape: 100 32 16 16 (819200)
I0322 14:34:05.248535  8642 layer_factory.hpp:74] Creating layer relu1_ntype
I0322 14:34:05.248545  8642 net.cpp:133] Creating Layer relu1_ntype
I0322 14:34:05.248553  8642 net.cpp:453] relu1_ntype <- pool1_ntype
I0322 14:34:05.248570  8642 net.cpp:400] relu1_ntype -> pool1_ntype (in-place)
I0322 14:34:05.248581  8642 net.cpp:163] Setting up relu1_ntype
I0322 14:34:05.248733  8642 net.cpp:170] Top shape: 100 32 16 16 (819200)
I0322 14:34:05.248744  8642 layer_factory.hpp:74] Creating layer conv2_ntype
I0322 14:34:05.248759  8642 net.cpp:133] Creating Layer conv2_ntype
I0322 14:34:05.248769  8642 net.cpp:453] conv2_ntype <- pool1_ntype
I0322 14:34:05.248781  8642 net.cpp:411] conv2_ntype -> conv2_ntype
I0322 14:34:05.248795  8642 net.cpp:163] Setting up conv2_ntype
I0322 14:34:05.268033  8642 cudnn_conv_layer.cpp:348] fft context time 1.02758 mem 58982400
I0322 14:34:05.277251  8642 net.cpp:170] Top shape: 100 32 16 16 (819200)
I0322 14:34:05.277279  8642 layer_factory.hpp:74] Creating layer relu2_ntype
I0322 14:34:05.277297  8642 net.cpp:133] Creating Layer relu2_ntype
I0322 14:34:05.277312  8642 net.cpp:453] relu2_ntype <- conv2_ntype
I0322 14:34:05.277328  8642 net.cpp:400] relu2_ntype -> conv2_ntype (in-place)
I0322 14:34:05.277346  8642 net.cpp:163] Setting up relu2_ntype
I0322 14:34:05.277607  8642 net.cpp:170] Top shape: 100 32 16 16 (819200)
I0322 14:34:05.277621  8642 layer_factory.hpp:74] Creating layer pool2_ntype
I0322 14:34:05.277636  8642 net.cpp:133] Creating Layer pool2_ntype
I0322 14:34:05.277645  8642 net.cpp:453] pool2_ntype <- conv2_ntype
I0322 14:34:05.277665  8642 net.cpp:411] pool2_ntype -> pool2_ntype
I0322 14:34:05.277685  8642 net.cpp:163] Setting up pool2_ntype
I0322 14:34:05.278056  8642 net.cpp:170] Top shape: 100 32 8 8 (204800)
I0322 14:34:05.278071  8642 layer_factory.hpp:74] Creating layer conv3_ntype
I0322 14:34:05.278091  8642 net.cpp:133] Creating Layer conv3_ntype
I0322 14:34:05.278105  8642 net.cpp:453] conv3_ntype <- pool2_ntype
I0322 14:34:05.278125  8642 net.cpp:411] conv3_ntype -> conv3_ntype
I0322 14:34:05.278143  8642 net.cpp:163] Setting up conv3_ntype
I0322 14:34:05.292189  8642 cudnn_conv_layer.cpp:348] fft context time 0.474368 mem 23756800
I0322 14:34:05.298353  8642 net.cpp:170] Top shape: 100 64 8 8 (409600)
I0322 14:34:05.298404  8642 layer_factory.hpp:74] Creating layer relu3_ntype
I0322 14:34:05.298419  8642 net.cpp:133] Creating Layer relu3_ntype
I0322 14:34:05.298427  8642 net.cpp:453] relu3_ntype <- conv3_ntype
I0322 14:34:05.298449  8642 net.cpp:400] relu3_ntype -> conv3_ntype (in-place)
I0322 14:34:05.298465  8642 net.cpp:163] Setting up relu3_ntype
I0322 14:34:05.298678  8642 net.cpp:170] Top shape: 100 64 8 8 (409600)
I0322 14:34:05.298689  8642 layer_factory.hpp:74] Creating layer pool3_ntype
I0322 14:34:05.298702  8642 net.cpp:133] Creating Layer pool3_ntype
I0322 14:34:05.298712  8642 net.cpp:453] pool3_ntype <- conv3_ntype
I0322 14:34:05.298727  8642 net.cpp:411] pool3_ntype -> pool3_ntype
I0322 14:34:05.298741  8642 net.cpp:163] Setting up pool3_ntype
I0322 14:34:05.299052  8642 net.cpp:170] Top shape: 100 64 4 4 (102400)
I0322 14:34:05.299063  8642 layer_factory.hpp:74] Creating layer ip1_ntype
I0322 14:34:05.299080  8642 net.cpp:133] Creating Layer ip1_ntype
I0322 14:34:05.299090  8642 net.cpp:453] ip1_ntype <- pool3_ntype
I0322 14:34:05.299106  8642 net.cpp:411] ip1_ntype -> ip1_ntype
I0322 14:34:05.299124  8642 net.cpp:163] Setting up ip1_ntype
I0322 14:34:05.299940  8642 net.cpp:170] Top shape: 100 64 (6400)
I0322 14:34:05.299964  8642 layer_factory.hpp:74] Creating layer ip2_ntype
I0322 14:34:05.299980  8642 net.cpp:133] Creating Layer ip2_ntype
I0322 14:34:05.299989  8642 net.cpp:453] ip2_ntype <- ip1_ntype
I0322 14:34:05.300004  8642 net.cpp:411] ip2_ntype -> ip2_ntype
I0322 14:34:05.300019  8642 net.cpp:163] Setting up ip2_ntype
I0322 14:34:05.300041  8642 net.cpp:170] Top shape: 100 3 (300)
I0322 14:34:05.300055  8642 layer_factory.hpp:74] Creating layer ip2_ntype_ip2_ntype_0_split
I0322 14:34:05.300071  8642 net.cpp:133] Creating Layer ip2_ntype_ip2_ntype_0_split
I0322 14:34:05.300081  8642 net.cpp:453] ip2_ntype_ip2_ntype_0_split <- ip2_ntype
I0322 14:34:05.300091  8642 net.cpp:411] ip2_ntype_ip2_ntype_0_split -> ip2_ntype_ip2_ntype_0_split_0
I0322 14:34:05.300109  8642 net.cpp:411] ip2_ntype_ip2_ntype_0_split -> ip2_ntype_ip2_ntype_0_split_1
I0322 14:34:05.300122  8642 net.cpp:163] Setting up ip2_ntype_ip2_ntype_0_split
I0322 14:34:05.300134  8642 net.cpp:170] Top shape: 100 3 (300)
I0322 14:34:05.300145  8642 net.cpp:170] Top shape: 100 3 (300)
I0322 14:34:05.300154  8642 layer_factory.hpp:74] Creating layer loss_ntype
I0322 14:34:05.300168  8642 net.cpp:133] Creating Layer loss_ntype
I0322 14:34:05.300176  8642 net.cpp:453] loss_ntype <- ip2_ntype_ip2_ntype_0_split_0
I0322 14:34:05.300185  8642 net.cpp:453] loss_ntype <- label_ntype
I0322 14:34:05.300199  8642 net.cpp:411] loss_ntype -> loss_ntype
I0322 14:34:05.300212  8642 net.cpp:163] Setting up loss_ntype
…
I0322 14:34:05.301659  8642 net.cpp:330] The NetState phase (1) differed from the phase (0) specified by a rule in layer loss_noisy
I0322 14:34:05.301801  8642 net.cpp:47] Initializing net from parameters: 
name: "cifar10_noisy_label_loss"
state {
  phase: TEST
}
layer {
  name: "cifar"
  type: "Data"
  top: "data"
  top: "label_clean"
  include {
    phase: TEST
  }
  transform_param {
    mean_file: "external/exp/db/cifar10/cifar10_mean.binaryproto"
  }
  data_param {
    source: "external/exp/db/cifar10/test"
    batch_size: 100
    backend: LMDB
  }
}
layer {
  name: "conv1_clean"
  type: "Convolution"
  bottom: "data"
  top: "conv1_clean"
  param {
    lr_mult: 1
  }
  param {
    lr_mult: 2
  }
  convolution_param {
    num_output: 32
    pad: 2
    kernel_size: 5
    stride: 1
    weight_filler {
      type: "gaussian"
      std: 0.0001
    }
    bias_filler {
      type: "constant"
    }
  }
}
layer {
  name: "pool1_clean"
  type: "Pooling"
  bottom: "conv1_clean"
  top: "pool1_clean"
  pooling_param {
    pool: MAX
    kernel_size: 3
    stride: 2
  }
}
layer {
  name: "relu1_clean"
  type: "ReLU"
  bottom: "pool1_clean"
  top: "pool1_clean"
}
layer {
  name: "conv2_clean"
  type: "Convolution"
  bottom: "pool1_clean"
  top: "conv2_clean"
  param {
    lr_mult: 1
  }
  param {
    lr_mult: 2
  }
  convolution_param {
    num_output: 32
    pad: 2
    kernel_size: 5
    stride: 1
    weight_filler {
      type: "gaussian"
      std: 0.01
    }
    bias_filler {
      type: "constant"
    }
  }
}
layer {
  name: "relu2_clean"
  type: "ReLU"
  bottom: "conv2_clean"
  top: "conv2_clean"
}
layer {
  name: "pool2_clean"
  type: "Pooling"
  bottom: "conv2_clean"
  top: "pool2_clean"
  pooling_param {
    pool: AVE
    kernel_size: 3
    stride: 2
  }
}
layer {
  name: "conv3_clean"
  type: "Convolution"
  bottom: "pool2_clean"
  top: "conv3_clean"
  param {
    lr_mult: 1
  }
  param {
    lr_mult: 2
  }
  convolution_param {
    num_output: 64
    pad: 2
    kernel_size: 5
    stride: 1
    weight_filler {
      type: "gaussian"
      std: 0.01
    }
    bias_filler {
      type: "constant"
    }
  }
}
layer {
  name: "relu3_clean"
  type: "ReLU"
  bottom: "conv3_clean"
  top: "conv3_clean"
}
layer {
  name: "pool3_clean"
  type: "Pooling"
  bottom: "conv3_clean"
  top: "pool3_clean"
  pooling_param {
    pool: AVE
    kernel_size: 3
    stride: 2
  }
}
layer {
  name: "ip1_clean"
  type: "InnerProduct"
  bottom: "pool3_clean"
  top: "ip1_clean"
  param {
    lr_mult: 1
  }
  param {
    lr_mult: 2
  }
  inner_product_param {
    num_output: 64
    weight_filler {
      type: "gaussian"
      std: 0.1
    }
    bias_filler {
      type: "constant"
    }
  }
}
layer {
  name: "ip2_clean"
  type: "InnerProduct"
  bottom: "ip1_clean"
  top: "ip2_clean"
  param {
    lr_mult: 1
  }
  param {
    lr_mult: 2
  }
  inner_product_param {
    num_output: 10
    weight_filler {
      type: "gaussian"
      std: 0.1
    }
    bias_filler {
      type: "constant"
    }
  }
}
layer {
  name: "accuracy"
  type: "Accuracy"
  bottom: "ip2_clean"
  bottom: "label_clean"
  top: "accuracy"
  include {
    phase: TEST
  }
}
layer {
  name: "loss_clean"
  type: "SoftmaxWithLoss"
  bottom: "ip2_clean"
  bottom: "label_clean"
  top: "loss_clean"
  loss_param {
    ignore_label: -1
    normalize: false
  }
}
I0322 14:34:05.301903  8642 layer_factory.hpp:74] Creating layer cifar
I0322 14:34:05.301918  8642 net.cpp:133] Creating Layer cifar
I0322 14:34:05.301928  8642 net.cpp:411] cifar -> data
I0322 14:34:05.301941  8642 net.cpp:411] cifar -> label_clean
I0322 14:34:05.301951  8642 net.cpp:163] Setting up cifar
I0322 14:34:05.301960  8642 data_transformer.cpp:23] Loading mean file from: external/exp/db/cifar10/cifar10_mean.binaryproto
I0322 14:34:05.302085  8642 db_lmdb.cpp:22] Opened lmdb external/exp/db/cifar10/test
I0322 14:34:05.302115  8642 data_layer.cpp:55] Skipping first 0 data points.
I0322 14:34:05.302135  8642 data_layer.cpp:100] output data size: 100,3,32,32
I0322 14:34:05.302206  8642 net.cpp:170] Top shape: 100 3 32 32 (307200)
I0322 14:34:05.302218  8642 net.cpp:170] Top shape: 100 (100)
I0322 14:34:05.302227  8642 layer_factory.hpp:74] Creating layer label_clean_cifar_1_split
I0322 14:34:05.302239  8642 net.cpp:133] Creating Layer label_clean_cifar_1_split
I0322 14:34:05.302249  8642 net.cpp:453] label_clean_cifar_1_split <- label_clean
I0322 14:34:05.302259  8642 net.cpp:411] label_clean_cifar_1_split -> label_clean_cifar_1_split_0
I0322 14:34:05.302291  8642 net.cpp:411] label_clean_cifar_1_split -> label_clean_cifar_1_split_1
I0322 14:34:05.302311  8642 net.cpp:163] Setting up label_clean_cifar_1_split
I0322 14:34:05.302325  8642 net.cpp:170] Top shape: 100 (100)
I0322 14:34:05.302340  8642 net.cpp:170] Top shape: 100 (100)
I0322 14:34:05.302350  8642 layer_factory.hpp:74] Creating layer conv1_clean
I0322 14:34:05.302363  8642 net.cpp:133] Creating Layer conv1_clean
I0322 14:34:05.302372  8642 net.cpp:453] conv1_clean <- data
I0322 14:34:05.302386  8642 net.cpp:411] conv1_clean -> conv1_clean
I0322 14:34:05.302402  8642 net.cpp:163] Setting up conv1_clean
I0322 14:34:05.334341  8642 net.cpp:170] Top shape: 100 32 32 32 (3276800)
I0322 14:34:05.334385  8642 layer_factory.hpp:74] Creating layer pool1_clean
I0322 14:34:05.334403  8642 net.cpp:133] Creating Layer pool1_clean
I0322 14:34:05.334414  8642 net.cpp:453] pool1_clean <- conv1_clean
I0322 14:34:05.334426  8642 net.cpp:411] pool1_clean -> pool1_clean
I0322 14:34:05.334442  8642 net.cpp:163] Setting up pool1_clean
I0322 14:34:05.334753  8642 net.cpp:170] Top shape: 100 32 16 16 (819200)
I0322 14:34:05.334764  8642 layer_factory.hpp:74] Creating layer relu1_clean
I0322 14:34:05.334780  8642 net.cpp:133] Creating Layer relu1_clean
I0322 14:34:05.334790  8642 net.cpp:453] relu1_clean <- pool1_clean
I0322 14:34:05.334805  8642 net.cpp:400] relu1_clean -> pool1_clean (in-place)
I0322 14:34:05.334817  8642 net.cpp:163] Setting up relu1_clean
I0322 14:34:05.334983  8642 net.cpp:170] Top shape: 100 32 16 16 (819200)
I0322 14:34:05.334995  8642 layer_factory.hpp:74] Creating layer conv2_clean
I0322 14:34:05.335007  8642 net.cpp:133] Creating Layer conv2_clean
I0322 14:34:05.335018  8642 net.cpp:453] conv2_clean <- pool1_clean
I0322 14:34:05.335044  8642 net.cpp:411] conv2_clean -> conv2_clean
I0322 14:34:05.335062  8642 net.cpp:163] Setting up conv2_clean
I0322 14:34:05.353173  8642 cudnn_conv_layer.cpp:348] fft context time 0.925504 mem 58982400
I0322 14:34:05.361335  8642 net.cpp:170] Top shape: 100 32 16 16 (819200)
I0322 14:34:05.361358  8642 layer_factory.hpp:74] Creating layer relu2_clean
I0322 14:34:05.361371  8642 net.cpp:133] Creating Layer relu2_clean
I0322 14:34:05.361380  8642 net.cpp:453] relu2_clean <- conv2_clean
I0322 14:34:05.361392  8642 net.cpp:400] relu2_clean -> conv2_clean (in-place)
I0322 14:34:05.361402  8642 net.cpp:163] Setting up relu2_clean
I0322 14:34:05.361685  8642 net.cpp:170] Top shape: 100 32 16 16 (819200)
I0322 14:34:05.361708  8642 layer_factory.hpp:74] Creating layer pool2_clean
I0322 14:34:05.361721  8642 net.cpp:133] Creating Layer pool2_clean
I0322 14:34:05.361728  8642 net.cpp:453] pool2_clean <- conv2_clean
I0322 14:34:05.361744  8642 net.cpp:411] pool2_clean -> pool2_clean
I0322 14:34:05.361757  8642 net.cpp:163] Setting up pool2_clean
I0322 14:34:05.361927  8642 net.cpp:170] Top shape: 100 32 8 8 (204800)
I0322 14:34:05.361937  8642 layer_factory.hpp:74] Creating layer conv3_clean
I0322 14:34:05.361954  8642 net.cpp:133] Creating Layer conv3_clean
I0322 14:34:05.361964  8642 net.cpp:453] conv3_clean <- pool2_clean
I0322 14:34:05.361976  8642 net.cpp:411] conv3_clean -> conv3_clean
I0322 14:34:05.361992  8642 net.cpp:163] Setting up conv3_clean
I0322 14:34:05.375119  8642 cudnn_conv_layer.cpp:348] fft context time 0.436192 mem 23756800
I0322 14:34:05.380338  8642 net.cpp:170] Top shape: 100 64 8 8 (409600)
I0322 14:34:05.380367  8642 layer_factory.hpp:74] Creating layer relu3_clean
I0322 14:34:05.380384  8642 net.cpp:133] Creating Layer relu3_clean
I0322 14:34:05.380394  8642 net.cpp:453] relu3_clean <- conv3_clean
I0322 14:34:05.380406  8642 net.cpp:400] relu3_clean -> conv3_clean (in-place)
I0322 14:34:05.380420  8642 net.cpp:163] Setting up relu3_clean
I0322 14:34:05.380617  8642 net.cpp:170] Top shape: 100 64 8 8 (409600)
I0322 14:34:05.380630  8642 layer_factory.hpp:74] Creating layer pool3_clean
I0322 14:34:05.380642  8642 net.cpp:133] Creating Layer pool3_clean
I0322 14:34:05.380651  8642 net.cpp:453] pool3_clean <- conv3_clean
I0322 14:34:05.380666  8642 net.cpp:411] pool3_clean -> pool3_clean
I0322 14:34:05.380678  8642 net.cpp:163] Setting up pool3_clean
I0322 14:34:05.380955  8642 net.cpp:170] Top shape: 100 64 4 4 (102400)
I0322 14:34:05.380966  8642 layer_factory.hpp:74] Creating layer ip1_clean
I0322 14:34:05.380982  8642 net.cpp:133] Creating Layer ip1_clean
I0322 14:34:05.380991  8642 net.cpp:453] ip1_clean <- pool3_clean
I0322 14:34:05.381003  8642 net.cpp:411] ip1_clean -> ip1_clean
I0322 14:34:05.381019  8642 net.cpp:163] Setting up ip1_clean
I0322 14:34:05.381829  8642 net.cpp:170] Top shape: 100 64 (6400)
I0322 14:34:05.381844  8642 layer_factory.hpp:74] Creating layer ip2_clean
I0322 14:34:05.381860  8642 net.cpp:133] Creating Layer ip2_clean
I0322 14:34:05.381868  8642 net.cpp:453] ip2_clean <- ip1_clean
I0322 14:34:05.381880  8642 net.cpp:411] ip2_clean -> ip2_clean
I0322 14:34:05.381893  8642 net.cpp:163] Setting up ip2_clean
I0322 14:34:05.381925  8642 net.cpp:170] Top shape: 100 10 (1000)
I0322 14:34:05.381942  8642 layer_factory.hpp:74] Creating layer ip2_clean_ip2_clean_0_split
I0322 14:34:05.381958  8642 net.cpp:133] Creating Layer ip2_clean_ip2_clean_0_split
I0322 14:34:05.381966  8642 net.cpp:453] ip2_clean_ip2_clean_0_split <- ip2_clean
I0322 14:34:05.381978  8642 net.cpp:411] ip2_clean_ip2_clean_0_split -> ip2_clean_ip2_clean_0_split_0
I0322 14:34:05.381992  8642 net.cpp:411] ip2_clean_ip2_clean_0_split -> ip2_clean_ip2_clean_0_split_1
I0322 14:34:05.382009  8642 net.cpp:163] Setting up ip2_clean_ip2_clean_0_split
I0322 14:34:05.382021  8642 net.cpp:170] Top shape: 100 10 (1000)
I0322 14:34:05.382032  8642 net.cpp:170] Top shape: 100 10 (1000)
I0322 14:34:05.382040  8642 layer_factory.hpp:74] Creating layer accuracy
I0322 14:34:05.382053  8642 net.cpp:133] Creating Layer accuracy
I0322 14:34:05.382062  8642 net.cpp:453] accuracy <- ip2_clean_ip2_clean_0_split_0
I0322 14:34:05.382072  8642 net.cpp:453] accuracy <- label_clean_cifar_1_split_0
I0322 14:34:05.382086  8642 net.cpp:411] accuracy -> accuracy
I0322 14:34:05.382098  8642 net.cpp:163] Setting up accuracy
…
