…
I0322 14:12:15.135707 30985 net.cpp:330] The NetState phase (0) differed from the phase (1) specified by a rule in layer accuracy
I0322 14:12:15.135828 30985 net.cpp:47] Initializing net from parameters: 
name: "cifar10_noisy_gt"
state {
  phase: TRAIN
}
layer {
  name: "cifar"
  type: "Data"
  top: "data"
  top: "label"
  include {
    phase: TRAIN
  }
  transform_param {
    mean_file: "external/exp/db/cifar10/cifar10_mean.binaryproto"
  }
  data_param {
    source: "external/exp/db/cifar10/mixed_train"
    batch_size: 100
    backend: LMDB
  }
}
layer {
  name: "conv1"
  type: "Convolution"
  bottom: "data"
  top: "conv1"
  param {
    lr_mult: 1
  }
  param {
    lr_mult: 2
  }
  convolution_param {
    num_output: 32
    pad: 2
    kernel_size: 5
    stride: 1
    weight_filler {
      type: "gaussian"
      std: 0.0001
    }
    bias_filler {
      type: "constant"
    }
  }
}
layer {
  name: "pool1"
  type: "Pooling"
  bottom: "conv1"
  top: "pool1"
  pooling_param {
    pool: MAX
    kernel_size: 3
    stride: 2
  }
}
layer {
  name: "relu1"
  type: "ReLU"
  bottom: "pool1"
  top: "pool1"
}
layer {
  name: "conv2"
  type: "Convolution"
  bottom: "pool1"
  top: "conv2"
  param {
    lr_mult: 1
  }
  param {
    lr_mult: 2
  }
  convolution_param {
    num_output: 32
    pad: 2
    kernel_size: 5
    stride: 1
    weight_filler {
      type: "gaussian"
      std: 0.01
    }
    bias_filler {
      type: "constant"
    }
  }
}
layer {
  name: "relu2"
  type: "ReLU"
  bottom: "conv2"
  top: "conv2"
}
layer {
  name: "pool2"
  type: "Pooling"
  bottom: "conv2"
  top: "pool2"
  pooling_param {
    pool: AVE
    kernel_size: 3
    stride: 2
  }
}
layer {
  name: "conv3"
  type: "Convolution"
  bottom: "pool2"
  top: "conv3"
  param {
    lr_mult: 1
  }
  param {
    lr_mult: 2
  }
  convolution_param {
    num_output: 64
    pad: 2
    kernel_size: 5
    stride: 1
    weight_filler {
      type: "gaussian"
      std: 0.01
    }
    bias_filler {
      type: "constant"
    }
  }
}
layer {
  name: "relu3"
  type: "ReLU"
  bottom: "conv3"
  top: "conv3"
}
layer {
  name: "pool3"
  type: "Pooling"
  bottom: "conv3"
  top: "pool3"
  pooling_param {
    pool: AVE
    kernel_size: 3
    stride: 2
  }
}
layer {
  name: "ip1"
  type: "InnerProduct"
  bottom: "pool3"
  top: "ip1"
  param {
    lr_mult: 1
  }
  param {
    lr_mult: 2
  }
  inner_product_param {
    num_output: 64
    weight_filler {
      type: "gaussian"
      std: 0.1
    }
    bias_filler {
      type: "constant"
    }
  }
}
layer {
  name: "ip2"
  type: "InnerProduct"
  bottom: "ip1"
  top: "ip2"
  param {
    lr_mult: 1
  }
  param {
    lr_mult: 2
  }
  inner_product_param {
    num_output: 10
    weight_filler {
      type: "gaussian"
      std: 0.1
    }
    bias_filler {
      type: "constant"
    }
  }
}
layer {
  name: "loss"
  type: "SoftmaxWithLoss"
  bottom: "ip2"
  bottom: "label"
  top: "loss"
}
I0322 14:12:15.135912 30985 layer_factory.hpp:74] Creating layer cifar
I0322 14:12:15.135931 30985 net.cpp:133] Creating Layer cifar
I0322 14:12:15.135939 30985 net.cpp:411] cifar -> data
I0322 14:12:15.135967 30985 net.cpp:411] cifar -> label
I0322 14:12:15.135987 30985 net.cpp:163] Setting up cifar
I0322 14:12:15.135998 30985 data_transformer.cpp:23] Loading mean file from: external/exp/db/cifar10/cifar10_mean.binaryproto
I0322 14:12:15.136138 30985 db_lmdb.cpp:22] Opened lmdb external/exp/db/cifar10/mixed_train
I0322 14:12:15.136178 30985 data_layer.cpp:55] Skipping first 0 data points.
I0322 14:12:15.136199 30985 data_layer.cpp:100] output data size: 100,3,32,32
I0322 14:12:15.136277 30985 net.cpp:170] Top shape: 100 3 32 32 (307200)
I0322 14:12:15.136286 30985 net.cpp:170] Top shape: 100 (100)
I0322 14:12:15.136302 30985 layer_factory.hpp:74] Creating layer conv1
I0322 14:12:15.136317 30985 net.cpp:133] Creating Layer conv1
I0322 14:12:15.136324 30985 net.cpp:453] conv1 <- data
I0322 14:12:15.136343 30985 net.cpp:411] conv1 -> conv1
I0322 14:12:15.136355 30985 net.cpp:163] Setting up conv1
I0322 14:12:15.264392 30985 net.cpp:170] Top shape: 100 32 32 32 (3276800)
I0322 14:12:15.264451 30985 layer_factory.hpp:74] Creating layer pool1
I0322 14:12:15.264479 30985 net.cpp:133] Creating Layer pool1
I0322 14:12:15.264490 30985 net.cpp:453] pool1 <- conv1
I0322 14:12:15.264502 30985 net.cpp:411] pool1 -> pool1
I0322 14:12:15.264515 30985 net.cpp:163] Setting up pool1
I0322 14:12:15.264670 30985 net.cpp:170] Top shape: 100 32 16 16 (819200)
I0322 14:12:15.264678 30985 layer_factory.hpp:74] Creating layer relu1
I0322 14:12:15.264695 30985 net.cpp:133] Creating Layer relu1
I0322 14:12:15.264700 30985 net.cpp:453] relu1 <- pool1
I0322 14:12:15.264719 30985 net.cpp:400] relu1 -> pool1 (in-place)
I0322 14:12:15.264732 30985 net.cpp:163] Setting up relu1
I0322 14:12:15.264951 30985 net.cpp:170] Top shape: 100 32 16 16 (819200)
I0322 14:12:15.264960 30985 layer_factory.hpp:74] Creating layer conv2
I0322 14:12:15.264984 30985 net.cpp:133] Creating Layer conv2
I0322 14:12:15.265000 30985 net.cpp:453] conv2 <- pool1
I0322 14:12:15.265010 30985 net.cpp:411] conv2 -> conv2
I0322 14:12:15.265025 30985 net.cpp:163] Setting up conv2
I0322 14:12:15.283109 30985 cudnn_conv_layer.cpp:348] fft context time 1.01408 mem 58982400
I0322 14:12:15.291373 30985 net.cpp:170] Top shape: 100 32 16 16 (819200)
I0322 14:12:15.291394 30985 layer_factory.hpp:74] Creating layer relu2
I0322 14:12:15.291415 30985 net.cpp:133] Creating Layer relu2
I0322 14:12:15.291422 30985 net.cpp:453] relu2 <- conv2
I0322 14:12:15.291431 30985 net.cpp:400] relu2 -> conv2 (in-place)
I0322 14:12:15.291442 30985 net.cpp:163] Setting up relu2
I0322 14:12:15.291591 30985 net.cpp:170] Top shape: 100 32 16 16 (819200)
I0322 14:12:15.291600 30985 layer_factory.hpp:74] Creating layer pool2
I0322 14:12:15.291620 30985 net.cpp:133] Creating Layer pool2
I0322 14:12:15.291627 30985 net.cpp:453] pool2 <- conv2
I0322 14:12:15.291638 30985 net.cpp:411] pool2 -> pool2
I0322 14:12:15.291648 30985 net.cpp:163] Setting up pool2
I0322 14:12:15.291869 30985 net.cpp:170] Top shape: 100 32 8 8 (204800)
I0322 14:12:15.291878 30985 layer_factory.hpp:74] Creating layer conv3
I0322 14:12:15.291901 30985 net.cpp:133] Creating Layer conv3
I0322 14:12:15.291908 30985 net.cpp:453] conv3 <- pool2
I0322 14:12:15.291920 30985 net.cpp:411] conv3 -> conv3
I0322 14:12:15.291931 30985 net.cpp:163] Setting up conv3
I0322 14:12:15.304836 30985 cudnn_conv_layer.cpp:348] fft context time 0.471488 mem 23756800
I0322 14:12:15.310097 30985 net.cpp:170] Top shape: 100 64 8 8 (409600)
I0322 14:12:15.310135 30985 layer_factory.hpp:74] Creating layer relu3
I0322 14:12:15.310163 30985 net.cpp:133] Creating Layer relu3
I0322 14:12:15.310171 30985 net.cpp:453] relu3 <- conv3
I0322 14:12:15.310183 30985 net.cpp:400] relu3 -> conv3 (in-place)
I0322 14:12:15.310195 30985 net.cpp:163] Setting up relu3
I0322 14:12:15.310360 30985 net.cpp:170] Top shape: 100 64 8 8 (409600)
I0322 14:12:15.310369 30985 layer_factory.hpp:74] Creating layer pool3
I0322 14:12:15.310377 30985 net.cpp:133] Creating Layer pool3
I0322 14:12:15.310395 30985 net.cpp:453] pool3 <- conv3
I0322 14:12:15.310405 30985 net.cpp:411] pool3 -> pool3
I0322 14:12:15.310416 30985 net.cpp:163] Setting up pool3
I0322 14:12:15.310647 30985 net.cpp:170] Top shape: 100 64 4 4 (102400)
I0322 14:12:15.310657 30985 layer_factory.hpp:74] Creating layer ip1
I0322 14:12:15.310680 30985 net.cpp:133] Creating Layer ip1
I0322 14:12:15.310686 30985 net.cpp:453] ip1 <- pool3
I0322 14:12:15.310695 30985 net.cpp:411] ip1 -> ip1
I0322 14:12:15.310715 30985 net.cpp:163] Setting up ip1
I0322 14:12:15.311352 30985 net.cpp:170] Top shape: 100 64 (6400)
I0322 14:12:15.311365 30985 layer_factory.hpp:74] Creating layer ip2
I0322 14:12:15.311393 30985 net.cpp:133] Creating Layer ip2
I0322 14:12:15.311400 30985 net.cpp:453] ip2 <- ip1
I0322 14:12:15.311409 30985 net.cpp:411] ip2 -> ip2
I0322 14:12:15.311419 30985 net.cpp:163] Setting up ip2
I0322 14:12:15.311445 30985 net.cpp:170] Top shape: 100 10 (1000)
I0322 14:12:15.311460 30985 layer_factory.hpp:74] Creating layer loss
I0322 14:12:15.311475 30985 net.cpp:133] Creating Layer loss
I0322 14:12:15.311481 30985 net.cpp:453] loss <- ip2
I0322 14:12:15.311488 30985 net.cpp:453] loss <- label
I0322 14:12:15.311502 30985 net.cpp:411] loss -> loss
I0322 14:12:15.311512 30985 net.cpp:163] Setting up loss
I0322 14:12:15.311525 30985 layer_factory.hpp:74] Creating layer loss
…
I0322 14:12:15.312042 30985 solver.cpp:166] Creating test net (#0) specified by net file: models/cifar10/noisy_gt_ft_clean_trainval.prototxt
I0322 14:12:15.312073 30985 net.cpp:330] The NetState phase (1) differed from the phase (0) specified by a rule in layer cifar
I0322 14:12:15.312186 30985 net.cpp:47] Initializing net from parameters: 
name: "cifar10_noisy_gt"
state {
  phase: TEST
}
layer {
  name: "cifar"
  type: "Data"
  top: "data"
  top: "label"
  include {
    phase: TEST
  }
  transform_param {
    mean_file: "external/exp/db/cifar10/cifar10_mean.binaryproto"
  }
  data_param {
    source: "external/exp/db/cifar10/test"
    batch_size: 100
    backend: LMDB
  }
}
layer {
  name: "conv1"
  type: "Convolution"
  bottom: "data"
  top: "conv1"
  param {
    lr_mult: 1
  }
  param {
    lr_mult: 2
  }
  convolution_param {
    num_output: 32
    pad: 2
    kernel_size: 5
    stride: 1
    weight_filler {
      type: "gaussian"
      std: 0.0001
    }
    bias_filler {
      type: "constant"
    }
  }
}
layer {
  name: "pool1"
  type: "Pooling"
  bottom: "conv1"
  top: "pool1"
  pooling_param {
    pool: MAX
    kernel_size: 3
    stride: 2
  }
}
layer {
  name: "relu1"
  type: "ReLU"
  bottom: "pool1"
  top: "pool1"
}
layer {
  name: "conv2"
  type: "Convolution"
  bottom: "pool1"
  top: "conv2"
  param {
    lr_mult: 1
  }
  param {
    lr_mult: 2
  }
  convolution_param {
    num_output: 32
    pad: 2
    kernel_size: 5
    stride: 1
    weight_filler {
      type: "gaussian"
      std: 0.01
    }
    bias_filler {
      type: "constant"
    }
  }
}
layer {
  name: "relu2"
  type: "ReLU"
  bottom: "conv2"
  top: "conv2"
}
layer {
  name: "pool2"
  type: "Pooling"
  bottom: "conv2"
  top: "pool2"
  pooling_param {
    pool: AVE
    kernel_size: 3
    stride: 2
  }
}
layer {
  name: "conv3"
  type: "Convolution"
  bottom: "pool2"
  top: "conv3"
  param {
    lr_mult: 1
  }
  param {
    lr_mult: 2
  }
  convolution_param {
    num_output: 64
    pad: 2
    kernel_size: 5
    stride: 1
    weight_filler {
      type: "gaussian"
      std: 0.01
    }
    bias_filler {
      type: "constant"
    }
  }
}
layer {
  name: "relu3"
  type: "ReLU"
  bottom: "conv3"
  top: "conv3"
}
layer {
  name: "pool3"
  type: "Pooling"
  bottom: "conv3"
  top: "pool3"
  pooling_param {
    pool: AVE
    kernel_size: 3
    stride: 2
  }
}
layer {
  name: "ip1"
  type: "InnerProduct"
  bottom: "pool3"
  top: "ip1"
  param {
    lr_mult: 1
  }
  param {
    lr_mult: 2
  }
  inner_product_param {
    num_output: 64
    weight_filler {
      type: "gaussian"
      std: 0.1
    }
    bias_filler {
      type: "constant"
    }
  }
}
layer {
  name: "ip2"
  type: "InnerProduct"
  bottom: "ip1"
  top: "ip2"
  param {
    lr_mult: 1
  }
  param {
    lr_mult: 2
  }
  inner_product_param {
    num_output: 10
    weight_filler {
      type: "gaussian"
      std: 0.1
    }
    bias_filler {
      type: "constant"
    }
  }
}
layer {
  name: "accuracy"
  type: "Accuracy"
  bottom: "ip2"
  bottom: "label"
  top: "accuracy"
  include {
    phase: TEST
  }
}
layer {
  name: "loss"
  type: "SoftmaxWithLoss"
  bottom: "ip2"
  bottom: "label"
  top: "loss"
}
I0322 14:12:15.312278 30985 layer_factory.hpp:74] Creating layer cifar
I0322 14:12:15.312290 30985 net.cpp:133] Creating Layer cifar
I0322 14:12:15.312297 30985 net.cpp:411] cifar -> data
I0322 14:12:15.312307 30985 net.cpp:411] cifar -> label
I0322 14:12:15.312315 30985 net.cpp:163] Setting up cifar
I0322 14:12:15.312321 30985 data_transformer.cpp:23] Loading mean file from: external/exp/db/cifar10/cifar10_mean.binaryproto
I0322 14:12:15.312428 30985 db_lmdb.cpp:22] Opened lmdb external/exp/db/cifar10/test
I0322 14:12:15.312453 30985 data_layer.cpp:55] Skipping first 0 data points.
I0322 14:12:15.312469 30985 data_layer.cpp:100] output data size: 100,3,32,32
I0322 14:12:15.312700 30985 net.cpp:170] Top shape: 100 3 32 32 (307200)
I0322 14:12:15.312708 30985 net.cpp:170] Top shape: 100 (100)
I0322 14:12:15.312714 30985 layer_factory.hpp:74] Creating layer label_cifar_1_split
I0322 14:12:15.312724 30985 net.cpp:133] Creating Layer label_cifar_1_split
I0322 14:12:15.312731 30985 net.cpp:453] label_cifar_1_split <- label
I0322 14:12:15.312742 30985 net.cpp:411] label_cifar_1_split -> label_cifar_1_split_0
I0322 14:12:15.312754 30985 net.cpp:411] label_cifar_1_split -> label_cifar_1_split_1
I0322 14:12:15.312767 30985 net.cpp:163] Setting up label_cifar_1_split
I0322 14:12:15.312777 30985 net.cpp:170] Top shape: 100 (100)
I0322 14:12:15.312786 30985 net.cpp:170] Top shape: 100 (100)
I0322 14:12:15.312793 30985 layer_factory.hpp:74] Creating layer conv1
I0322 14:12:15.312806 30985 net.cpp:133] Creating Layer conv1
I0322 14:12:15.312815 30985 net.cpp:453] conv1 <- data
I0322 14:12:15.312826 30985 net.cpp:411] conv1 -> conv1
I0322 14:12:15.312837 30985 net.cpp:163] Setting up conv1
I0322 14:12:15.343816 30985 net.cpp:170] Top shape: 100 32 32 32 (3276800)
I0322 14:12:15.343863 30985 layer_factory.hpp:74] Creating layer pool1
I0322 14:12:15.343886 30985 net.cpp:133] Creating Layer pool1
I0322 14:12:15.343891 30985 net.cpp:453] pool1 <- conv1
I0322 14:12:15.343899 30985 net.cpp:411] pool1 -> pool1
I0322 14:12:15.343909 30985 net.cpp:163] Setting up pool1
I0322 14:12:15.344214 30985 net.cpp:170] Top shape: 100 32 16 16 (819200)
I0322 14:12:15.344223 30985 layer_factory.hpp:74] Creating layer relu1
I0322 14:12:15.344229 30985 net.cpp:133] Creating Layer relu1
I0322 14:12:15.344244 30985 net.cpp:453] relu1 <- pool1
I0322 14:12:15.344254 30985 net.cpp:400] relu1 -> pool1 (in-place)
I0322 14:12:15.344262 30985 net.cpp:163] Setting up relu1
I0322 14:12:15.344425 30985 net.cpp:170] Top shape: 100 32 16 16 (819200)
I0322 14:12:15.344434 30985 layer_factory.hpp:74] Creating layer conv2
I0322 14:12:15.344454 30985 net.cpp:133] Creating Layer conv2
I0322 14:12:15.344468 30985 net.cpp:453] conv2 <- pool1
I0322 14:12:15.344475 30985 net.cpp:411] conv2 -> conv2
I0322 14:12:15.344483 30985 net.cpp:163] Setting up conv2
I0322 14:12:15.362514 30985 cudnn_conv_layer.cpp:348] fft context time 1.01674 mem 58982400
I0322 14:12:15.370833 30985 net.cpp:170] Top shape: 100 32 16 16 (819200)
I0322 14:12:15.370853 30985 layer_factory.hpp:74] Creating layer relu2
I0322 14:12:15.370877 30985 net.cpp:133] Creating Layer relu2
I0322 14:12:15.370883 30985 net.cpp:453] relu2 <- conv2
I0322 14:12:15.370893 30985 net.cpp:400] relu2 -> conv2 (in-place)
I0322 14:12:15.370903 30985 net.cpp:163] Setting up relu2
I0322 14:12:15.371055 30985 net.cpp:170] Top shape: 100 32 16 16 (819200)
I0322 14:12:15.371063 30985 layer_factory.hpp:74] Creating layer pool2
I0322 14:12:15.371071 30985 net.cpp:133] Creating Layer pool2
I0322 14:12:15.371093 30985 net.cpp:453] pool2 <- conv2
I0322 14:12:15.371103 30985 net.cpp:411] pool2 -> pool2
I0322 14:12:15.371114 30985 net.cpp:163] Setting up pool2
I0322 14:12:15.371333 30985 net.cpp:170] Top shape: 100 32 8 8 (204800)
I0322 14:12:15.371342 30985 layer_factory.hpp:74] Creating layer conv3
I0322 14:12:15.371371 30985 net.cpp:133] Creating Layer conv3
I0322 14:12:15.371377 30985 net.cpp:453] conv3 <- pool2
I0322 14:12:15.371387 30985 net.cpp:411] conv3 -> conv3
I0322 14:12:15.371400 30985 net.cpp:163] Setting up conv3
I0322 14:12:15.384042 30985 cudnn_conv_layer.cpp:348] fft context time 0.472096 mem 23756800
I0322 14:12:15.389322 30985 net.cpp:170] Top shape: 100 64 8 8 (409600)
I0322 14:12:15.389355 30985 layer_factory.hpp:74] Creating layer relu3
I0322 14:12:15.389364 30985 net.cpp:133] Creating Layer relu3
I0322 14:12:15.389381 30985 net.cpp:453] relu3 <- conv3
I0322 14:12:15.389389 30985 net.cpp:400] relu3 -> conv3 (in-place)
I0322 14:12:15.389397 30985 net.cpp:163] Setting up relu3
I0322 14:12:15.389575 30985 net.cpp:170] Top shape: 100 64 8 8 (409600)
I0322 14:12:15.389580 30985 layer_factory.hpp:74] Creating layer pool3
I0322 14:12:15.389600 30985 net.cpp:133] Creating Layer pool3
I0322 14:12:15.389603 30985 net.cpp:453] pool3 <- conv3
I0322 14:12:15.389608 30985 net.cpp:411] pool3 -> pool3
I0322 14:12:15.389613 30985 net.cpp:163] Setting up pool3
I0322 14:12:15.389874 30985 net.cpp:170] Top shape: 100 64 4 4 (102400)
I0322 14:12:15.389881 30985 layer_factory.hpp:74] Creating layer ip1
I0322 14:12:15.389890 30985 net.cpp:133] Creating Layer ip1
I0322 14:12:15.389894 30985 net.cpp:453] ip1 <- pool3
I0322 14:12:15.389899 30985 net.cpp:411] ip1 -> ip1
I0322 14:12:15.389905 30985 net.cpp:163] Setting up ip1
I0322 14:12:15.390542 30985 net.cpp:170] Top shape: 100 64 (6400)
I0322 14:12:15.390549 30985 layer_factory.hpp:74] Creating layer ip2
I0322 14:12:15.390557 30985 net.cpp:133] Creating Layer ip2
I0322 14:12:15.390559 30985 net.cpp:453] ip2 <- ip1
I0322 14:12:15.390578 30985 net.cpp:411] ip2 -> ip2
I0322 14:12:15.390583 30985 net.cpp:163] Setting up ip2
I0322 14:12:15.390599 30985 net.cpp:170] Top shape: 100 10 (1000)
I0322 14:12:15.390606 30985 layer_factory.hpp:74] Creating layer ip2_ip2_0_split
I0322 14:12:15.390614 30985 net.cpp:133] Creating Layer ip2_ip2_0_split
I0322 14:12:15.390616 30985 net.cpp:453] ip2_ip2_0_split <- ip2
I0322 14:12:15.390620 30985 net.cpp:411] ip2_ip2_0_split -> ip2_ip2_0_split_0
I0322 14:12:15.390626 30985 net.cpp:411] ip2_ip2_0_split -> ip2_ip2_0_split_1
I0322 14:12:15.390631 30985 net.cpp:163] Setting up ip2_ip2_0_split
I0322 14:12:15.390636 30985 net.cpp:170] Top shape: 100 10 (1000)
I0322 14:12:15.390640 30985 net.cpp:170] Top shape: 100 10 (1000)
I0322 14:12:15.390643 30985 layer_factory.hpp:74] Creating layer accuracy
I0322 14:12:15.390648 30985 net.cpp:133] Creating Layer accuracy
I0322 14:12:15.390652 30985 net.cpp:453] accuracy <- ip2_ip2_0_split_0
I0322 14:12:15.390656 30985 net.cpp:453] accuracy <- label_cifar_1_split_0
I0322 14:12:15.390661 30985 net.cpp:411] accuracy -> accuracy
I0322 14:12:15.390666 30985 net.cpp:163] Setting up accuracy
…
