…
I0322 14:31:17.015908  6562 net.cpp:330] The NetState phase (0) differed from the phase (1) specified by a rule in layer accuracy
I0322 14:31:17.016027  6562 net.cpp:47] Initializing net from parameters: 
name: "cifar10_ntype"
state {
  phase: TRAIN
}
layer {
  name: "cifar"
  type: "Data"
  top: "data"
  top: "label_ntype"
  include {
    phase: TRAIN
  }
  transform_param {
    mean_file: "external/exp/db/cifar10/cifar10_mean.binaryproto"
  }
  data_param {
    source: "external/exp/db/cifar10/ntype_train"
    batch_size: 100
    backend: LMDB
  }
}
layer {
  name: "conv1"
  type: "Convolution"
  bottom: "data"
  top: "conv1"
  param {
    lr_mult: 1
  }
  param {
    lr_mult: 2
  }
  convolution_param {
    num_output: 32
    pad: 2
    kernel_size: 5
    stride: 1
    weight_filler {
      type: "gaussian"
      std: 0.0001
    }
    bias_filler {
      type: "constant"
    }
  }
}
layer {
  name: "pool1"
  type: "Pooling"
  bottom: "conv1"
  top: "pool1"
  pooling_param {
    pool: MAX
    kernel_size: 3
    stride: 2
  }
}
layer {
  name: "relu1"
  type: "ReLU"
  bottom: "pool1"
  top: "pool1"
}
layer {
  name: "conv2"
  type: "Convolution"
  bottom: "pool1"
  top: "conv2"
  param {
    lr_mult: 1
  }
  param {
    lr_mult: 2
  }
  convolution_param {
    num_output: 32
    pad: 2
    kernel_size: 5
    stride: 1
    weight_filler {
      type: "gaussian"
      std: 0.01
    }
    bias_filler {
      type: "constant"
    }
  }
}
layer {
  name: "relu2"
  type: "ReLU"
  bottom: "conv2"
  top: "conv2"
}
layer {
  name: "pool2"
  type: "Pooling"
  bottom: "conv2"
  top: "pool2"
  pooling_param {
    pool: AVE
    kernel_size: 3
    stride: 2
  }
}
layer {
  name: "conv3"
  type: "Convolution"
  bottom: "pool2"
  top: "conv3"
  param {
    lr_mult: 1
  }
  param {
    lr_mult: 2
  }
  convolution_param {
    num_output: 64
    pad: 2
    kernel_size: 5
    stride: 1
    weight_filler {
      type: "gaussian"
      std: 0.01
    }
    bias_filler {
      type: "constant"
    }
  }
}
layer {
  name: "relu3"
  type: "ReLU"
  bottom: "conv3"
  top: "conv3"
}
layer {
  name: "pool3"
  type: "Pooling"
  bottom: "conv3"
  top: "pool3"
  pooling_param {
    pool: AVE
    kernel_size: 3
    stride: 2
  }
}
layer {
  name: "ip1_ntype"
  type: "InnerProduct"
  bottom: "pool3"
  top: "ip1_ntype"
  param {
    lr_mult: 1
  }
  param {
    lr_mult: 2
  }
  inner_product_param {
    num_output: 64
    weight_filler {
      type: "gaussian"
      std: 0.1
    }
    bias_filler {
      type: "constant"
    }
  }
}
layer {
  name: "ip2_ntype"
  type: "InnerProduct"
  bottom: "ip1_ntype"
  top: "ip2_ntype"
  param {
    lr_mult: 10
  }
  param {
    lr_mult: 20
  }
  inner_product_param {
    num_output: 3
    weight_filler {
      type: "gaussian"
      std: 0.1
    }
    bias_filler {
      type: "constant"
    }
  }
}
layer {
  name: "loss_ntype"
  type: "SoftmaxWithLoss"
  bottom: "ip2_ntype"
  bottom: "label_ntype"
  top: "loss_ntype"
}
I0322 14:31:17.016105  6562 layer_factory.hpp:74] Creating layer cifar
I0322 14:31:17.016119  6562 net.cpp:133] Creating Layer cifar
I0322 14:31:17.016125  6562 net.cpp:411] cifar -> data
I0322 14:31:17.016145  6562 net.cpp:411] cifar -> label_ntype
I0322 14:31:17.016156  6562 net.cpp:163] Setting up cifar
I0322 14:31:17.016163  6562 data_transformer.cpp:23] Loading mean file from: external/exp/db/cifar10/cifar10_mean.binaryproto
I0322 14:31:17.016289  6562 db_lmdb.cpp:22] Opened lmdb external/exp/db/cifar10/ntype_train
I0322 14:31:17.016321  6562 data_layer.cpp:55] Skipping first 0 data points.
I0322 14:31:17.016338  6562 data_layer.cpp:100] output data size: 100,3,32,32
I0322 14:31:17.016418  6562 net.cpp:170] Top shape: 100 3 32 32 (307200)
I0322 14:31:17.016427  6562 net.cpp:170] Top shape: 100 (100)
I0322 14:31:17.016432  6562 layer_factory.hpp:74] Creating layer conv1
I0322 14:31:17.016439  6562 net.cpp:133] Creating Layer conv1
I0322 14:31:17.016444  6562 net.cpp:453] conv1 <- data
I0322 14:31:17.016454  6562 net.cpp:411] conv1 -> conv1
I0322 14:31:17.016463  6562 net.cpp:163] Setting up conv1
I0322 14:31:17.145614  6562 net.cpp:170] Top shape: 100 32 32 32 (3276800)
I0322 14:31:17.145668  6562 layer_factory.hpp:74] Creating layer pool1
I0322 14:31:17.145692  6562 net.cpp:133] Creating Layer pool1
I0322 14:31:17.145696  6562 net.cpp:453] pool1 <- conv1
I0322 14:31:17.145704  6562 net.cpp:411] pool1 -> pool1
I0322 14:31:17.145711  6562 net.cpp:163] Setting up pool1
I0322 14:31:17.145869  6562 net.cpp:170] Top shape: 100 32 16 16 (819200)
I0322 14:31:17.145876  6562 layer_factory.hpp:74] Creating layer relu1
I0322 14:31:17.145891  6562 net.cpp:133] Creating Layer relu1
I0322 14:31:17.145895  6562 net.cpp:453] relu1 <- pool1
I0322 14:31:17.145900  6562 net.cpp:400] relu1 -> pool1 (in-place)
I0322 14:31:17.145908  6562 net.cpp:163] Setting up relu1
I0322 14:31:17.146109  6562 net.cpp:170] Top shape: 100 32 16 16 (819200)
I0322 14:31:17.146117  6562 layer_factory.hpp:74] Creating layer conv2
I0322 14:31:17.146136  6562 net.cpp:133] Creating Layer conv2
I0322 14:31:17.146139  6562 net.cpp:453] conv2 <- pool1
I0322 14:31:17.146145  6562 net.cpp:411] conv2 -> conv2
I0322 14:31:17.146152  6562 net.cpp:163] Setting up conv2
I0322 14:31:17.164552  6562 cudnn_conv_layer.cpp:348] fft context time 1.01722 mem 58982400
I0322 14:31:17.173111  6562 net.cpp:170] Top shape: 100 32 16 16 (819200)
I0322 14:31:17.173162  6562 layer_factory.hpp:74] Creating layer relu2
I0322 14:31:17.173179  6562 net.cpp:133] Creating Layer relu2
I0322 14:31:17.173184  6562 net.cpp:453] relu2 <- conv2
I0322 14:31:17.173197  6562 net.cpp:400] relu2 -> conv2 (in-place)
I0322 14:31:17.173220  6562 net.cpp:163] Setting up relu2
I0322 14:31:17.173410  6562 net.cpp:170] Top shape: 100 32 16 16 (819200)
I0322 14:31:17.173418  6562 layer_factory.hpp:74] Creating layer pool2
I0322 14:31:17.173427  6562 net.cpp:133] Creating Layer pool2
I0322 14:31:17.173430  6562 net.cpp:453] pool2 <- conv2
I0322 14:31:17.173435  6562 net.cpp:411] pool2 -> pool2
I0322 14:31:17.173442  6562 net.cpp:163] Setting up pool2
I0322 14:31:17.173681  6562 net.cpp:170] Top shape: 100 32 8 8 (204800)
I0322 14:31:17.173688  6562 layer_factory.hpp:74] Creating layer conv3
I0322 14:31:17.173703  6562 net.cpp:133] Creating Layer conv3
I0322 14:31:17.173707  6562 net.cpp:453] conv3 <- pool2
I0322 14:31:17.173713  6562 net.cpp:411] conv3 -> conv3
I0322 14:31:17.173733  6562 net.cpp:163] Setting up conv3
I0322 14:31:17.186712  6562 cudnn_conv_layer.cpp:348] fft context time 0.473184 mem 23756800
I0322 14:31:17.192219  6562 net.cpp:170] Top shape: 100 64 8 8 (409600)
I0322 14:31:17.192251  6562 layer_factory.hpp:74] Creating layer relu3
I0322 14:31:17.192279  6562 net.cpp:133] Creating Layer relu3
I0322 14:31:17.192286  6562 net.cpp:453] relu3 <- conv3
I0322 14:31:17.192293  6562 net.cpp:400] relu3 -> conv3 (in-place)
I0322 14:31:17.192303  6562 net.cpp:163] Setting up relu3
I0322 14:31:17.192487  6562 net.cpp:170] Top shape: 100 64 8 8 (409600)
I0322 14:31:17.192493  6562 layer_factory.hpp:74] Creating layer pool3
I0322 14:31:17.192500  6562 net.cpp:133] Creating Layer pool3
I0322 14:31:17.192503  6562 net.cpp:453] pool3 <- conv3
I0322 14:31:17.192508  6562 net.cpp:411] pool3 -> pool3
I0322 14:31:17.192514  6562 net.cpp:163] Setting up pool3
I0322 14:31:17.192759  6562 net.cpp:170] Top shape: 100 64 4 4 (102400)
I0322 14:31:17.192767  6562 layer_factory.hpp:74] Creating layer ip1_ntype
I0322 14:31:17.192775  6562 net.cpp:133] Creating Layer ip1_ntype
I0322 14:31:17.192780  6562 net.cpp:453] ip1_ntype <- pool3
I0322 14:31:17.192785  6562 net.cpp:411] ip1_ntype -> ip1_ntype
I0322 14:31:17.192800  6562 net.cpp:163] Setting up ip1_ntype
I0322 14:31:17.193454  6562 net.cpp:170] Top shape: 100 64 (6400)
I0322 14:31:17.193464  6562 layer_factory.hpp:74] Creating layer ip2_ntype
I0322 14:31:17.193469  6562 net.cpp:133] Creating Layer ip2_ntype
I0322 14:31:17.193471  6562 net.cpp:453] ip2_ntype <- ip1_ntype
I0322 14:31:17.193477  6562 net.cpp:411] ip2_ntype -> ip2_ntype
I0322 14:31:17.193482  6562 net.cpp:163] Setting up ip2_ntype
I0322 14:31:17.193492  6562 net.cpp:170] Top shape: 100 3 (300)
I0322 14:31:17.193500  6562 layer_factory.hpp:74] Creating layer loss_ntype
I0322 14:31:17.193516  6562 net.cpp:133] Creating Layer loss_ntype
I0322 14:31:17.193521  6562 net.cpp:453] loss_ntype <- ip2_ntype
I0322 14:31:17.193523  6562 net.cpp:453] loss_ntype <- label_ntype
I0322 14:31:17.193529  6562 net.cpp:411] loss_ntype -> loss_ntype
I0322 14:31:17.193534  6562 net.cpp:163] Setting up loss_ntype
…
I0322 14:31:17.193940  6562 solver.cpp:166] Creating test net (#0) specified by net file: models/cifar10/ntype_trainval.prototxt
I0322 14:31:17.193972  6562 net.cpp:330] The NetState phase (1) differed from the phase (0) specified by a rule in layer cifar
I0322 14:31:17.194085  6562 net.cpp:47] Initializing net from parameters: 
name: "cifar10_ntype"
state {
  phase: TEST
}
layer {
  name: "cifar"
  type: "Data"
  top: "data"
  top: "label_ntype"
  include {
    phase: TEST
  }
  transform_param {
    mean_file: "external/exp/db/cifar10/cifar10_mean.binaryproto"
  }
  data_param {
    source: "external/exp/db/cifar10/ntype_test"
    batch_size: 100
    backend: LMDB
  }
}
layer {
  name: "conv1"
  type: "Convolution"
  bottom: "data"
  top: "conv1"
  param {
    lr_mult: 1
  }
  param {
    lr_mult: 2
  }
  convolution_param {
    num_output: 32
    pad: 2
    kernel_size: 5
    stride: 1
    weight_filler {
      type: "gaussian"
      std: 0.0001
    }
    bias_filler {
      type: "constant"
    }
  }
}
layer {
  name: "pool1"
  type: "Pooling"
  bottom: "conv1"
  top: "pool1"
  pooling_param {
    pool: MAX
    kernel_size: 3
    stride: 2
  }
}
layer {
  name: "relu1"
  type: "ReLU"
  bottom: "pool1"
  top: "pool1"
}
layer {
  name: "conv2"
  type: "Convolution"
  bottom: "pool1"
  top: "conv2"
  param {
    lr_mult: 1
  }
  param {
    lr_mult: 2
  }
  convolution_param {
    num_output: 32
    pad: 2
    kernel_size: 5
    stride: 1
    weight_filler {
      type: "gaussian"
      std: 0.01
    }
    bias_filler {
      type: "constant"
    }
  }
}
layer {
  name: "relu2"
  type: "ReLU"
  bottom: "conv2"
  top: "conv2"
}
layer {
  name: "pool2"
  type: "Pooling"
  bottom: "conv2"
  top: "pool2"
  pooling_param {
    pool: AVE
    kernel_size: 3
    stride: 2
  }
}
layer {
  name: "conv3"
  type: "Convolution"
  bottom: "pool2"
  top: "conv3"
  param {
    lr_mult: 1
  }
  param {
    lr_mult: 2
  }
  convolution_param {
    num_output: 64
    pad: 2
    kernel_size: 5
    stride: 1
    weight_filler {
      type: "gaussian"
      std: 0.01
    }
    bias_filler {
      type: "constant"
    }
  }
}
layer {
  name: "relu3"
  type: "ReLU"
  bottom: "conv3"
  top: "conv3"
}
layer {
  name: "pool3"
  type: "Pooling"
  bottom: "conv3"
  top: "pool3"
  pooling_param {
    pool: AVE
    kernel_size: 3
    stride: 2
  }
}
layer {
  name: "ip1_ntype"
  type: "InnerProduct"
  bottom: "pool3"
  top: "ip1_ntype"
  param {
    lr_mult: 1
  }
  param {
    lr_mult: 2
  }
  inner_product_param {
    num_output: 64
    weight_filler {
      type: "gaussian"
      std: 0.1
    }
    bias_filler {
      type: "constant"
    }
  }
}
layer {
  name: "ip2_ntype"
  type: "InnerProduct"
  bottom: "ip1_ntype"
  top: "ip2_ntype"
  param {
    lr_mult: 10
  }
  param {
    lr_mult: 20
  }
  inner_product_param {
    num_output: 3
    weight_filler {
      type: "gaussian"
      std: 0.1
    }
    bias_filler {
      type: "constant"
    }
  }
}
layer {
  name: "accuracy"
  type: "Accuracy"
  bottom: "ip2_ntype"
  bottom: "label_ntype"
  top: "accuracy"
  include {
    phase: TEST
  }
}
layer {
  name: "loss_ntype"
  type: "SoftmaxWithLoss"
  bottom: "ip2_ntype"
  bottom: "label_ntype"
  top: "loss_ntype"
}
I0322 14:31:17.194160  6562 layer_factory.hpp:74] Creating layer cifar
I0322 14:31:17.194169  6562 net.cpp:133] Creating Layer cifar
I0322 14:31:17.194172  6562 net.cpp:411] cifar -> data
I0322 14:31:17.194180  6562 net.cpp:411] cifar -> label_ntype
I0322 14:31:17.194185  6562 net.cpp:163] Setting up cifar
I0322 14:31:17.194190  6562 data_transformer.cpp:23] Loading mean file from: external/exp/db/cifar10/cifar10_mean.binaryproto
I0322 14:31:17.194267  6562 db_lmdb.cpp:22] Opened lmdb external/exp/db/cifar10/ntype_test
I0322 14:31:17.194280  6562 data_layer.cpp:55] Skipping first 0 data points.
I0322 14:31:17.194289  6562 data_layer.cpp:100] output data size: 100,3,32,32
I0322 14:31:17.194334  6562 net.cpp:170] Top shape: 100 3 32 32 (307200)
I0322 14:31:17.194341  6562 net.cpp:170] Top shape: 100 (100)
I0322 14:31:17.194345  6562 layer_factory.hpp:74] Creating layer label_ntype_cifar_1_split
I0322 14:31:17.194351  6562 net.cpp:133] Creating Layer label_ntype_cifar_1_split
I0322 14:31:17.194368  6562 net.cpp:453] label_ntype_cifar_1_split <- label_ntype
I0322 14:31:17.194373  6562 net.cpp:411] label_ntype_cifar_1_split -> label_ntype_cifar_1_split_0
I0322 14:31:17.194381  6562 net.cpp:411] label_ntype_cifar_1_split -> label_ntype_cifar_1_split_1
I0322 14:31:17.194386  6562 net.cpp:163] Setting up label_ntype_cifar_1_split
I0322 14:31:17.194391  6562 net.cpp:170] Top shape: 100 (100)
I0322 14:31:17.194396  6562 net.cpp:170] Top shape: 100 (100)
I0322 14:31:17.194406  6562 layer_factory.hpp:74] Creating layer conv1
I0322 14:31:17.194421  6562 net.cpp:133] Creating Layer conv1
I0322 14:31:17.194423  6562 net.cpp:453] conv1 <- data
I0322 14:31:17.194428  6562 net.cpp:411] conv1 -> conv1
I0322 14:31:17.194440  6562 net.cpp:163] Setting up conv1
I0322 14:31:17.225726  6562 net.cpp:170] Top shape: 100 32 32 32 (3276800)
I0322 14:31:17.225790  6562 layer_factory.hpp:74] Creating layer pool1
I0322 14:31:17.225821  6562 net.cpp:133] Creating Layer pool1
I0322 14:31:17.225828  6562 net.cpp:453] pool1 <- conv1
I0322 14:31:17.225839  6562 net.cpp:411] pool1 -> pool1
I0322 14:31:17.225847  6562 net.cpp:163] Setting up pool1
I0322 14:31:17.226110  6562 net.cpp:170] Top shape: 100 32 16 16 (819200)
I0322 14:31:17.226119  6562 layer_factory.hpp:74] Creating layer relu1
I0322 14:31:17.226137  6562 net.cpp:133] Creating Layer relu1
I0322 14:31:17.226140  6562 net.cpp:453] relu1 <- pool1
I0322 14:31:17.226145  6562 net.cpp:400] relu1 -> pool1 (in-place)
I0322 14:31:17.226162  6562 net.cpp:163] Setting up relu1
I0322 14:31:17.226303  6562 net.cpp:170] Top shape: 100 32 16 16 (819200)
I0322 14:31:17.226310  6562 layer_factory.hpp:74] Creating layer conv2
I0322 14:31:17.226331  6562 net.cpp:133] Creating Layer conv2
I0322 14:31:17.226335  6562 net.cpp:453] conv2 <- pool1
I0322 14:31:17.226351  6562 net.cpp:411] conv2 -> conv2
I0322 14:31:17.226358  6562 net.cpp:163] Setting up conv2
I0322 14:31:17.244706  6562 cudnn_conv_layer.cpp:348] fft context time 1.02186 mem 58982400
I0322 14:31:17.253068  6562 net.cpp:170] Top shape: 100 32 16 16 (819200)
I0322 14:31:17.253105  6562 layer_factory.hpp:74] Creating layer relu2
I0322 14:31:17.253118  6562 net.cpp:133] Creating Layer relu2
I0322 14:31:17.253121  6562 net.cpp:453] relu2 <- conv2
I0322 14:31:17.253142  6562 net.cpp:400] relu2 -> conv2 (in-place)
I0322 14:31:17.253155  6562 net.cpp:163] Setting up relu2
I0322 14:31:17.253381  6562 net.cpp:170] Top shape: 100 32 16 16 (819200)
I0322 14:31:17.253389  6562 layer_factory.hpp:74] Creating layer pool2
I0322 14:31:17.253412  6562 net.cpp:133] Creating Layer pool2
I0322 14:31:17.253414  6562 net.cpp:453] pool2 <- conv2
I0322 14:31:17.253418  6562 net.cpp:411] pool2 -> pool2
I0322 14:31:17.253428  6562 net.cpp:163] Setting up pool2
I0322 14:31:17.253675  6562 net.cpp:170] Top shape: 100 32 8 8 (204800)
I0322 14:31:17.253684  6562 layer_factory.hpp:74] Creating layer conv3
I0322 14:31:17.253707  6562 net.cpp:133] Creating Layer conv3
I0322 14:31:17.253711  6562 net.cpp:453] conv3 <- pool2
I0322 14:31:17.253720  6562 net.cpp:411] conv3 -> conv3
I0322 14:31:17.253732  6562 net.cpp:163] Setting up conv3
I0322 14:31:17.266777  6562 cudnn_conv_layer.cpp:348] fft context time 0.470464 mem 23756800
I0322 14:31:17.272176  6562 net.cpp:170] Top shape: 100 64 8 8 (409600)
I0322 14:31:17.272205  6562 layer_factory.hpp:74] Creating layer relu3
I0322 14:31:17.272218  6562 net.cpp:133] Creating Layer relu3
I0322 14:31:17.272222  6562 net.cpp:453] relu3 <- conv3
I0322 14:31:17.272230  6562 net.cpp:400] relu3 -> conv3 (in-place)
I0322 14:31:17.272254  6562 net.cpp:163] Setting up relu3
I0322 14:31:17.272469  6562 net.cpp:170] Top shape: 100 64 8 8 (409600)
I0322 14:31:17.272476  6562 layer_factory.hpp:74] Creating layer pool3
I0322 14:31:17.272483  6562 net.cpp:133] Creating Layer pool3
I0322 14:31:17.272487  6562 net.cpp:453] pool3 <- conv3
I0322 14:31:17.272493  6562 net.cpp:411] pool3 -> pool3
I0322 14:31:17.272500  6562 net.cpp:163] Setting up pool3
I0322 14:31:17.272761  6562 net.cpp:170] Top shape: 100 64 4 4 (102400)
I0322 14:31:17.272769  6562 layer_factory.hpp:74] Creating layer ip1_ntype
I0322 14:31:17.272778  6562 net.cpp:133] Creating Layer ip1_ntype
I0322 14:31:17.272783  6562 net.cpp:453] ip1_ntype <- pool3
I0322 14:31:17.272789  6562 net.cpp:411] ip1_ntype -> ip1_ntype
I0322 14:31:17.272795  6562 net.cpp:163] Setting up ip1_ntype
I0322 14:31:17.273463  6562 net.cpp:170] Top shape: 100 64 (6400)
I0322 14:31:17.273473  6562 layer_factory.hpp:74] Creating layer ip2_ntype
I0322 14:31:17.273479  6562 net.cpp:133] Creating Layer ip2_ntype
I0322 14:31:17.273483  6562 net.cpp:453] ip2_ntype <- ip1_ntype
I0322 14:31:17.273488  6562 net.cpp:411] ip2_ntype -> ip2_ntype
I0322 14:31:17.273494  6562 net.cpp:163] Setting up ip2_ntype
I0322 14:31:17.273519  6562 net.cpp:170] Top shape: 100 3 (300)
I0322 14:31:17.273530  6562 layer_factory.hpp:74] Creating layer ip2_ntype_ip2_ntype_0_split
I0322 14:31:17.273540  6562 net.cpp:133] Creating Layer ip2_ntype_ip2_ntype_0_split
I0322 14:31:17.273547  6562 net.cpp:453] ip2_ntype_ip2_ntype_0_split <- ip2_ntype
I0322 14:31:17.273560  6562 net.cpp:411] ip2_ntype_ip2_ntype_0_split -> ip2_ntype_ip2_ntype_0_split_0
I0322 14:31:17.273571  6562 net.cpp:411] ip2_ntype_ip2_ntype_0_split -> ip2_ntype_ip2_ntype_0_split_1
I0322 14:31:17.273581  6562 net.cpp:163] Setting up ip2_ntype_ip2_ntype_0_split
I0322 14:31:17.273602  6562 net.cpp:170] Top shape: 100 3 (300)
I0322 14:31:17.273609  6562 net.cpp:170] Top shape: 100 3 (300)
I0322 14:31:17.273613  6562 layer_factory.hpp:74] Creating layer accuracy
I0322 14:31:17.273636  6562 net.cpp:133] Creating Layer accuracy
I0322 14:31:17.273641  6562 net.cpp:453] accuracy <- ip2_ntype_ip2_ntype_0_split_0
I0322 14:31:17.273648  6562 net.cpp:453] accuracy <- label_ntype_cifar_1_split_0
I0322 14:31:17.273658  6562 net.cpp:411] accuracy -> accuracy
I0322 14:31:17.273669  6562 net.cpp:163] Setting up accuracy
…
