…
  data_param {
    source: "external/exp/db/cifar10/mixed_train_label_clean"
    batch_size: 100
    backend: LMDB
  }
}
layer {
  name: "label_noisy"
  type: "Data"
  top: "label_noisy"
  include {
    phase: TRAIN
  }
  data_param {
    source: "external/exp/db/cifar10/mixed_train_label_noisy"
    batch_size: 100
    backend: LMDB
  }
}
layer {
  name: "label_ntype"
  type: "Data"
  top: "label_ntype"
  include {
    phase: TRAIN
  }
  data_param {
    source: "external/exp/db/cifar10/mixed_train_label_ntype"
    batch_size: 100
    backend: LMDB
  }
}
layer {
  name: "conv1_clean"
  type: "Convolution"
  bottom: "data"
  top: "conv1_clean"
  param {
    lr_mult: 1
  }
  param {
    lr_mult: 2
  }
  convolution_param {
    num_output: 32
    pad: 2
    kernel_size: 5
    stride: 1
    weight_filler {
      type: "gaussian"
      std: 0.0001
    }
    bias_filler {
      type: "constant"
    }
  }
}
layer {
  name: "pool1_clean"
  type: "Pooling"
  bottom: "conv1_clean"
  top: "pool1_clean"
  pooling_param {
    pool: MAX
    kernel_size: 3
    stride: 2
  }
}
layer {
  name: "relu1_clean"
  type: "ReLU"
  bottom: "pool1_clean"
  top: "pool1_clean"
}
layer {
  name: "conv2_clean"
  type: "Convolution"
  bottom: "pool1_clean"
  top: "conv2_clean"
  param {
    lr_mult: 1
  }
  param {
    lr_mult: 2
  }
  convolution_param {
    num_output: 32
    pad: 2
    kernel_size: 5
    stride: 1
    weight_filler {
      type: "gaussian"
      std: 0.01
    }
    bias_filler {
      type: "constant"
    }
  }
}
layer {
  name: "relu2_clean"
  type: "ReLU"
  bottom: "conv2_clean"
  top: "conv2_clean"
}
layer {
  name: "pool2_clean"
  type: "Pooling"
  bottom: "conv2_clean"
  top: "pool2_clean"
  pooling_param {
    pool: AVE
    kernel_size: 3
    stride: 2
  }
}
layer {
  name: "conv3_clean"
  type: "Convolution"
  bottom: "pool2_clean"
  top: "conv3_clean"
  param {
    lr_mult: 1
  }
  param {
    lr_mult: 2
  }
  convolution_param {
    num_output: 64
    pad: 2
    kernel_size: 5
    stride: 1
    weight_filler {
      type: "gaussian"
      std: 0.01
    }
    bias_filler {
      type: "constant"
    }
  }
}
layer {
  name: "relu3_clean"
  type: "ReLU"
  bottom: "conv3_clean"
  top: "conv3_clean"
}
layer {
  name: "pool3_clean"
  type: "Pooling"
  bottom: "conv3_clean"
  top: "pool3_clean"
  pooling_param {
    pool: AVE
    kernel_size: 3
    stride: 2
  }
}
layer {
  name: "ip1_clean"
  type: "InnerProduct"
  bottom: "pool3_clean"
  top: "ip1_clean"
  param {
    lr_mult: 1
  }
  param {
    lr_mult: 2
  }
  inner_product_param {
    num_output: 64
    weight_filler {
      type: "gaussian"
      std: 0.1
    }
    bias_filler {
      type: "constant"
    }
  }
}
layer {
  name: "ip2_clean"
  type: "InnerProduct"
  bottom: "ip1_clean"
  top: "ip2_clean"
  param {
    lr_mult: 1
  }
  param {
    lr_mult: 2
  }
  inner_product_param {
    num_output: 10
    weight_filler {
      type: "gaussian"
      std: 0.1
    }
    bias_filler {
      type: "constant"
    }
  }
}
layer {
  name: "loss_clean"
  type: "SoftmaxWithLoss"
  bottom: "ip2_clean"
  bottom: "label_clean"
  top: "loss_clean"
  loss_param {
    ignore_label: -1
    normalize: false
  }
}
layer {
  name: "conv1_ntype"
  type: "Convolution"
  bottom: "data"
  top: "conv1_ntype"
  param {
    lr_mult: 1
  }
  param {
    lr_mult: 2
  }
  include {
    phase: TRAIN
  }
  convolution_param {
    num_output: 32
    pad: 2
    kernel_size: 5
    stride: 1
    weight_filler {
      type: "gaussian"
      std: 0.0001
    }
    bias_filler {
      type: "constant"
    }
  }
}
layer {
  name: "pool1_ntype"
  type: "Pooling"
  bottom: "conv1_ntype"
  top: "pool1_ntype"
  include {
    phase: TRAIN
  }
  pooling_param {
    pool: MAX
    kernel_size: 3
    stride: 2
  }
}
layer {
  name: "relu1_ntype"
  type: "ReLU"
  bottom: "pool1_ntype"
  top: "pool1_ntype"
  include {
    phase: TRAIN
  }
}
layer {
  name: "conv2_ntype"
  type: "Convolution"
  bottom: "pool1_ntype"
  top: "conv2_ntype"
  param {
    lr_mult: 1
  }
  param {
    lr_mult: 2
  }
  include {
    phase: TRAIN
  }
  convolution_param {
    num_output: 32
    pad: 2
    kernel_size: 5
    stride: 1
    weight_filler {
      type: "gaussian"
      std: 0.01
    }
    bias_filler {
      type: "constant"
    }
  }
}
layer {
  name: "relu2_ntype"
  type: "ReLU"
  bottom: "conv2_ntype"
  top: "conv2_ntype"
  include {
    phase: TRAIN
  }
}
layer {
  name: "pool2_ntype"
  type: "Pooling"
  bottom: "conv2_ntype"
  top: "pool2_ntype"
  include {
    phase: TRAIN
  }
  pooling_param {
    pool: AVE
    kernel_size: 3
    stride: 2
  }
}
layer {
  name: "conv3_ntype"
  type: "Convolution"
  bottom: "pool2_ntype"
  top: "conv3_ntype"
  param {
    lr_mult: 1
  }
  param {
    lr_mult: 2
  }
  include {
    phase: TRAIN
  }
  convolution_param {
    num_output: 64
    pad: 2
    kernel_size: 5
    stride: 1
    weight_filler {
      type: "gaussian"
      std: 0.01
    }
    bias_filler {
      type: "constant"
    }
  }
}
layer {
  name: "relu3_ntype"
  type: "ReLU"
  bottom: "conv3_ntype"
  top: "conv3_ntype"
  include {
    phase: TRAIN
  }
}
layer {
  name: "pool3_ntype"
  type: "Pooling"
  bottom: "conv3_ntype"
  top: "pool3_ntype"
  include {
    phase: TRAIN
  }
  pooling_param {
    pool: AVE
    kernel_size: 3
    stride: 2
  }
}
layer {
  name: "ip1_ntype"
  type: "InnerProduct"
  bottom: "pool3_ntype"
  top: "ip1_ntype"
  param {
    lr_mult: 1
  }
  param {
    lr_mult: 2
  }
  include {
    phase: TRAIN
  }
  inner_product_param {
    num_output: 64
    weight_filler {
      type: "gaussian"
      std: 0.1
    }
    bias_filler {
      type: "constant"
    }
  }
}
layer {
  name: "ip2_ntype"
  type: "InnerProduct"
  bottom: "ip1_ntype"
  top: "ip2_ntype"
  param {
    lr_mult: 1
  }
  param {
    lr_mult: 2
  }
  include {
    phase: TRAIN
  }
  inner_product_param {
    num_output: 3
    weight_filler {
      type: "gaussian"
      std: 0.1
    }
    bias_filler {
      type: "constant"
    }
  }
}
layer {
  name: "loss_ntype"
  type: "SoftmaxWithLoss"
  bottom: "ip2_ntype"
  bottom: "label_ntype"
  top: "loss_ntype"
  include {
    phase: TRAIN
  }
  loss_param {
    ignore_label: -1
  }
}
layer {
  name: "loss_noisy"
  type: "SoftmaxWithNoisyLabelLoss"
  bottom: "ip2_clean"
  bottom: "ip2_ntype"
  bottom: "label_noisy"
  top: "loss_noisy"
  param {
    lr_mult: 0
    decay_mult: 0
  }
  include {
    phase: TRAIN
  }
  softmax_noisy_label_loss_param {
    matrix_c_filler {
      type: "blob_proto"
      source: "external/exp/db/cifar10/matrix_c.binaryproto"
    }
  }
}
I1006 11:31:59.927831  3595 layer_factory.hpp:74] Creating layer cifar
I1006 11:31:59.927845  3595 net.cpp:110] Creating Layer cifar
I1006 11:31:59.927852  3595 net.cpp:388] cifar -> data
I1006 11:31:59.927872  3595 net.cpp:140] Setting up cifar
I1006 11:31:59.927878  3595 data_transformer.cpp:22] Loading mean file from: external/exp/db/cifar10/cifar10_mean.binaryproto
I1006 11:31:59.928012  3595 db_lmdb.cpp:22] Opened lmdb external/exp/db/cifar10/mixed_train_images
I1006 11:31:59.928050  3595 data_layer.cpp:55] Skipping first 0 data points.
I1006 11:31:59.928071  3595 data_layer.cpp:100] output data size: 100,3,32,32
I1006 11:31:59.928154  3595 net.cpp:147] Top shape: 100 3 32 32 (307200)
I1006 11:31:59.928161  3595 layer_factory.hpp:74] Creating layer data_cifar_0_split
I1006 11:31:59.928167  3595 net.cpp:110] Creating Layer data_cifar_0_split
I1006 11:31:59.928184  3595 net.cpp:430] data_cifar_0_split <- data
I1006 11:31:59.928190  3595 net.cpp:388] data_cifar_0_split -> data_cifar_0_split_0
I1006 11:31:59.928196  3595 net.cpp:388] data_cifar_0_split -> data_cifar_0_split_1
I1006 11:31:59.928205  3595 net.cpp:140] Setting up data_cifar_0_split
I1006 11:31:59.928222  3595 net.cpp:147] Top shape: 100 3 32 32 (307200)
I1006 11:31:59.928226  3595 net.cpp:147] Top shape: 100 3 32 32 (307200)
I1006 11:31:59.928230  3595 layer_factory.hpp:74] Creating layer label_clean
I1006 11:31:59.928234  3595 net.cpp:110] Creating Layer label_clean
I1006 11:31:59.928238  3595 net.cpp:388] label_clean -> label_clean
I1006 11:31:59.928244  3595 net.cpp:140] Setting up label_clean
I1006 11:31:59.928302  3595 db_lmdb.cpp:22] Opened lmdb external/exp/db/cifar10/mixed_train_label_clean
I1006 11:31:59.928323  3595 data_layer.cpp:55] Skipping first 0 data points.
I1006 11:31:59.928328  3595 data_layer.cpp:100] output data size: 100,1,1,1
I1006 11:31:59.928375  3595 net.cpp:147] Top shape: 100 1 1 1 (100)
I1006 11:31:59.928380  3595 layer_factory.hpp:74] Creating layer label_noisy
I1006 11:31:59.928397  3595 net.cpp:110] Creating Layer label_noisy
I1006 11:31:59.928402  3595 net.cpp:388] label_noisy -> label_noisy
I1006 11:31:59.928408  3595 net.cpp:140] Setting up label_noisy
I1006 11:31:59.928434  3595 db_lmdb.cpp:22] Opened lmdb external/exp/db/cifar10/mixed_train_label_noisy
I1006 11:31:59.928442  3595 data_layer.cpp:55] Skipping first 0 data points.
I1006 11:31:59.928448  3595 data_layer.cpp:100] output data size: 100,1,1,1
I1006 11:31:59.928472  3595 net.cpp:147] Top shape: 100 1 1 1 (100)
I1006 11:31:59.928478  3595 layer_factory.hpp:74] Creating layer label_ntype
I1006 11:31:59.928483  3595 net.cpp:110] Creating Layer label_ntype
I1006 11:31:59.928488  3595 net.cpp:388] label_ntype -> label_ntype
I1006 11:31:59.928493  3595 net.cpp:140] Setting up label_ntype
I1006 11:31:59.928517  3595 db_lmdb.cpp:22] Opened lmdb external/exp/db/cifar10/mixed_train_label_ntype
I1006 11:31:59.928525  3595 data_layer.cpp:55] Skipping first 0 data points.
I1006 11:31:59.928530  3595 data_layer.cpp:100] output data size: 100,1,1,1
I1006 11:31:59.928550  3595 net.cpp:147] Top shape: 100 1 1 1 (100)
I1006 11:31:59.928553  3595 layer_factory.hpp:74] Creating layer conv1_clean
I1006 11:31:59.928561  3595 net.cpp:110] Creating Layer conv1_clean
I1006 11:31:59.928565  3595 net.cpp:430] conv1_clean <- data_cifar_0_split_0
I1006 11:31:59.928575  3595 net.cpp:388] conv1_clean -> conv1_clean
I1006 11:31:59.928582  3595 net.cpp:140] Setting up conv1_clean
I1006 11:32:00.003465  3595 net.cpp:147] Top shape: 100 32 32 32 (3276800)
I1006 11:32:00.003506  3595 layer_factory.hpp:74] Creating layer pool1_clean
I1006 11:32:00.003520  3595 net.cpp:110] Creating Layer pool1_clean
I1006 11:32:00.003523  3595 net.cpp:430] pool1_clean <- conv1_clean
I1006 11:32:00.003530  3595 net.cpp:388] pool1_clean -> pool1_clean
I1006 11:32:00.003551  3595 net.cpp:140] Setting up pool1_clean
I1006 11:32:00.003677  3595 net.cpp:147] Top shape: 100 32 16 16 (819200)
I1006 11:32:00.003684  3595 layer_factory.hpp:74] Creating layer relu1_clean
I1006 11:32:00.003690  3595 net.cpp:110] Creating Layer relu1_clean
I1006 11:32:00.003693  3595 net.cpp:430] relu1_clean <- pool1_clean
I1006 11:32:00.003697  3595 net.cpp:377] relu1_clean -> pool1_clean (in-place)
I1006 11:32:00.003705  3595 net.cpp:140] Setting up relu1_clean
I1006 11:32:00.003909  3595 net.cpp:147] Top shape: 100 32 16 16 (819200)
I1006 11:32:00.003916  3595 layer_factory.hpp:74] Creating layer conv2_clean
I1006 11:32:00.003927  3595 net.cpp:110] Creating Layer conv2_clean
I1006 11:32:00.003931  3595 net.cpp:430] conv2_clean <- pool1_clean
I1006 11:32:00.003934  3595 net.cpp:388] conv2_clean -> conv2_clean
I1006 11:32:00.003942  3595 net.cpp:140] Setting up conv2_clean
I1006 11:32:00.004673  3595 net.cpp:147] Top shape: 100 32 16 16 (819200)
I1006 11:32:00.004698  3595 layer_factory.hpp:74] Creating layer relu2_clean
I1006 11:32:00.004703  3595 net.cpp:110] Creating Layer relu2_clean
I1006 11:32:00.004706  3595 net.cpp:430] relu2_clean <- conv2_clean
I1006 11:32:00.004710  3595 net.cpp:377] relu2_clean -> conv2_clean (in-place)
I1006 11:32:00.004714  3595 net.cpp:140] Setting up relu2_clean
I1006 11:32:00.004839  3595 net.cpp:147] Top shape: 100 32 16 16 (819200)
I1006 11:32:00.004845  3595 layer_factory.hpp:74] Creating layer pool2_clean
I1006 11:32:00.004863  3595 net.cpp:110] Creating Layer pool2_clean
I1006 11:32:00.004866  3595 net.cpp:430] pool2_clean <- conv2_clean
I1006 11:32:00.004873  3595 net.cpp:388] pool2_clean -> pool2_clean
I1006 11:32:00.004876  3595 net.cpp:140] Setting up pool2_clean
I1006 11:32:00.005112  3595 net.cpp:147] Top shape: 100 32 8 8 (204800)
I1006 11:32:00.005120  3595 layer_factory.hpp:74] Creating layer conv3_clean
I1006 11:32:00.005127  3595 net.cpp:110] Creating Layer conv3_clean
I1006 11:32:00.005131  3595 net.cpp:430] conv3_clean <- pool2_clean
I1006 11:32:00.005136  3595 net.cpp:388] conv3_clean -> conv3_clean
I1006 11:32:00.005141  3595 net.cpp:140] Setting up conv3_clean
I1006 11:32:00.006113  3595 net.cpp:147] Top shape: 100 64 8 8 (409600)
I1006 11:32:00.006124  3595 layer_factory.hpp:74] Creating layer relu3_clean
I1006 11:32:00.006129  3595 net.cpp:110] Creating Layer relu3_clean
I1006 11:32:00.006131  3595 net.cpp:430] relu3_clean <- conv3_clean
I1006 11:32:00.006137  3595 net.cpp:377] relu3_clean -> conv3_clean (in-place)
I1006 11:32:00.006141  3595 net.cpp:140] Setting up relu3_clean
I1006 11:32:00.006278  3595 net.cpp:147] Top shape: 100 64 8 8 (409600)
I1006 11:32:00.006285  3595 layer_factory.hpp:74] Creating layer pool3_clean
I1006 11:32:00.006291  3595 net.cpp:110] Creating Layer pool3_clean
I1006 11:32:00.006294  3595 net.cpp:430] pool3_clean <- conv3_clean
I1006 11:32:00.006297  3595 net.cpp:388] pool3_clean -> pool3_clean
I1006 11:32:00.006302  3595 net.cpp:140] Setting up pool3_clean
I1006 11:32:00.006521  3595 net.cpp:147] Top shape: 100 64 4 4 (102400)
I1006 11:32:00.006528  3595 layer_factory.hpp:74] Creating layer ip1_clean
I1006 11:32:00.006536  3595 net.cpp:110] Creating Layer ip1_clean
I1006 11:32:00.006538  3595 net.cpp:430] ip1_clean <- pool3_clean
I1006 11:32:00.006544  3595 net.cpp:388] ip1_clean -> ip1_clean
I1006 11:32:00.006551  3595 net.cpp:140] Setting up ip1_clean
I1006 11:32:00.007182  3595 net.cpp:147] Top shape: 100 64 (6400)
I1006 11:32:00.007190  3595 layer_factory.hpp:74] Creating layer ip2_clean
I1006 11:32:00.007195  3595 net.cpp:110] Creating Layer ip2_clean
I1006 11:32:00.007199  3595 net.cpp:430] ip2_clean <- ip1_clean
I1006 11:32:00.007205  3595 net.cpp:388] ip2_clean -> ip2_clean
I1006 11:32:00.007210  3595 net.cpp:140] Setting up ip2_clean
I1006 11:32:00.007225  3595 net.cpp:147] Top shape: 100 10 (1000)
I1006 11:32:00.007230  3595 layer_factory.hpp:74] Creating layer ip2_clean_ip2_clean_0_split
I1006 11:32:00.007236  3595 net.cpp:110] Creating Layer ip2_clean_ip2_clean_0_split
I1006 11:32:00.007239  3595 net.cpp:430] ip2_clean_ip2_clean_0_split <- ip2_clean
I1006 11:32:00.007244  3595 net.cpp:388] ip2_clean_ip2_clean_0_split -> ip2_clean_ip2_clean_0_split_0
I1006 11:32:00.007249  3595 net.cpp:388] ip2_clean_ip2_clean_0_split -> ip2_clean_ip2_clean_0_split_1
I1006 11:32:00.007254  3595 net.cpp:140] Setting up ip2_clean_ip2_clean_0_split
I1006 11:32:00.007259  3595 net.cpp:147] Top shape: 100 10 (1000)
I1006 11:32:00.007262  3595 net.cpp:147] Top shape: 100 10 (1000)
I1006 11:32:00.007266  3595 layer_factory.hpp:74] Creating layer loss_clean
I1006 11:32:00.007271  3595 net.cpp:110] Creating Layer loss_clean
I1006 11:32:00.007273  3595 net.cpp:430] loss_clean <- ip2_clean_ip2_clean_0_split_0
I1006 11:32:00.007277  3595 net.cpp:430] loss_clean <- label_clean
I1006 11:32:00.007282  3595 net.cpp:388] loss_clean -> loss_clean
I1006 11:32:00.007288  3595 net.cpp:140] Setting up loss_clean
I1006 11:32:00.007295  3595 layer_factory.hpp:74] Creating layer loss_clean
I1006 11:32:00.007423  3595 net.cpp:147] Top shape: (1)
I1006 11:32:00.007429  3595 net.cpp:149]     with loss weight 1
I1006 11:32:00.007446  3595 layer_factory.hpp:74] Creating layer conv1_ntype
I1006 11:32:00.007467  3595 net.cpp:110] Creating Layer conv1_ntype
I1006 11:32:00.007472  3595 net.cpp:430] conv1_ntype <- data_cifar_0_split_1
I1006 11:32:00.007477  3595 net.cpp:388] conv1_ntype -> conv1_ntype
I1006 11:32:00.007483  3595 net.cpp:140] Setting up conv1_ntype
I1006 11:32:00.008034  3595 net.cpp:147] Top shape: 100 32 32 32 (3276800)
I1006 11:32:00.008044  3595 layer_factory.hpp:74] Creating layer pool1_ntype
I1006 11:32:00.008052  3595 net.cpp:110] Creating Layer pool1_ntype
I1006 11:32:00.008055  3595 net.cpp:430] pool1_ntype <- conv1_ntype
I1006 11:32:00.008059  3595 net.cpp:388] pool1_ntype -> pool1_ntype
I1006 11:32:00.008064  3595 net.cpp:140] Setting up pool1_ntype
I1006 11:32:00.008257  3595 net.cpp:147] Top shape: 100 32 16 16 (819200)
I1006 11:32:00.008265  3595 layer_factory.hpp:74] Creating layer relu1_ntype
I1006 11:32:00.008271  3595 net.cpp:110] Creating Layer relu1_ntype
I1006 11:32:00.008278  3595 net.cpp:430] relu1_ntype <- pool1_ntype
I1006 11:32:00.008285  3595 net.cpp:377] relu1_ntype -> pool1_ntype (in-place)
I1006 11:32:00.008290  3595 net.cpp:140] Setting up relu1_ntype
I1006 11:32:00.008406  3595 net.cpp:147] Top shape: 100 32 16 16 (819200)
I1006 11:32:00.008414  3595 layer_factory.hpp:74] Creating layer conv2_ntype
I1006 11:32:00.008420  3595 net.cpp:110] Creating Layer conv2_ntype
I1006 11:32:00.008424  3595 net.cpp:430] conv2_ntype <- pool1_ntype
I1006 11:32:00.008430  3595 net.cpp:388] conv2_ntype -> conv2_ntype
I1006 11:32:00.008435  3595 net.cpp:140] Setting up conv2_ntype
I1006 11:32:00.009179  3595 net.cpp:147] Top shape: 100 32 16 16 (819200)
I1006 11:32:00.009189  3595 layer_factory.hpp:74] Creating layer relu2_ntype
I1006 11:32:00.009196  3595 net.cpp:110] Creating Layer relu2_ntype
I1006 11:32:00.009201  3595 net.cpp:430] relu2_ntype <- conv2_ntype
I1006 11:32:00.009204  3595 net.cpp:377] relu2_ntype -> conv2_ntype (in-place)
I1006 11:32:00.009208  3595 net.cpp:140] Setting up relu2_ntype
I1006 11:32:00.009323  3595 net.cpp:147] Top shape: 100 32 16 16 (819200)
I1006 11:32:00.009330  3595 layer_factory.hpp:74] Creating layer pool2_ntype
I1006 11:32:00.009335  3595 net.cpp:110] Creating Layer pool2_ntype
I1006 11:32:00.009338  3595 net.cpp:430] pool2_ntype <- conv2_ntype
I1006 11:32:00.009343  3595 net.cpp:388] pool2_ntype -> pool2_ntype
I1006 11:32:00.009348  3595 net.cpp:140] Setting up pool2_ntype
I1006 11:32:00.009543  3595 net.cpp:147] Top shape: 100 32 8 8 (204800)
I1006 11:32:00.009551  3595 layer_factory.hpp:74] Creating layer conv3_ntype
I1006 11:32:00.009558  3595 net.cpp:110] Creating Layer conv3_ntype
I1006 11:32:00.009562  3595 net.cpp:430] conv3_ntype <- pool2_ntype
I1006 11:32:00.009567  3595 net.cpp:388] conv3_ntype -> conv3_ntype
I1006 11:32:00.009572  3595 net.cpp:140] Setting up conv3_ntype
I1006 11:32:00.010553  3595 net.cpp:147] Top shape: 100 64 8 8 (409600)
I1006 11:32:00.010563  3595 layer_factory.hpp:74] Creating layer relu3_ntype
I1006 11:32:00.010570  3595 net.cpp:110] Creating Layer relu3_ntype
I1006 11:32:00.010572  3595 net.cpp:430] relu3_ntype <- conv3_ntype
I1006 11:32:00.010576  3595 net.cpp:377] relu3_ntype -> conv3_ntype (in-place)
I1006 11:32:00.010581  3595 net.cpp:140] Setting up relu3_ntype
I1006 11:32:00.010701  3595 net.cpp:147] Top shape: 100 64 8 8 (409600)
I1006 11:32:00.010709  3595 layer_factory.hpp:74] Creating layer pool3_ntype
I1006 11:32:00.010715  3595 net.cpp:110] Creating Layer pool3_ntype
I1006 11:32:00.010717  3595 net.cpp:430] pool3_ntype <- conv3_ntype
I1006 11:32:00.010722  3595 net.cpp:388] pool3_ntype -> pool3_ntype
I1006 11:32:00.010726  3595 net.cpp:140] Setting up pool3_ntype
I1006 11:32:00.010918  3595 net.cpp:147] Top shape: 100 64 4 4 (102400)
I1006 11:32:00.010926  3595 layer_factory.hpp:74] Creating layer ip1_ntype
I1006 11:32:00.010932  3595 net.cpp:110] Creating Layer ip1_ntype
I1006 11:32:00.010936  3595 net.cpp:430] ip1_ntype <- pool3_ntype
I1006 11:32:00.010941  3595 net.cpp:388] ip1_ntype -> ip1_ntype
I1006 11:32:00.010947  3595 net.cpp:140] Setting up ip1_ntype
I1006 11:32:00.011546  3595 net.cpp:147] Top shape: 100 64 (6400)
I1006 11:32:00.011559  3595 layer_factory.hpp:74] Creating layer ip2_ntype
I1006 11:32:00.011564  3595 net.cpp:110] Creating Layer ip2_ntype
I1006 11:32:00.011567  3595 net.cpp:430] ip2_ntype <- ip1_ntype
I1006 11:32:00.011574  3595 net.cpp:388] ip2_ntype -> ip2_ntype
I1006 11:32:00.011579  3595 net.cpp:140] Setting up ip2_ntype
I1006 11:32:00.011589  3595 net.cpp:147] Top shape: 100 3 (300)
I1006 11:32:00.011595  3595 layer_factory.hpp:74] Creating layer ip2_ntype_ip2_ntype_0_split
I1006 11:32:00.011617  3595 net.cpp:110] Creating Layer ip2_ntype_ip2_ntype_0_split
I1006 11:32:00.011620  3595 net.cpp:430] ip2_ntype_ip2_ntype_0_split <- ip2_ntype
I1006 11:32:00.011626  3595 net.cpp:388] ip2_ntype_ip2_ntype_0_split -> ip2_ntype_ip2_ntype_0_split_0
I1006 11:32:00.011631  3595 net.cpp:388] ip2_ntype_ip2_ntype_0_split -> ip2_ntype_ip2_ntype_0_split_1
I1006 11:32:00.011636  3595 net.cpp:140] Setting up ip2_ntype_ip2_ntype_0_split
I1006 11:32:00.011641  3595 net.cpp:147] Top shape: 100 3 (300)
I1006 11:32:00.011646  3595 net.cpp:147] Top shape: 100 3 (300)
I1006 11:32:00.011661  3595 layer_factory.hpp:74] Creating layer loss_ntype
I1006 11:32:00.011665  3595 net.cpp:110] Creating Layer loss_ntype
I1006 11:32:00.011668  3595 net.cpp:430] loss_ntype <- ip2_ntype_ip2_ntype_0_split_0
I1006 11:32:00.011672  3595 net.cpp:430] loss_ntype <- label_ntype
I1006 11:32:00.011677  3595 net.cpp:388] loss_ntype -> loss_ntype
I1006 11:32:00.011683  3595 net.cpp:140] Setting up loss_ntype
…
I1006 11:32:00.012794  3595 net.cpp:307] The NetState phase (1) differed from the phase (0) specified by a rule in layer loss_noisy
I1006 11:32:00.012913  3595 net.cpp:46] Initializing net from parameters: 
name: "cifar10_noisy_label_loss"
state {
  phase: TEST
}
layer {
  name: "cifar"
  type: "Data"
  top: "data"
  top: "label_clean"
  include {
    phase: TEST
  }
  transform_param {
    mean_file: "external/exp/db/cifar10/cifar10_mean.binaryproto"
  }
  data_param {
    source: "external/exp/db/cifar10/test"
    batch_size: 100
    backend: LMDB
  }
}
layer {
  name: "conv1_clean"
  type: "Convolution"
  bottom: "data"
  top: "conv1_clean"
  param {
    lr_mult: 1
  }
  param {
    lr_mult: 2
  }
  convolution_param {
    num_output: 32
    pad: 2
    kernel_size: 5
    stride: 1
    weight_filler {
      type: "gaussian"
      std: 0.0001
    }
    bias_filler {
      type: "constant"
    }
  }
}
layer {
  name: "pool1_clean"
  type: "Pooling"
  bottom: "conv1_clean"
  top: "pool1_clean"
  pooling_param {
    pool: MAX
    kernel_size: 3
    stride: 2
  }
}
layer {
  name: "relu1_clean"
  type: "ReLU"
  bottom: "pool1_clean"
  top: "pool1_clean"
}
layer {
  name: "conv2_clean"
  type: "Convolution"
  bottom: "pool1_clean"
  top: "conv2_clean"
  param {
    lr_mult: 1
  }
  param {
    lr_mult: 2
  }
  convolution_param {
    num_output: 32
    pad: 2
    kernel_size: 5
    stride: 1
    weight_filler {
      type: "gaussian"
      std: 0.01
    }
    bias_filler {
      type: "constant"
    }
  }
}
layer {
  name: "relu2_clean"
  type: "ReLU"
  bottom: "conv2_clean"
  top: "conv2_clean"
}
layer {
  name: "pool2_clean"
  type: "Pooling"
  bottom: "conv2_clean"
  top: "pool2_clean"
  pooling_param {
    pool: AVE
    kernel_size: 3
    stride: 2
  }
}
layer {
  name: "conv3_clean"
  type: "Convolution"
  bottom: "pool2_clean"
  top: "conv3_clean"
  param {
    lr_mult: 1
  }
  param {
    lr_mult: 2
  }
  convolution_param {
    num_output: 64
    pad: 2
    kernel_size: 5
    stride: 1
    weight_filler {
      type: "gaussian"
      std: 0.01
    }
    bias_filler {
      type: "constant"
    }
  }
}
layer {
  name: "relu3_clean"
  type: "ReLU"
  bottom: "conv3_clean"
  top: "conv3_clean"
}
layer {
  name: "pool3_clean"
  type: "Pooling"
  bottom: "conv3_clean"
  top: "pool3_clean"
  pooling_param {
    pool: AVE
    kernel_size: 3
    stride: 2
  }
}
layer {
  name: "ip1_clean"
  type: "InnerProduct"
  bottom: "pool3_clean"
  top: "ip1_clean"
  param {
    lr_mult: 1
  }
  param {
    lr_mult: 2
  }
  inner_product_param {
    num_output: 64
    weight_filler {
      type: "gaussian"
      std: 0.1
    }
    bias_filler {
      type: "constant"
    }
  }
}
layer {
  name: "ip2_clean"
  type: "InnerProduct"
  bottom: "ip1_clean"
  top: "ip2_clean"
  param {
    lr_mult: 1
  }
  param {
    lr_mult: 2
  }
  inner_product_param {
    num_output: 10
    weight_filler {
      type: "gaussian"
      std: 0.1
    }
    bias_filler {
      type: "constant"
    }
  }
}
layer {
  name: "accuracy"
  type: "Accuracy"
  bottom: "ip2_clean"
  bottom: "label_clean"
  top: "accuracy"
  include {
    phase: TEST
  }
}
layer {
  name: "loss_clean"
  type: "SoftmaxWithLoss"
  bottom: "ip2_clean"
  bottom: "label_clean"
  top: "loss_clean"
  loss_param {
    ignore_label: -1
    normalize: false
  }
}
I1006 11:32:00.012967  3595 layer_factory.hpp:74] Creating layer cifar
I1006 11:32:00.012974  3595 net.cpp:110] Creating Layer cifar
I1006 11:32:00.012979  3595 net.cpp:388] cifar -> data
I1006 11:32:00.012985  3595 net.cpp:388] cifar -> label_clean
I1006 11:32:00.012991  3595 net.cpp:140] Setting up cifar
I1006 11:32:00.012996  3595 data_transformer.cpp:22] Loading mean file from: external/exp/db/cifar10/cifar10_mean.binaryproto
I1006 11:32:00.013066  3595 db_lmdb.cpp:22] Opened lmdb external/exp/db/cifar10/test
I1006 11:32:00.013082  3595 data_layer.cpp:55] Skipping first 0 data points.
I1006 11:32:00.013092  3595 data_layer.cpp:100] output data size: 100,3,32,32
I1006 11:32:00.013134  3595 net.cpp:147] Top shape: 100 3 32 32 (307200)
I1006 11:32:00.013142  3595 net.cpp:147] Top shape: 100 (100)
I1006 11:32:00.013160  3595 layer_factory.hpp:74] Creating layer label_clean_cifar_1_split
I1006 11:32:00.013169  3595 net.cpp:110] Creating Layer label_clean_cifar_1_split
I1006 11:32:00.013175  3595 net.cpp:430] label_clean_cifar_1_split <- label_clean
I1006 11:32:00.013182  3595 net.cpp:388] label_clean_cifar_1_split -> label_clean_cifar_1_split_0
I1006 11:32:00.013202  3595 net.cpp:388] label_clean_cifar_1_split -> label_clean_cifar_1_split_1
I1006 11:32:00.013211  3595 net.cpp:140] Setting up label_clean_cifar_1_split
I1006 11:32:00.013223  3595 net.cpp:147] Top shape: 100 (100)
I1006 11:32:00.013232  3595 net.cpp:147] Top shape: 100 (100)
I1006 11:32:00.013238  3595 layer_factory.hpp:74] Creating layer conv1_clean
I1006 11:32:00.013248  3595 net.cpp:110] Creating Layer conv1_clean
I1006 11:32:00.013257  3595 net.cpp:430] conv1_clean <- data
I1006 11:32:00.013265  3595 net.cpp:388] conv1_clean -> conv1_clean
I1006 11:32:00.013275  3595 net.cpp:140] Setting up conv1_clean
I1006 11:32:00.013890  3595 net.cpp:147] Top shape: 100 32 32 32 (3276800)
I1006 11:32:00.013909  3595 layer_factory.hpp:74] Creating layer pool1_clean
I1006 11:32:00.013923  3595 net.cpp:110] Creating Layer pool1_clean
I1006 11:32:00.013931  3595 net.cpp:430] pool1_clean <- conv1_clean
I1006 11:32:00.013941  3595 net.cpp:388] pool1_clean -> pool1_clean
I1006 11:32:00.013957  3595 net.cpp:140] Setting up pool1_clean
I1006 11:32:00.014183  3595 net.cpp:147] Top shape: 100 32 16 16 (819200)
I1006 11:32:00.014191  3595 layer_factory.hpp:74] Creating layer relu1_clean
I1006 11:32:00.014200  3595 net.cpp:110] Creating Layer relu1_clean
I1006 11:32:00.014206  3595 net.cpp:430] relu1_clean <- pool1_clean
I1006 11:32:00.014216  3595 net.cpp:377] relu1_clean -> pool1_clean (in-place)
I1006 11:32:00.014227  3595 net.cpp:140] Setting up relu1_clean
I1006 11:32:00.014363  3595 net.cpp:147] Top shape: 100 32 16 16 (819200)
I1006 11:32:00.014371  3595 layer_factory.hpp:74] Creating layer conv2_clean
I1006 11:32:00.014380  3595 net.cpp:110] Creating Layer conv2_clean
I1006 11:32:00.014386  3595 net.cpp:430] conv2_clean <- pool1_clean
I1006 11:32:00.014396  3595 net.cpp:388] conv2_clean -> conv2_clean
I1006 11:32:00.014408  3595 net.cpp:140] Setting up conv2_clean
I1006 11:32:00.015215  3595 net.cpp:147] Top shape: 100 32 16 16 (819200)
I1006 11:32:00.015233  3595 layer_factory.hpp:74] Creating layer relu2_clean
I1006 11:32:00.015244  3595 net.cpp:110] Creating Layer relu2_clean
I1006 11:32:00.015252  3595 net.cpp:430] relu2_clean <- conv2_clean
I1006 11:32:00.015260  3595 net.cpp:377] relu2_clean -> conv2_clean (in-place)
I1006 11:32:00.015269  3595 net.cpp:140] Setting up relu2_clean
I1006 11:32:00.015476  3595 net.cpp:147] Top shape: 100 32 16 16 (819200)
I1006 11:32:00.015485  3595 layer_factory.hpp:74] Creating layer pool2_clean
I1006 11:32:00.015494  3595 net.cpp:110] Creating Layer pool2_clean
I1006 11:32:00.015501  3595 net.cpp:430] pool2_clean <- conv2_clean
I1006 11:32:00.015509  3595 net.cpp:388] pool2_clean -> pool2_clean
I1006 11:32:00.015518  3595 net.cpp:140] Setting up pool2_clean
I1006 11:32:00.015646  3595 net.cpp:147] Top shape: 100 32 8 8 (204800)
I1006 11:32:00.015655  3595 layer_factory.hpp:74] Creating layer conv3_clean
I1006 11:32:00.015667  3595 net.cpp:110] Creating Layer conv3_clean
I1006 11:32:00.015676  3595 net.cpp:430] conv3_clean <- pool2_clean
I1006 11:32:00.015684  3595 net.cpp:388] conv3_clean -> conv3_clean
I1006 11:32:00.015698  3595 net.cpp:140] Setting up conv3_clean
I1006 11:32:00.016695  3595 net.cpp:147] Top shape: 100 64 8 8 (409600)
I1006 11:32:00.016711  3595 layer_factory.hpp:74] Creating layer relu3_clean
I1006 11:32:00.016723  3595 net.cpp:110] Creating Layer relu3_clean
I1006 11:32:00.016731  3595 net.cpp:430] relu3_clean <- conv3_clean
I1006 11:32:00.016737  3595 net.cpp:377] relu3_clean -> conv3_clean (in-place)
I1006 11:32:00.016746  3595 net.cpp:140] Setting up relu3_clean
I1006 11:32:00.016875  3595 net.cpp:147] Top shape: 100 64 8 8 (409600)
I1006 11:32:00.016882  3595 layer_factory.hpp:74] Creating layer pool3_clean
I1006 11:32:00.016891  3595 net.cpp:110] Creating Layer pool3_clean
I1006 11:32:00.016896  3595 net.cpp:430] pool3_clean <- conv3_clean
I1006 11:32:00.016906  3595 net.cpp:388] pool3_clean -> pool3_clean
I1006 11:32:00.016916  3595 net.cpp:140] Setting up pool3_clean
I1006 11:32:00.017124  3595 net.cpp:147] Top shape: 100 64 4 4 (102400)
I1006 11:32:00.017132  3595 layer_factory.hpp:74] Creating layer ip1_clean
I1006 11:32:00.017143  3595 net.cpp:110] Creating Layer ip1_clean
I1006 11:32:00.017150  3595 net.cpp:430] ip1_clean <- pool3_clean
I1006 11:32:00.017159  3595 net.cpp:388] ip1_clean -> ip1_clean
I1006 11:32:00.017170  3595 net.cpp:140] Setting up ip1_clean
I1006 11:32:00.017784  3595 net.cpp:147] Top shape: 100 64 (6400)
I1006 11:32:00.017796  3595 layer_factory.hpp:74] Creating layer ip2_clean
I1006 11:32:00.017806  3595 net.cpp:110] Creating Layer ip2_clean
I1006 11:32:00.017813  3595 net.cpp:430] ip2_clean <- ip1_clean
I1006 11:32:00.017823  3595 net.cpp:388] ip2_clean -> ip2_clean
I1006 11:32:00.017834  3595 net.cpp:140] Setting up ip2_clean
I1006 11:32:00.017858  3595 net.cpp:147] Top shape: 100 10 (1000)
I1006 11:32:00.017871  3595 layer_factory.hpp:74] Creating layer ip2_clean_ip2_clean_0_split
I1006 11:32:00.017880  3595 net.cpp:110] Creating Layer ip2_clean_ip2_clean_0_split
I1006 11:32:00.017889  3595 net.cpp:430] ip2_clean_ip2_clean_0_split <- ip2_clean
I1006 11:32:00.017897  3595 net.cpp:388] ip2_clean_ip2_clean_0_split -> ip2_clean_ip2_clean_0_split_0
I1006 11:32:00.017906  3595 net.cpp:388] ip2_clean_ip2_clean_0_split -> ip2_clean_ip2_clean_0_split_1
I1006 11:32:00.017916  3595 net.cpp:140] Setting up ip2_clean_ip2_clean_0_split
I1006 11:32:00.017926  3595 net.cpp:147] Top shape: 100 10 (1000)
I1006 11:32:00.017935  3595 net.cpp:147] Top shape: 100 10 (1000)
I1006 11:32:00.017940  3595 layer_factory.hpp:74] Creating layer accuracy
I1006 11:32:00.017948  3595 net.cpp:110] Creating Layer accuracy
I1006 11:32:00.017956  3595 net.cpp:430] accuracy <- ip2_clean_ip2_clean_0_split_0
I1006 11:32:00.017963  3595 net.cpp:430] accuracy <- label_clean_cifar_1_split_0
I1006 11:32:00.017972  3595 net.cpp:388] accuracy -> accuracy
I1006 11:32:00.017983  3595 net.cpp:140] Setting up accuracy
…
