…
I1006 11:27:43.175951 20299 net.cpp:307] The NetState phase (0) differed from the phase (1) specified by a rule in layer accuracy
I1006 11:27:43.176095 20299 net.cpp:46] Initializing net from parameters: 
name: "cifar10_clean"
state {
  phase: TRAIN
}
layer {
  name: "cifar"
  type: "Data"
  top: "data"
  top: "label_clean"
  include {
    phase: TRAIN
  }
  transform_param {
    mean_file: "external/exp/db/cifar10/cifar10_mean.binaryproto"
  }
  data_param {
    source: "external/exp/db/cifar10/clean_train"
    batch_size: 100
    backend: LMDB
  }
}
layer {
  name: "conv1"
  type: "Convolution"
  bottom: "data"
  top: "conv1"
  param {
    lr_mult: 1
  }
  param {
    lr_mult: 2
  }
  convolution_param {
    num_output: 32
    pad: 2
    kernel_size: 5
    stride: 1
    weight_filler {
      type: "gaussian"
      std: 0.0001
    }
    bias_filler {
      type: "constant"
    }
  }
}
layer {
  name: "pool1"
  type: "Pooling"
  bottom: "conv1"
  top: "pool1"
  pooling_param {
    pool: MAX
    kernel_size: 3
    stride: 2
  }
}
layer {
  name: "relu1"
  type: "ReLU"
  bottom: "pool1"
  top: "pool1"
}
layer {
  name: "conv2"
  type: "Convolution"
  bottom: "pool1"
  top: "conv2"
  param {
    lr_mult: 1
  }
  param {
    lr_mult: 2
  }
  convolution_param {
    num_output: 32
    pad: 2
    kernel_size: 5
    stride: 1
    weight_filler {
      type: "gaussian"
      std: 0.01
    }
    bias_filler {
      type: "constant"
    }
  }
}
layer {
  name: "relu2"
  type: "ReLU"
  bottom: "conv2"
  top: "conv2"
}
layer {
  name: "pool2"
  type: "Pooling"
  bottom: "conv2"
  top: "pool2"
  pooling_param {
    pool: AVE
    kernel_size: 3
    stride: 2
  }
}
layer {
  name: "conv3"
  type: "Convolution"
  bottom: "pool2"
  top: "conv3"
  param {
    lr_mult: 1
  }
  param {
    lr_mult: 2
  }
  convolution_param {
    num_output: 64
    pad: 2
    kernel_size: 5
    stride: 1
    weight_filler {
      type: "gaussian"
      std: 0.01
    }
    bias_filler {
      type: "constant"
    }
  }
}
layer {
  name: "relu3"
  type: "ReLU"
  bottom: "conv3"
  top: "conv3"
}
layer {
  name: "pool3"
  type: "Pooling"
  bottom: "conv3"
  top: "pool3"
  pooling_param {
    pool: AVE
    kernel_size: 3
    stride: 2
  }
}
layer {
  name: "ip1"
  type: "InnerProduct"
  bottom: "pool3"
  top: "ip1"
  param {
    lr_mult: 1
  }
  param {
    lr_mult: 2
  }
  inner_product_param {
    num_output: 64
    weight_filler {
      type: "gaussian"
      std: 0.1
    }
    bias_filler {
      type: "constant"
    }
  }
}
layer {
  name: "ip2"
  type: "InnerProduct"
  bottom: "ip1"
  top: "ip2"
  param {
    lr_mult: 1
  }
  param {
    lr_mult: 2
  }
  inner_product_param {
    num_output: 10
    weight_filler {
      type: "gaussian"
      std: 0.1
    }
    bias_filler {
      type: "constant"
    }
  }
}
layer {
  name: "loss_clean"
  type: "SoftmaxWithLoss"
  bottom: "ip2"
  bottom: "label_clean"
  top: "loss_clean"
  loss_param {
    ignore_label: -1
  }
}
I1006 11:27:43.176156 20299 layer_factory.hpp:74] Creating layer cifar
I1006 11:27:43.176170 20299 net.cpp:110] Creating Layer cifar
I1006 11:27:43.176179 20299 net.cpp:388] cifar -> data
I1006 11:27:43.176208 20299 net.cpp:388] cifar -> label_clean
I1006 11:27:43.176226 20299 net.cpp:140] Setting up cifar
I1006 11:27:43.176235 20299 data_transformer.cpp:22] Loading mean file from: external/exp/db/cifar10/cifar10_mean.binaryproto
I1006 11:27:43.176388 20299 db_lmdb.cpp:22] Opened lmdb external/exp/db/cifar10/clean_train
I1006 11:27:43.176421 20299 data_layer.cpp:55] Skipping first 0 data points.
I1006 11:27:43.176445 20299 data_layer.cpp:100] output data size: 100,3,32,32
I1006 11:27:43.176523 20299 net.cpp:147] Top shape: 100 3 32 32 (307200)
I1006 11:27:43.176532 20299 net.cpp:147] Top shape: 100 (100)
I1006 11:27:43.176537 20299 layer_factory.hpp:74] Creating layer conv1
I1006 11:27:43.176545 20299 net.cpp:110] Creating Layer conv1
I1006 11:27:43.176550 20299 net.cpp:430] conv1 <- data
I1006 11:27:43.176559 20299 net.cpp:388] conv1 -> conv1
I1006 11:27:43.176569 20299 net.cpp:140] Setting up conv1
I1006 11:27:43.410651 20299 net.cpp:147] Top shape: 100 32 32 32 (3276800)
I1006 11:27:43.410707 20299 layer_factory.hpp:74] Creating layer pool1
I1006 11:27:43.410740 20299 net.cpp:110] Creating Layer pool1
I1006 11:27:43.410747 20299 net.cpp:430] pool1 <- conv1
I1006 11:27:43.410754 20299 net.cpp:388] pool1 -> pool1
I1006 11:27:43.410765 20299 net.cpp:140] Setting up pool1
I1006 11:27:43.410981 20299 net.cpp:147] Top shape: 100 32 16 16 (819200)
I1006 11:27:43.410995 20299 layer_factory.hpp:74] Creating layer relu1
I1006 11:27:43.411003 20299 net.cpp:110] Creating Layer relu1
I1006 11:27:43.411008 20299 net.cpp:430] relu1 <- pool1
I1006 11:27:43.411015 20299 net.cpp:377] relu1 -> pool1 (in-place)
I1006 11:27:43.411027 20299 net.cpp:140] Setting up relu1
I1006 11:27:43.411363 20299 net.cpp:147] Top shape: 100 32 16 16 (819200)
I1006 11:27:43.411376 20299 layer_factory.hpp:74] Creating layer conv2
I1006 11:27:43.411391 20299 net.cpp:110] Creating Layer conv2
I1006 11:27:43.411396 20299 net.cpp:430] conv2 <- pool1
I1006 11:27:43.411404 20299 net.cpp:388] conv2 -> conv2
I1006 11:27:43.411416 20299 net.cpp:140] Setting up conv2
I1006 11:27:43.412715 20299 net.cpp:147] Top shape: 100 32 16 16 (819200)
I1006 11:27:43.412737 20299 layer_factory.hpp:74] Creating layer relu2
I1006 11:27:43.412746 20299 net.cpp:110] Creating Layer relu2
I1006 11:27:43.412751 20299 net.cpp:430] relu2 <- conv2
I1006 11:27:43.412760 20299 net.cpp:377] relu2 -> conv2 (in-place)
I1006 11:27:43.412767 20299 net.cpp:140] Setting up relu2
I1006 11:27:43.413044 20299 net.cpp:147] Top shape: 100 32 16 16 (819200)
I1006 11:27:43.413058 20299 layer_factory.hpp:74] Creating layer pool2
I1006 11:27:43.413065 20299 net.cpp:110] Creating Layer pool2
I1006 11:27:43.413069 20299 net.cpp:430] pool2 <- conv2
I1006 11:27:43.413077 20299 net.cpp:388] pool2 -> pool2
I1006 11:27:43.413084 20299 net.cpp:140] Setting up pool2
I1006 11:27:43.413425 20299 net.cpp:147] Top shape: 100 32 8 8 (204800)
I1006 11:27:43.413439 20299 layer_factory.hpp:74] Creating layer conv3
I1006 11:27:43.413450 20299 net.cpp:110] Creating Layer conv3
I1006 11:27:43.413456 20299 net.cpp:430] conv3 <- pool2
I1006 11:27:43.413466 20299 net.cpp:388] conv3 -> conv3
I1006 11:27:43.413476 20299 net.cpp:140] Setting up conv3
I1006 11:27:43.415174 20299 net.cpp:147] Top shape: 100 64 8 8 (409600)
I1006 11:27:43.415197 20299 layer_factory.hpp:74] Creating layer relu3
I1006 11:27:43.415208 20299 net.cpp:110] Creating Layer relu3
I1006 11:27:43.415213 20299 net.cpp:430] relu3 <- conv3
I1006 11:27:43.415223 20299 net.cpp:377] relu3 -> conv3 (in-place)
I1006 11:27:43.415231 20299 net.cpp:140] Setting up relu3
I1006 11:27:43.415448 20299 net.cpp:147] Top shape: 100 64 8 8 (409600)
I1006 11:27:43.415459 20299 layer_factory.hpp:74] Creating layer pool3
I1006 11:27:43.415470 20299 net.cpp:110] Creating Layer pool3
I1006 11:27:43.415475 20299 net.cpp:430] pool3 <- conv3
I1006 11:27:43.415482 20299 net.cpp:388] pool3 -> pool3
I1006 11:27:43.415490 20299 net.cpp:140] Setting up pool3
I1006 11:27:43.415828 20299 net.cpp:147] Top shape: 100 64 4 4 (102400)
I1006 11:27:43.415843 20299 layer_factory.hpp:74] Creating layer ip1
I1006 11:27:43.415854 20299 net.cpp:110] Creating Layer ip1
I1006 11:27:43.415859 20299 net.cpp:430] ip1 <- pool3
I1006 11:27:43.415869 20299 net.cpp:388] ip1 -> ip1
I1006 11:27:43.415884 20299 net.cpp:140] Setting up ip1
I1006 11:27:43.416932 20299 net.cpp:147] Top shape: 100 64 (6400)
I1006 11:27:43.416947 20299 layer_factory.hpp:74] Creating layer ip2
I1006 11:27:43.416956 20299 net.cpp:110] Creating Layer ip2
I1006 11:27:43.416961 20299 net.cpp:430] ip2 <- ip1
I1006 11:27:43.416971 20299 net.cpp:388] ip2 -> ip2
I1006 11:27:43.416980 20299 net.cpp:140] Setting up ip2
I1006 11:27:43.417018 20299 net.cpp:147] Top shape: 100 10 (1000)
I1006 11:27:43.417035 20299 layer_factory.hpp:74] Creating layer loss_clean
I1006 11:27:43.417047 20299 net.cpp:110] Creating Layer loss_clean
I1006 11:27:43.417054 20299 net.cpp:430] loss_clean <- ip2
I1006 11:27:43.417059 20299 net.cpp:430] loss_clean <- label_clean
I1006 11:27:43.417069 20299 net.cpp:388] loss_clean -> loss_clean
I1006 11:27:43.417079 20299 net.cpp:140] Setting up loss_clean
…
I1006 11:27:43.417909 20299 solver.cpp:164] Creating test net (#0) specified by net file: models/cifar10_clean_trainval.prototxt
I1006 11:27:43.417948 20299 net.cpp:307] The NetState phase (1) differed from the phase (0) specified by a rule in layer cifar
I1006 11:27:43.418180 20299 net.cpp:46] Initializing net from parameters: 
name: "cifar10_clean"
state {
  phase: TEST
}
layer {
  name: "cifar"
  type: "Data"
  top: "data"
  top: "label_clean"
  include {
    phase: TEST
  }
  transform_param {
    mean_file: "external/exp/db/cifar10/cifar10_mean.binaryproto"
  }
  data_param {
    source: "external/exp/db/cifar10/test"
    batch_size: 100
    backend: LMDB
  }
}
layer {
  name: "conv1"
  type: "Convolution"
  bottom: "data"
  top: "conv1"
  param {
    lr_mult: 1
  }
  param {
    lr_mult: 2
  }
  convolution_param {
    num_output: 32
    pad: 2
    kernel_size: 5
    stride: 1
    weight_filler {
      type: "gaussian"
      std: 0.0001
    }
    bias_filler {
      type: "constant"
    }
  }
}
layer {
  name: "pool1"
  type: "Pooling"
  bottom: "conv1"
  top: "pool1"
  pooling_param {
    pool: MAX
    kernel_size: 3
    stride: 2
  }
}
layer {
  name: "relu1"
  type: "ReLU"
  bottom: "pool1"
  top: "pool1"
}
layer {
  name: "conv2"
  type: "Convolution"
  bottom: "pool1"
  top: "conv2"
  param {
    lr_mult: 1
  }
  param {
    lr_mult: 2
  }
  convolution_param {
    num_output: 32
    pad: 2
    kernel_size: 5
    stride: 1
    weight_filler {
      type: "gaussian"
      std: 0.01
    }
    bias_filler {
      type: "constant"
    }
  }
}
layer {
  name: "relu2"
  type: "ReLU"
  bottom: "conv2"
  top: "conv2"
}
layer {
  name: "pool2"
  type: "Pooling"
  bottom: "conv2"
  top: "pool2"
  pooling_param {
    pool: AVE
    kernel_size: 3
    stride: 2
  }
}
layer {
  name: "conv3"
  type: "Convolution"
  bottom: "pool2"
  top: "conv3"
  param {
    lr_mult: 1
  }
  param {
    lr_mult: 2
  }
  convolution_param {
    num_output: 64
    pad: 2
    kernel_size: 5
    stride: 1
    weight_filler {
      type: "gaussian"
      std: 0.01
    }
    bias_filler {
      type: "constant"
    }
  }
}
layer {
  name: "relu3"
  type: "ReLU"
  bottom: "conv3"
  top: "conv3"
}
layer {
  name: "pool3"
  type: "Pooling"
  bottom: "conv3"
  top: "pool3"
  pooling_param {
    pool: AVE
    kernel_size: 3
    stride: 2
  }
}
layer {
  name: "ip1"
  type: "InnerProduct"
  bottom: "pool3"
  top: "ip1"
  param {
    lr_mult: 1
  }
  param {
    lr_mult: 2
  }
  inner_product_param {
    num_output: 64
    weight_filler {
      type: "gaussian"
      std: 0.1
    }
    bias_filler {
      type: "constant"
    }
  }
}
layer {
  name: "ip2"
  type: "InnerProduct"
  bottom: "ip1"
  top: "ip2"
  param {
    lr_mult: 1
  }
  param {
    lr_mult: 2
  }
  inner_product_param {
    num_output: 10
    weight_filler {
      type: "gaussian"
      std: 0.1
    }
    bias_filler {
      type: "constant"
    }
  }
}
layer {
  name: "accuracy"
  type: "Accuracy"
  bottom: "ip2"
  bottom: "label_clean"
  top: "accuracy"
  include {
    phase: TEST
  }
}
layer {
  name: "loss_clean"
  type: "SoftmaxWithLoss"
  bottom: "ip2"
  bottom: "label_clean"
  top: "loss_clean"
  loss_param {
    ignore_label: -1
  }
}
I1006 11:27:43.418292 20299 layer_factory.hpp:74] Creating layer cifar
I1006 11:27:43.418315 20299 net.cpp:110] Creating Layer cifar
I1006 11:27:43.418328 20299 net.cpp:388] cifar -> data
I1006 11:27:43.418340 20299 net.cpp:388] cifar -> label_clean
I1006 11:27:43.418349 20299 net.cpp:140] Setting up cifar
I1006 11:27:43.418356 20299 data_transformer.cpp:22] Loading mean file from: external/exp/db/cifar10/cifar10_mean.binaryproto
I1006 11:27:43.418467 20299 db_lmdb.cpp:22] Opened lmdb external/exp/db/cifar10/test
I1006 11:27:43.418489 20299 data_layer.cpp:55] Skipping first 0 data points.
I1006 11:27:43.418505 20299 data_layer.cpp:100] output data size: 100,3,32,32
I1006 11:27:43.418560 20299 net.cpp:147] Top shape: 100 3 32 32 (307200)
I1006 11:27:43.418571 20299 net.cpp:147] Top shape: 100 (100)
I1006 11:27:43.418576 20299 layer_factory.hpp:74] Creating layer label_clean_cifar_1_split
I1006 11:27:43.418586 20299 net.cpp:110] Creating Layer label_clean_cifar_1_split
I1006 11:27:43.418591 20299 net.cpp:430] label_clean_cifar_1_split <- label_clean
I1006 11:27:43.418598 20299 net.cpp:388] label_clean_cifar_1_split -> label_clean_cifar_1_split_0
I1006 11:27:43.418607 20299 net.cpp:388] label_clean_cifar_1_split -> label_clean_cifar_1_split_1
I1006 11:27:43.418614 20299 net.cpp:140] Setting up label_clean_cifar_1_split
I1006 11:27:43.418623 20299 net.cpp:147] Top shape: 100 (100)
I1006 11:27:43.418642 20299 net.cpp:147] Top shape: 100 (100)
I1006 11:27:43.418647 20299 layer_factory.hpp:74] Creating layer conv1
I1006 11:27:43.418663 20299 net.cpp:110] Creating Layer conv1
I1006 11:27:43.418669 20299 net.cpp:430] conv1 <- data
I1006 11:27:43.418678 20299 net.cpp:388] conv1 -> conv1
I1006 11:27:43.418685 20299 net.cpp:140] Setting up conv1
I1006 11:27:43.419400 20299 net.cpp:147] Top shape: 100 32 32 32 (3276800)
I1006 11:27:43.419417 20299 layer_factory.hpp:74] Creating layer pool1
I1006 11:27:43.419425 20299 net.cpp:110] Creating Layer pool1
I1006 11:27:43.419440 20299 net.cpp:430] pool1 <- conv1
I1006 11:27:43.419445 20299 net.cpp:388] pool1 -> pool1
I1006 11:27:43.419453 20299 net.cpp:140] Setting up pool1
I1006 11:27:43.419705 20299 net.cpp:147] Top shape: 100 32 16 16 (819200)
I1006 11:27:43.419718 20299 layer_factory.hpp:74] Creating layer relu1
I1006 11:27:43.419724 20299 net.cpp:110] Creating Layer relu1
I1006 11:27:43.419728 20299 net.cpp:430] relu1 <- pool1
I1006 11:27:43.419737 20299 net.cpp:377] relu1 -> pool1 (in-place)
I1006 11:27:43.419744 20299 net.cpp:140] Setting up relu1
I1006 11:27:43.419901 20299 net.cpp:147] Top shape: 100 32 16 16 (819200)
I1006 11:27:43.419910 20299 layer_factory.hpp:74] Creating layer conv2
I1006 11:27:43.419919 20299 net.cpp:110] Creating Layer conv2
I1006 11:27:43.419922 20299 net.cpp:430] conv2 <- pool1
I1006 11:27:43.419929 20299 net.cpp:388] conv2 -> conv2
I1006 11:27:43.419936 20299 net.cpp:140] Setting up conv2
I1006 11:27:43.421103 20299 net.cpp:147] Top shape: 100 32 16 16 (819200)
I1006 11:27:43.421128 20299 layer_factory.hpp:74] Creating layer relu2
I1006 11:27:43.421136 20299 net.cpp:110] Creating Layer relu2
I1006 11:27:43.421141 20299 net.cpp:430] relu2 <- conv2
I1006 11:27:43.421149 20299 net.cpp:377] relu2 -> conv2 (in-place)
I1006 11:27:43.421155 20299 net.cpp:140] Setting up relu2
I1006 11:27:43.421370 20299 net.cpp:147] Top shape: 100 32 16 16 (819200)
I1006 11:27:43.421382 20299 layer_factory.hpp:74] Creating layer pool2
I1006 11:27:43.421391 20299 net.cpp:110] Creating Layer pool2
I1006 11:27:43.421396 20299 net.cpp:430] pool2 <- conv2
I1006 11:27:43.421403 20299 net.cpp:388] pool2 -> pool2
I1006 11:27:43.421411 20299 net.cpp:140] Setting up pool2
I1006 11:27:43.421782 20299 net.cpp:147] Top shape: 100 32 8 8 (204800)
I1006 11:27:43.421795 20299 layer_factory.hpp:74] Creating layer conv3
I1006 11:27:43.421808 20299 net.cpp:110] Creating Layer conv3
I1006 11:27:43.421813 20299 net.cpp:430] conv3 <- pool2
I1006 11:27:43.421823 20299 net.cpp:388] conv3 -> conv3
I1006 11:27:43.421833 20299 net.cpp:140] Setting up conv3
I1006 11:27:43.423491 20299 net.cpp:147] Top shape: 100 64 8 8 (409600)
I1006 11:27:43.423512 20299 layer_factory.hpp:74] Creating layer relu3
I1006 11:27:43.423521 20299 net.cpp:110] Creating Layer relu3
I1006 11:27:43.423527 20299 net.cpp:430] relu3 <- conv3
I1006 11:27:43.423535 20299 net.cpp:377] relu3 -> conv3 (in-place)
I1006 11:27:43.423543 20299 net.cpp:140] Setting up relu3
I1006 11:27:43.423769 20299 net.cpp:147] Top shape: 100 64 8 8 (409600)
I1006 11:27:43.423780 20299 layer_factory.hpp:74] Creating layer pool3
I1006 11:27:43.423791 20299 net.cpp:110] Creating Layer pool3
I1006 11:27:43.423796 20299 net.cpp:430] pool3 <- conv3
I1006 11:27:43.423804 20299 net.cpp:388] pool3 -> pool3
I1006 11:27:43.423810 20299 net.cpp:140] Setting up pool3
I1006 11:27:43.424139 20299 net.cpp:147] Top shape: 100 64 4 4 (102400)
I1006 11:27:43.424151 20299 layer_factory.hpp:74] Creating layer ip1
I1006 11:27:43.424161 20299 net.cpp:110] Creating Layer ip1
I1006 11:27:43.424166 20299 net.cpp:430] ip1 <- pool3
I1006 11:27:43.424176 20299 net.cpp:388] ip1 -> ip1
I1006 11:27:43.424185 20299 net.cpp:140] Setting up ip1
I1006 11:27:43.425205 20299 net.cpp:147] Top shape: 100 64 (6400)
I1006 11:27:43.425220 20299 layer_factory.hpp:74] Creating layer ip2
I1006 11:27:43.425230 20299 net.cpp:110] Creating Layer ip2
I1006 11:27:43.425236 20299 net.cpp:430] ip2 <- ip1
I1006 11:27:43.425246 20299 net.cpp:388] ip2 -> ip2
I1006 11:27:43.425253 20299 net.cpp:140] Setting up ip2
I1006 11:27:43.425289 20299 net.cpp:147] Top shape: 100 10 (1000)
I1006 11:27:43.425303 20299 layer_factory.hpp:74] Creating layer ip2_ip2_0_split
I1006 11:27:43.425310 20299 net.cpp:110] Creating Layer ip2_ip2_0_split
I1006 11:27:43.425315 20299 net.cpp:430] ip2_ip2_0_split <- ip2
I1006 11:27:43.425321 20299 net.cpp:388] ip2_ip2_0_split -> ip2_ip2_0_split_0
I1006 11:27:43.425328 20299 net.cpp:388] ip2_ip2_0_split -> ip2_ip2_0_split_1
I1006 11:27:43.425335 20299 net.cpp:140] Setting up ip2_ip2_0_split
I1006 11:27:43.425343 20299 net.cpp:147] Top shape: 100 10 (1000)
I1006 11:27:43.425348 20299 net.cpp:147] Top shape: 100 10 (1000)
I1006 11:27:43.425353 20299 layer_factory.hpp:74] Creating layer accuracy
I1006 11:27:43.425360 20299 net.cpp:110] Creating Layer accuracy
I1006 11:27:43.425365 20299 net.cpp:430] accuracy <- ip2_ip2_0_split_0
I1006 11:27:43.425371 20299 net.cpp:430] accuracy <- label_clean_cifar_1_split_0
I1006 11:27:43.425377 20299 net.cpp:388] accuracy -> accuracy
I1006 11:27:43.425384 20299 net.cpp:140] Setting up accuracy
…
