…
I1006 11:29:07.707139 26389 net.cpp:307] The NetState phase (0) differed from the phase (1) specified by a rule in layer accuracy
I1006 11:29:07.707273 26389 net.cpp:46] Initializing net from parameters: 
name: "cifar10_noisy_gt"
state {
  phase: TRAIN
}
layer {
  name: "cifar"
  type: "Data"
  top: "data"
  top: "label"
  include {
    phase: TRAIN
  }
  transform_param {
    mean_file: "external/exp/db/cifar10/cifar10_mean.binaryproto"
  }
  data_param {
    source: "external/exp/db/cifar10/mixed_train"
    batch_size: 100
    backend: LMDB
  }
}
layer {
  name: "conv1"
  type: "Convolution"
  bottom: "data"
  top: "conv1"
  param {
    lr_mult: 1
  }
  param {
    lr_mult: 2
  }
  convolution_param {
    num_output: 32
    pad: 2
    kernel_size: 5
    stride: 1
    weight_filler {
      type: "gaussian"
      std: 0.0001
    }
    bias_filler {
      type: "constant"
    }
  }
}
layer {
  name: "pool1"
  type: "Pooling"
  bottom: "conv1"
  top: "pool1"
  pooling_param {
    pool: MAX
    kernel_size: 3
    stride: 2
  }
}
layer {
  name: "relu1"
  type: "ReLU"
  bottom: "pool1"
  top: "pool1"
}
layer {
  name: "conv2"
  type: "Convolution"
  bottom: "pool1"
  top: "conv2"
  param {
    lr_mult: 1
  }
  param {
    lr_mult: 2
  }
  convolution_param {
    num_output: 32
    pad: 2
    kernel_size: 5
    stride: 1
    weight_filler {
      type: "gaussian"
      std: 0.01
    }
    bias_filler {
      type: "constant"
    }
  }
}
layer {
  name: "relu2"
  type: "ReLU"
  bottom: "conv2"
  top: "conv2"
}
layer {
  name: "pool2"
  type: "Pooling"
  bottom: "conv2"
  top: "pool2"
  pooling_param {
    pool: AVE
    kernel_size: 3
    stride: 2
  }
}
layer {
  name: "conv3"
  type: "Convolution"
  bottom: "pool2"
  top: "conv3"
  param {
    lr_mult: 1
  }
  param {
    lr_mult: 2
  }
  convolution_param {
    num_output: 64
    pad: 2
    kernel_size: 5
    stride: 1
    weight_filler {
      type: "gaussian"
      std: 0.01
    }
    bias_filler {
      type: "constant"
    }
  }
}
layer {
  name: "relu3"
  type: "ReLU"
  bottom: "conv3"
  top: "conv3"
}
layer {
  name: "pool3"
  type: "Pooling"
  bottom: "conv3"
  top: "pool3"
  pooling_param {
    pool: AVE
    kernel_size: 3
    stride: 2
  }
}
layer {
  name: "ip1"
  type: "InnerProduct"
  bottom: "pool3"
  top: "ip1"
  param {
    lr_mult: 1
  }
  param {
    lr_mult: 2
  }
  inner_product_param {
    num_output: 64
    weight_filler {
      type: "gaussian"
      std: 0.1
    }
    bias_filler {
      type: "constant"
    }
  }
}
layer {
  name: "ip2"
  type: "InnerProduct"
  bottom: "ip1"
  top: "ip2"
  param {
    lr_mult: 1
  }
  param {
    lr_mult: 2
  }
  inner_product_param {
    num_output: 10
    weight_filler {
      type: "gaussian"
      std: 0.1
    }
    bias_filler {
      type: "constant"
    }
  }
}
layer {
  name: "loss"
  type: "SoftmaxWithLoss"
  bottom: "ip2"
  bottom: "label"
  top: "loss"
}
I1006 11:29:07.707329 26389 layer_factory.hpp:74] Creating layer cifar
I1006 11:29:07.707340 26389 net.cpp:110] Creating Layer cifar
I1006 11:29:07.707345 26389 net.cpp:388] cifar -> data
I1006 11:29:07.707376 26389 net.cpp:388] cifar -> label
I1006 11:29:07.707387 26389 net.cpp:140] Setting up cifar
I1006 11:29:07.707393 26389 data_transformer.cpp:22] Loading mean file from: external/exp/db/cifar10/cifar10_mean.binaryproto
I1006 11:29:07.707518 26389 db_lmdb.cpp:22] Opened lmdb external/exp/db/cifar10/mixed_train
I1006 11:29:07.707553 26389 data_layer.cpp:55] Skipping first 0 data points.
I1006 11:29:07.707569 26389 data_layer.cpp:100] output data size: 100,3,32,32
I1006 11:29:07.707638 26389 net.cpp:147] Top shape: 100 3 32 32 (307200)
I1006 11:29:07.707644 26389 net.cpp:147] Top shape: 100 (100)
I1006 11:29:07.707661 26389 layer_factory.hpp:74] Creating layer conv1
I1006 11:29:07.707670 26389 net.cpp:110] Creating Layer conv1
I1006 11:29:07.707674 26389 net.cpp:430] conv1 <- data
I1006 11:29:07.707684 26389 net.cpp:388] conv1 -> conv1
I1006 11:29:07.707705 26389 net.cpp:140] Setting up conv1
I1006 11:29:07.783834 26389 net.cpp:147] Top shape: 100 32 32 32 (3276800)
I1006 11:29:07.783874 26389 layer_factory.hpp:74] Creating layer pool1
I1006 11:29:07.783888 26389 net.cpp:110] Creating Layer pool1
I1006 11:29:07.783892 26389 net.cpp:430] pool1 <- conv1
I1006 11:29:07.783900 26389 net.cpp:388] pool1 -> pool1
I1006 11:29:07.783920 26389 net.cpp:140] Setting up pool1
I1006 11:29:07.784054 26389 net.cpp:147] Top shape: 100 32 16 16 (819200)
I1006 11:29:07.784062 26389 layer_factory.hpp:74] Creating layer relu1
I1006 11:29:07.784067 26389 net.cpp:110] Creating Layer relu1
I1006 11:29:07.784070 26389 net.cpp:430] relu1 <- pool1
I1006 11:29:07.784073 26389 net.cpp:377] relu1 -> pool1 (in-place)
I1006 11:29:07.784080 26389 net.cpp:140] Setting up relu1
I1006 11:29:07.784296 26389 net.cpp:147] Top shape: 100 32 16 16 (819200)
I1006 11:29:07.784303 26389 layer_factory.hpp:74] Creating layer conv2
I1006 11:29:07.784313 26389 net.cpp:110] Creating Layer conv2
I1006 11:29:07.784317 26389 net.cpp:430] conv2 <- pool1
I1006 11:29:07.784322 26389 net.cpp:388] conv2 -> conv2
I1006 11:29:07.784327 26389 net.cpp:140] Setting up conv2
I1006 11:29:07.785094 26389 net.cpp:147] Top shape: 100 32 16 16 (819200)
I1006 11:29:07.785105 26389 layer_factory.hpp:74] Creating layer relu2
I1006 11:29:07.785111 26389 net.cpp:110] Creating Layer relu2
I1006 11:29:07.785114 26389 net.cpp:430] relu2 <- conv2
I1006 11:29:07.785117 26389 net.cpp:377] relu2 -> conv2 (in-place)
I1006 11:29:07.785122 26389 net.cpp:140] Setting up relu2
I1006 11:29:07.785257 26389 net.cpp:147] Top shape: 100 32 16 16 (819200)
I1006 11:29:07.785264 26389 layer_factory.hpp:74] Creating layer pool2
I1006 11:29:07.785270 26389 net.cpp:110] Creating Layer pool2
I1006 11:29:07.785272 26389 net.cpp:430] pool2 <- conv2
I1006 11:29:07.785276 26389 net.cpp:388] pool2 -> pool2
I1006 11:29:07.785281 26389 net.cpp:140] Setting up pool2
I1006 11:29:07.785531 26389 net.cpp:147] Top shape: 100 32 8 8 (204800)
I1006 11:29:07.785537 26389 layer_factory.hpp:74] Creating layer conv3
I1006 11:29:07.785543 26389 net.cpp:110] Creating Layer conv3
I1006 11:29:07.785547 26389 net.cpp:430] conv3 <- pool2
I1006 11:29:07.785552 26389 net.cpp:388] conv3 -> conv3
I1006 11:29:07.785557 26389 net.cpp:140] Setting up conv3
I1006 11:29:07.786533 26389 net.cpp:147] Top shape: 100 64 8 8 (409600)
I1006 11:29:07.786545 26389 layer_factory.hpp:74] Creating layer relu3
I1006 11:29:07.786552 26389 net.cpp:110] Creating Layer relu3
I1006 11:29:07.786556 26389 net.cpp:430] relu3 <- conv3
I1006 11:29:07.786559 26389 net.cpp:377] relu3 -> conv3 (in-place)
I1006 11:29:07.786563 26389 net.cpp:140] Setting up relu3
I1006 11:29:07.786700 26389 net.cpp:147] Top shape: 100 64 8 8 (409600)
I1006 11:29:07.786705 26389 layer_factory.hpp:74] Creating layer pool3
I1006 11:29:07.786710 26389 net.cpp:110] Creating Layer pool3
I1006 11:29:07.786713 26389 net.cpp:430] pool3 <- conv3
I1006 11:29:07.786717 26389 net.cpp:388] pool3 -> pool3
I1006 11:29:07.786722 26389 net.cpp:140] Setting up pool3
I1006 11:29:07.786936 26389 net.cpp:147] Top shape: 100 64 4 4 (102400)
I1006 11:29:07.786943 26389 layer_factory.hpp:74] Creating layer ip1
I1006 11:29:07.786952 26389 net.cpp:110] Creating Layer ip1
I1006 11:29:07.786954 26389 net.cpp:430] ip1 <- pool3
I1006 11:29:07.786958 26389 net.cpp:388] ip1 -> ip1
I1006 11:29:07.786967 26389 net.cpp:140] Setting up ip1
I1006 11:29:07.787576 26389 net.cpp:147] Top shape: 100 64 (6400)
I1006 11:29:07.787585 26389 layer_factory.hpp:74] Creating layer ip2
I1006 11:29:07.787591 26389 net.cpp:110] Creating Layer ip2
I1006 11:29:07.787595 26389 net.cpp:430] ip2 <- ip1
I1006 11:29:07.787598 26389 net.cpp:388] ip2 -> ip2
I1006 11:29:07.787603 26389 net.cpp:140] Setting up ip2
I1006 11:29:07.787617 26389 net.cpp:147] Top shape: 100 10 (1000)
I1006 11:29:07.787636 26389 layer_factory.hpp:74] Creating layer loss
I1006 11:29:07.787642 26389 net.cpp:110] Creating Layer loss
I1006 11:29:07.787645 26389 net.cpp:430] loss <- ip2
I1006 11:29:07.787648 26389 net.cpp:430] loss <- label
I1006 11:29:07.787655 26389 net.cpp:388] loss -> loss
I1006 11:29:07.787660 26389 net.cpp:140] Setting up loss
I1006 11:29:07.787665 26389 layer_factory.hpp:74] Creating layer loss
…
I1006 11:29:07.788177 26389 solver.cpp:164] Creating test net (#0) specified by net file: models/cifar10_noisy_gt_ft_clean_trainval.prototxt
I1006 11:29:07.788199 26389 net.cpp:307] The NetState phase (1) differed from the phase (0) specified by a rule in layer cifar
I1006 11:29:07.788372 26389 net.cpp:46] Initializing net from parameters: 
name: "cifar10_noisy_gt"
state {
  phase: TEST
}
layer {
  name: "cifar"
  type: "Data"
  top: "data"
  top: "label"
  include {
    phase: TEST
  }
  transform_param {
    mean_file: "external/exp/db/cifar10/cifar10_mean.binaryproto"
  }
  data_param {
    source: "external/exp/db/cifar10/test"
    batch_size: 100
    backend: LMDB
  }
}
layer {
  name: "conv1"
  type: "Convolution"
  bottom: "data"
  top: "conv1"
  param {
    lr_mult: 1
  }
  param {
    lr_mult: 2
  }
  convolution_param {
    num_output: 32
    pad: 2
    kernel_size: 5
    stride: 1
    weight_filler {
      type: "gaussian"
      std: 0.0001
    }
    bias_filler {
      type: "constant"
    }
  }
}
layer {
  name: "pool1"
  type: "Pooling"
  bottom: "conv1"
  top: "pool1"
  pooling_param {
    pool: MAX
    kernel_size: 3
    stride: 2
  }
}
layer {
  name: "relu1"
  type: "ReLU"
  bottom: "pool1"
  top: "pool1"
}
layer {
  name: "conv2"
  type: "Convolution"
  bottom: "pool1"
  top: "conv2"
  param {
    lr_mult: 1
  }
  param {
    lr_mult: 2
  }
  convolution_param {
    num_output: 32
    pad: 2
    kernel_size: 5
    stride: 1
    weight_filler {
      type: "gaussian"
      std: 0.01
    }
    bias_filler {
      type: "constant"
    }
  }
}
layer {
  name: "relu2"
  type: "ReLU"
  bottom: "conv2"
  top: "conv2"
}
layer {
  name: "pool2"
  type: "Pooling"
  bottom: "conv2"
  top: "pool2"
  pooling_param {
    pool: AVE
    kernel_size: 3
    stride: 2
  }
}
layer {
  name: "conv3"
  type: "Convolution"
  bottom: "pool2"
  top: "conv3"
  param {
    lr_mult: 1
  }
  param {
    lr_mult: 2
  }
  convolution_param {
    num_output: 64
    pad: 2
    kernel_size: 5
    stride: 1
    weight_filler {
      type: "gaussian"
      std: 0.01
    }
    bias_filler {
      type: "constant"
    }
  }
}
layer {
  name: "relu3"
  type: "ReLU"
  bottom: "conv3"
  top: "conv3"
}
layer {
  name: "pool3"
  type: "Pooling"
  bottom: "conv3"
  top: "pool3"
  pooling_param {
    pool: AVE
    kernel_size: 3
    stride: 2
  }
}
layer {
  name: "ip1"
  type: "InnerProduct"
  bottom: "pool3"
  top: "ip1"
  param {
    lr_mult: 1
  }
  param {
    lr_mult: 2
  }
  inner_product_param {
    num_output: 64
    weight_filler {
      type: "gaussian"
      std: 0.1
    }
    bias_filler {
      type: "constant"
    }
  }
}
layer {
  name: "ip2"
  type: "InnerProduct"
  bottom: "ip1"
  top: "ip2"
  param {
    lr_mult: 1
  }
  param {
    lr_mult: 2
  }
  inner_product_param {
    num_output: 10
    weight_filler {
      type: "gaussian"
      std: 0.1
    }
    bias_filler {
      type: "constant"
    }
  }
}
layer {
  name: "accuracy"
  type: "Accuracy"
  bottom: "ip2"
  bottom: "label"
  top: "accuracy"
  include {
    phase: TEST
  }
}
layer {
  name: "loss"
  type: "SoftmaxWithLoss"
  bottom: "ip2"
  bottom: "label"
  top: "loss"
}
I1006 11:29:07.788431 26389 layer_factory.hpp:74] Creating layer cifar
I1006 11:29:07.788439 26389 net.cpp:110] Creating Layer cifar
I1006 11:29:07.788444 26389 net.cpp:388] cifar -> data
I1006 11:29:07.788450 26389 net.cpp:388] cifar -> label
I1006 11:29:07.788455 26389 net.cpp:140] Setting up cifar
I1006 11:29:07.788458 26389 data_transformer.cpp:22] Loading mean file from: external/exp/db/cifar10/cifar10_mean.binaryproto
I1006 11:29:07.788537 26389 db_lmdb.cpp:22] Opened lmdb external/exp/db/cifar10/test
I1006 11:29:07.788554 26389 data_layer.cpp:55] Skipping first 0 data points.
I1006 11:29:07.788566 26389 data_layer.cpp:100] output data size: 100,3,32,32
I1006 11:29:07.788607 26389 net.cpp:147] Top shape: 100 3 32 32 (307200)
I1006 11:29:07.788614 26389 net.cpp:147] Top shape: 100 (100)
I1006 11:29:07.788617 26389 layer_factory.hpp:74] Creating layer label_cifar_1_split
I1006 11:29:07.788624 26389 net.cpp:110] Creating Layer label_cifar_1_split
I1006 11:29:07.788638 26389 net.cpp:430] label_cifar_1_split <- label
I1006 11:29:07.788645 26389 net.cpp:388] label_cifar_1_split -> label_cifar_1_split_0
I1006 11:29:07.788650 26389 net.cpp:388] label_cifar_1_split -> label_cifar_1_split_1
I1006 11:29:07.788666 26389 net.cpp:140] Setting up label_cifar_1_split
I1006 11:29:07.788682 26389 net.cpp:147] Top shape: 100 (100)
I1006 11:29:07.788686 26389 net.cpp:147] Top shape: 100 (100)
I1006 11:29:07.788691 26389 layer_factory.hpp:74] Creating layer conv1
I1006 11:29:07.788697 26389 net.cpp:110] Creating Layer conv1
I1006 11:29:07.788699 26389 net.cpp:430] conv1 <- data
I1006 11:29:07.788704 26389 net.cpp:388] conv1 -> conv1
I1006 11:29:07.788710 26389 net.cpp:140] Setting up conv1
I1006 11:29:07.789293 26389 net.cpp:147] Top shape: 100 32 32 32 (3276800)
I1006 11:29:07.789304 26389 layer_factory.hpp:74] Creating layer pool1
I1006 11:29:07.789309 26389 net.cpp:110] Creating Layer pool1
I1006 11:29:07.789312 26389 net.cpp:430] pool1 <- conv1
I1006 11:29:07.789319 26389 net.cpp:388] pool1 -> pool1
I1006 11:29:07.789324 26389 net.cpp:140] Setting up pool1
I1006 11:29:07.789541 26389 net.cpp:147] Top shape: 100 32 16 16 (819200)
I1006 11:29:07.789548 26389 layer_factory.hpp:74] Creating layer relu1
I1006 11:29:07.789554 26389 net.cpp:110] Creating Layer relu1
I1006 11:29:07.789566 26389 net.cpp:430] relu1 <- pool1
I1006 11:29:07.789572 26389 net.cpp:377] relu1 -> pool1 (in-place)
I1006 11:29:07.789577 26389 net.cpp:140] Setting up relu1
I1006 11:29:07.789717 26389 net.cpp:147] Top shape: 100 32 16 16 (819200)
I1006 11:29:07.789724 26389 layer_factory.hpp:74] Creating layer conv2
I1006 11:29:07.789729 26389 net.cpp:110] Creating Layer conv2
I1006 11:29:07.789732 26389 net.cpp:430] conv2 <- pool1
I1006 11:29:07.789739 26389 net.cpp:388] conv2 -> conv2
I1006 11:29:07.789748 26389 net.cpp:140] Setting up conv2
I1006 11:29:07.790513 26389 net.cpp:147] Top shape: 100 32 16 16 (819200)
I1006 11:29:07.790524 26389 layer_factory.hpp:74] Creating layer relu2
I1006 11:29:07.790529 26389 net.cpp:110] Creating Layer relu2
I1006 11:29:07.790532 26389 net.cpp:430] relu2 <- conv2
I1006 11:29:07.790536 26389 net.cpp:377] relu2 -> conv2 (in-place)
I1006 11:29:07.790540 26389 net.cpp:140] Setting up relu2
I1006 11:29:07.790655 26389 net.cpp:147] Top shape: 100 32 16 16 (819200)
I1006 11:29:07.790664 26389 layer_factory.hpp:74] Creating layer pool2
I1006 11:29:07.790669 26389 net.cpp:110] Creating Layer pool2
I1006 11:29:07.790671 26389 net.cpp:430] pool2 <- conv2
I1006 11:29:07.790676 26389 net.cpp:388] pool2 -> pool2
I1006 11:29:07.790681 26389 net.cpp:140] Setting up pool2
I1006 11:29:07.790874 26389 net.cpp:147] Top shape: 100 32 8 8 (204800)
I1006 11:29:07.790880 26389 layer_factory.hpp:74] Creating layer conv3
I1006 11:29:07.790886 26389 net.cpp:110] Creating Layer conv3
I1006 11:29:07.790889 26389 net.cpp:430] conv3 <- pool2
I1006 11:29:07.790895 26389 net.cpp:388] conv3 -> conv3
I1006 11:29:07.790901 26389 net.cpp:140] Setting up conv3
I1006 11:29:07.791919 26389 net.cpp:147] Top shape: 100 64 8 8 (409600)
I1006 11:29:07.791932 26389 layer_factory.hpp:74] Creating layer relu3
I1006 11:29:07.791937 26389 net.cpp:110] Creating Layer relu3
I1006 11:29:07.791940 26389 net.cpp:430] relu3 <- conv3
I1006 11:29:07.791945 26389 net.cpp:377] relu3 -> conv3 (in-place)
I1006 11:29:07.791950 26389 net.cpp:140] Setting up relu3
I1006 11:29:07.792075 26389 net.cpp:147] Top shape: 100 64 8 8 (409600)
I1006 11:29:07.792081 26389 layer_factory.hpp:74] Creating layer pool3
I1006 11:29:07.792085 26389 net.cpp:110] Creating Layer pool3
I1006 11:29:07.792088 26389 net.cpp:430] pool3 <- conv3
I1006 11:29:07.792093 26389 net.cpp:388] pool3 -> pool3
I1006 11:29:07.792098 26389 net.cpp:140] Setting up pool3
I1006 11:29:07.792290 26389 net.cpp:147] Top shape: 100 64 4 4 (102400)
I1006 11:29:07.792299 26389 layer_factory.hpp:74] Creating layer ip1
I1006 11:29:07.792304 26389 net.cpp:110] Creating Layer ip1
I1006 11:29:07.792306 26389 net.cpp:430] ip1 <- pool3
I1006 11:29:07.792312 26389 net.cpp:388] ip1 -> ip1
I1006 11:29:07.792317 26389 net.cpp:140] Setting up ip1
I1006 11:29:07.792915 26389 net.cpp:147] Top shape: 100 64 (6400)
I1006 11:29:07.792923 26389 layer_factory.hpp:74] Creating layer ip2
I1006 11:29:07.792928 26389 net.cpp:110] Creating Layer ip2
I1006 11:29:07.792932 26389 net.cpp:430] ip2 <- ip1
I1006 11:29:07.792937 26389 net.cpp:388] ip2 -> ip2
I1006 11:29:07.792943 26389 net.cpp:140] Setting up ip2
I1006 11:29:07.792958 26389 net.cpp:147] Top shape: 100 10 (1000)
I1006 11:29:07.792965 26389 layer_factory.hpp:74] Creating layer ip2_ip2_0_split
I1006 11:29:07.792970 26389 net.cpp:110] Creating Layer ip2_ip2_0_split
I1006 11:29:07.792973 26389 net.cpp:430] ip2_ip2_0_split <- ip2
I1006 11:29:07.792976 26389 net.cpp:388] ip2_ip2_0_split -> ip2_ip2_0_split_0
I1006 11:29:07.792981 26389 net.cpp:388] ip2_ip2_0_split -> ip2_ip2_0_split_1
I1006 11:29:07.792986 26389 net.cpp:140] Setting up ip2_ip2_0_split
I1006 11:29:07.792991 26389 net.cpp:147] Top shape: 100 10 (1000)
I1006 11:29:07.792994 26389 net.cpp:147] Top shape: 100 10 (1000)
I1006 11:29:07.792997 26389 layer_factory.hpp:74] Creating layer accuracy
I1006 11:29:07.793002 26389 net.cpp:110] Creating Layer accuracy
I1006 11:29:07.793004 26389 net.cpp:430] accuracy <- ip2_ip2_0_split_0
I1006 11:29:07.793009 26389 net.cpp:430] accuracy <- label_cifar_1_split_0
I1006 11:29:07.793012 26389 net.cpp:388] accuracy -> accuracy
I1006 11:29:07.793017 26389 net.cpp:140] Setting up accuracy
…
