…
I1006 11:30:57.815610  1642 net.cpp:307] The NetState phase (0) differed from the phase (1) specified by a rule in layer accuracy
I1006 11:30:57.815745  1642 net.cpp:46] Initializing net from parameters: 
name: "cifar10_ntype"
state {
  phase: TRAIN
}
layer {
  name: "cifar"
  type: "Data"
  top: "data"
  top: "label_ntype"
  include {
    phase: TRAIN
  }
  transform_param {
    mean_file: "external/exp/db/cifar10/cifar10_mean.binaryproto"
  }
  data_param {
    source: "external/exp/db/cifar10/ntype_train"
    batch_size: 100
    backend: LMDB
  }
}
layer {
  name: "conv1"
  type: "Convolution"
  bottom: "data"
  top: "conv1"
  param {
    lr_mult: 1
  }
  param {
    lr_mult: 2
  }
  convolution_param {
    num_output: 32
    pad: 2
    kernel_size: 5
    stride: 1
    weight_filler {
      type: "gaussian"
      std: 0.0001
    }
    bias_filler {
      type: "constant"
    }
  }
}
layer {
  name: "pool1"
  type: "Pooling"
  bottom: "conv1"
  top: "pool1"
  pooling_param {
    pool: MAX
    kernel_size: 3
    stride: 2
  }
}
layer {
  name: "relu1"
  type: "ReLU"
  bottom: "pool1"
  top: "pool1"
}
layer {
  name: "conv2"
  type: "Convolution"
  bottom: "pool1"
  top: "conv2"
  param {
    lr_mult: 1
  }
  param {
    lr_mult: 2
  }
  convolution_param {
    num_output: 32
    pad: 2
    kernel_size: 5
    stride: 1
    weight_filler {
      type: "gaussian"
      std: 0.01
    }
    bias_filler {
      type: "constant"
    }
  }
}
layer {
  name: "relu2"
  type: "ReLU"
  bottom: "conv2"
  top: "conv2"
}
layer {
  name: "pool2"
  type: "Pooling"
  bottom: "conv2"
  top: "pool2"
  pooling_param {
    pool: AVE
    kernel_size: 3
    stride: 2
  }
}
layer {
  name: "conv3"
  type: "Convolution"
  bottom: "pool2"
  top: "conv3"
  param {
    lr_mult: 1
  }
  param {
    lr_mult: 2
  }
  convolution_param {
    num_output: 64
    pad: 2
    kernel_size: 5
    stride: 1
    weight_filler {
      type: "gaussian"
      std: 0.01
    }
    bias_filler {
      type: "constant"
    }
  }
}
layer {
  name: "relu3"
  type: "ReLU"
  bottom: "conv3"
  top: "conv3"
}
layer {
  name: "pool3"
  type: "Pooling"
  bottom: "conv3"
  top: "pool3"
  pooling_param {
    pool: AVE
    kernel_size: 3
    stride: 2
  }
}
layer {
  name: "ip1_ntype"
  type: "InnerProduct"
  bottom: "pool3"
  top: "ip1_ntype"
  param {
    lr_mult: 1
  }
  param {
    lr_mult: 2
  }
  inner_product_param {
    num_output: 64
    weight_filler {
      type: "gaussian"
      std: 0.1
    }
    bias_filler {
      type: "constant"
    }
  }
}
layer {
  name: "ip2_ntype"
  type: "InnerProduct"
  bottom: "ip1_ntype"
  top: "ip2_ntype"
  param {
    lr_mult: 10
  }
  param {
    lr_mult: 20
  }
  inner_product_param {
    num_output: 3
    weight_filler {
      type: "gaussian"
      std: 0.1
    }
    bias_filler {
      type: "constant"
    }
  }
}
layer {
  name: "loss_ntype"
  type: "SoftmaxWithLoss"
  bottom: "ip2_ntype"
  bottom: "label_ntype"
  top: "loss_ntype"
}
I1006 11:30:57.815800  1642 layer_factory.hpp:74] Creating layer cifar
I1006 11:30:57.815824  1642 net.cpp:110] Creating Layer cifar
I1006 11:30:57.815829  1642 net.cpp:388] cifar -> data
I1006 11:30:57.815848  1642 net.cpp:388] cifar -> label_ntype
I1006 11:30:57.815860  1642 net.cpp:140] Setting up cifar
I1006 11:30:57.815865  1642 data_transformer.cpp:22] Loading mean file from: external/exp/db/cifar10/cifar10_mean.binaryproto
I1006 11:30:57.815990  1642 db_lmdb.cpp:22] Opened lmdb external/exp/db/cifar10/ntype_train
I1006 11:30:57.816026  1642 data_layer.cpp:55] Skipping first 0 data points.
I1006 11:30:57.816066  1642 data_layer.cpp:100] output data size: 100,3,32,32
I1006 11:30:57.816157  1642 net.cpp:147] Top shape: 100 3 32 32 (307200)
I1006 11:30:57.816164  1642 net.cpp:147] Top shape: 100 (100)
I1006 11:30:57.816181  1642 layer_factory.hpp:74] Creating layer conv1
I1006 11:30:57.816190  1642 net.cpp:110] Creating Layer conv1
I1006 11:30:57.816195  1642 net.cpp:430] conv1 <- data
I1006 11:30:57.816215  1642 net.cpp:388] conv1 -> conv1
I1006 11:30:57.816223  1642 net.cpp:140] Setting up conv1
I1006 11:30:57.891785  1642 net.cpp:147] Top shape: 100 32 32 32 (3276800)
I1006 11:30:57.891826  1642 layer_factory.hpp:74] Creating layer pool1
I1006 11:30:57.891840  1642 net.cpp:110] Creating Layer pool1
I1006 11:30:57.891844  1642 net.cpp:430] pool1 <- conv1
I1006 11:30:57.891861  1642 net.cpp:388] pool1 -> pool1
I1006 11:30:57.891870  1642 net.cpp:140] Setting up pool1
I1006 11:30:57.891998  1642 net.cpp:147] Top shape: 100 32 16 16 (819200)
I1006 11:30:57.892004  1642 layer_factory.hpp:74] Creating layer relu1
I1006 11:30:57.892011  1642 net.cpp:110] Creating Layer relu1
I1006 11:30:57.892014  1642 net.cpp:430] relu1 <- pool1
I1006 11:30:57.892019  1642 net.cpp:377] relu1 -> pool1 (in-place)
I1006 11:30:57.892025  1642 net.cpp:140] Setting up relu1
I1006 11:30:57.892227  1642 net.cpp:147] Top shape: 100 32 16 16 (819200)
I1006 11:30:57.892235  1642 layer_factory.hpp:74] Creating layer conv2
I1006 11:30:57.892244  1642 net.cpp:110] Creating Layer conv2
I1006 11:30:57.892247  1642 net.cpp:430] conv2 <- pool1
I1006 11:30:57.892252  1642 net.cpp:388] conv2 -> conv2
I1006 11:30:57.892259  1642 net.cpp:140] Setting up conv2
I1006 11:30:57.892995  1642 net.cpp:147] Top shape: 100 32 16 16 (819200)
I1006 11:30:57.893007  1642 layer_factory.hpp:74] Creating layer relu2
I1006 11:30:57.893013  1642 net.cpp:110] Creating Layer relu2
I1006 11:30:57.893017  1642 net.cpp:430] relu2 <- conv2
I1006 11:30:57.893020  1642 net.cpp:377] relu2 -> conv2 (in-place)
I1006 11:30:57.893024  1642 net.cpp:140] Setting up relu2
I1006 11:30:57.893158  1642 net.cpp:147] Top shape: 100 32 16 16 (819200)
I1006 11:30:57.893164  1642 layer_factory.hpp:74] Creating layer pool2
I1006 11:30:57.893172  1642 net.cpp:110] Creating Layer pool2
I1006 11:30:57.893174  1642 net.cpp:430] pool2 <- conv2
I1006 11:30:57.893178  1642 net.cpp:388] pool2 -> pool2
I1006 11:30:57.893182  1642 net.cpp:140] Setting up pool2
I1006 11:30:57.893395  1642 net.cpp:147] Top shape: 100 32 8 8 (204800)
I1006 11:30:57.893403  1642 layer_factory.hpp:74] Creating layer conv3
I1006 11:30:57.893409  1642 net.cpp:110] Creating Layer conv3
I1006 11:30:57.893412  1642 net.cpp:430] conv3 <- pool2
I1006 11:30:57.893417  1642 net.cpp:388] conv3 -> conv3
I1006 11:30:57.893424  1642 net.cpp:140] Setting up conv3
I1006 11:30:57.894392  1642 net.cpp:147] Top shape: 100 64 8 8 (409600)
I1006 11:30:57.894403  1642 layer_factory.hpp:74] Creating layer relu3
I1006 11:30:57.894412  1642 net.cpp:110] Creating Layer relu3
I1006 11:30:57.894414  1642 net.cpp:430] relu3 <- conv3
I1006 11:30:57.894418  1642 net.cpp:377] relu3 -> conv3 (in-place)
I1006 11:30:57.894423  1642 net.cpp:140] Setting up relu3
I1006 11:30:57.894558  1642 net.cpp:147] Top shape: 100 64 8 8 (409600)
I1006 11:30:57.894565  1642 layer_factory.hpp:74] Creating layer pool3
I1006 11:30:57.894570  1642 net.cpp:110] Creating Layer pool3
I1006 11:30:57.894573  1642 net.cpp:430] pool3 <- conv3
I1006 11:30:57.894577  1642 net.cpp:388] pool3 -> pool3
I1006 11:30:57.894582  1642 net.cpp:140] Setting up pool3
I1006 11:30:57.894798  1642 net.cpp:147] Top shape: 100 64 4 4 (102400)
I1006 11:30:57.894804  1642 layer_factory.hpp:74] Creating layer ip1_ntype
I1006 11:30:57.894814  1642 net.cpp:110] Creating Layer ip1_ntype
I1006 11:30:57.894816  1642 net.cpp:430] ip1_ntype <- pool3
I1006 11:30:57.894821  1642 net.cpp:388] ip1_ntype -> ip1_ntype
I1006 11:30:57.894829  1642 net.cpp:140] Setting up ip1_ntype
I1006 11:30:57.895445  1642 net.cpp:147] Top shape: 100 64 (6400)
I1006 11:30:57.895454  1642 layer_factory.hpp:74] Creating layer ip2_ntype
I1006 11:30:57.895460  1642 net.cpp:110] Creating Layer ip2_ntype
I1006 11:30:57.895462  1642 net.cpp:430] ip2_ntype <- ip1_ntype
I1006 11:30:57.895468  1642 net.cpp:388] ip2_ntype -> ip2_ntype
I1006 11:30:57.895473  1642 net.cpp:140] Setting up ip2_ntype
I1006 11:30:57.895483  1642 net.cpp:147] Top shape: 100 3 (300)
I1006 11:30:57.895490  1642 layer_factory.hpp:74] Creating layer loss_ntype
I1006 11:30:57.895509  1642 net.cpp:110] Creating Layer loss_ntype
I1006 11:30:57.895511  1642 net.cpp:430] loss_ntype <- ip2_ntype
I1006 11:30:57.895514  1642 net.cpp:430] loss_ntype <- label_ntype
I1006 11:30:57.895519  1642 net.cpp:388] loss_ntype -> loss_ntype
I1006 11:30:57.895524  1642 net.cpp:140] Setting up loss_ntype
…
I1006 11:30:57.896052  1642 solver.cpp:164] Creating test net (#0) specified by net file: models/cifar10_ntype_trainval.prototxt
I1006 11:30:57.896076  1642 net.cpp:307] The NetState phase (1) differed from the phase (0) specified by a rule in layer cifar
I1006 11:30:57.896204  1642 net.cpp:46] Initializing net from parameters: 
name: "cifar10_ntype"
state {
  phase: TEST
}
layer {
  name: "cifar"
  type: "Data"
  top: "data"
  top: "label_ntype"
  include {
    phase: TEST
  }
  transform_param {
    mean_file: "external/exp/db/cifar10/cifar10_mean.binaryproto"
  }
  data_param {
    source: "external/exp/db/cifar10/ntype_test"
    batch_size: 100
    backend: LMDB
  }
}
layer {
  name: "conv1"
  type: "Convolution"
  bottom: "data"
  top: "conv1"
  param {
    lr_mult: 1
  }
  param {
    lr_mult: 2
  }
  convolution_param {
    num_output: 32
    pad: 2
    kernel_size: 5
    stride: 1
    weight_filler {
      type: "gaussian"
      std: 0.0001
    }
    bias_filler {
      type: "constant"
    }
  }
}
layer {
  name: "pool1"
  type: "Pooling"
  bottom: "conv1"
  top: "pool1"
  pooling_param {
    pool: MAX
    kernel_size: 3
    stride: 2
  }
}
layer {
  name: "relu1"
  type: "ReLU"
  bottom: "pool1"
  top: "pool1"
}
layer {
  name: "conv2"
  type: "Convolution"
  bottom: "pool1"
  top: "conv2"
  param {
    lr_mult: 1
  }
  param {
    lr_mult: 2
  }
  convolution_param {
    num_output: 32
    pad: 2
    kernel_size: 5
    stride: 1
    weight_filler {
      type: "gaussian"
      std: 0.01
    }
    bias_filler {
      type: "constant"
    }
  }
}
layer {
  name: "relu2"
  type: "ReLU"
  bottom: "conv2"
  top: "conv2"
}
layer {
  name: "pool2"
  type: "Pooling"
  bottom: "conv2"
  top: "pool2"
  pooling_param {
    pool: AVE
    kernel_size: 3
    stride: 2
  }
}
layer {
  name: "conv3"
  type: "Convolution"
  bottom: "pool2"
  top: "conv3"
  param {
    lr_mult: 1
  }
  param {
    lr_mult: 2
  }
  convolution_param {
    num_output: 64
    pad: 2
    kernel_size: 5
    stride: 1
    weight_filler {
      type: "gaussian"
      std: 0.01
    }
    bias_filler {
      type: "constant"
    }
  }
}
layer {
  name: "relu3"
  type: "ReLU"
  bottom: "conv3"
  top: "conv3"
}
layer {
  name: "pool3"
  type: "Pooling"
  bottom: "conv3"
  top: "pool3"
  pooling_param {
    pool: AVE
    kernel_size: 3
    stride: 2
  }
}
layer {
  name: "ip1_ntype"
  type: "InnerProduct"
  bottom: "pool3"
  top: "ip1_ntype"
  param {
    lr_mult: 1
  }
  param {
    lr_mult: 2
  }
  inner_product_param {
    num_output: 64
    weight_filler {
      type: "gaussian"
      std: 0.1
    }
    bias_filler {
      type: "constant"
    }
  }
}
layer {
  name: "ip2_ntype"
  type: "InnerProduct"
  bottom: "ip1_ntype"
  top: "ip2_ntype"
  param {
    lr_mult: 10
  }
  param {
    lr_mult: 20
  }
  inner_product_param {
    num_output: 3
    weight_filler {
      type: "gaussian"
      std: 0.1
    }
    bias_filler {
      type: "constant"
    }
  }
}
layer {
  name: "accuracy"
  type: "Accuracy"
  bottom: "ip2_ntype"
  bottom: "label_ntype"
  top: "accuracy"
  include {
    phase: TEST
  }
}
layer {
  name: "loss_ntype"
  type: "SoftmaxWithLoss"
  bottom: "ip2_ntype"
  bottom: "label_ntype"
  top: "loss_ntype"
}
I1006 11:30:57.896265  1642 layer_factory.hpp:74] Creating layer cifar
I1006 11:30:57.896272  1642 net.cpp:110] Creating Layer cifar
I1006 11:30:57.896276  1642 net.cpp:388] cifar -> data
I1006 11:30:57.896283  1642 net.cpp:388] cifar -> label_ntype
I1006 11:30:57.896288  1642 net.cpp:140] Setting up cifar
I1006 11:30:57.896292  1642 data_transformer.cpp:22] Loading mean file from: external/exp/db/cifar10/cifar10_mean.binaryproto
I1006 11:30:57.896369  1642 db_lmdb.cpp:22] Opened lmdb external/exp/db/cifar10/ntype_test
I1006 11:30:57.896384  1642 data_layer.cpp:55] Skipping first 0 data points.
I1006 11:30:57.896394  1642 data_layer.cpp:100] output data size: 100,3,32,32
I1006 11:30:57.896440  1642 net.cpp:147] Top shape: 100 3 32 32 (307200)
I1006 11:30:57.896446  1642 net.cpp:147] Top shape: 100 (100)
I1006 11:30:57.896450  1642 layer_factory.hpp:74] Creating layer label_ntype_cifar_1_split
I1006 11:30:57.896455  1642 net.cpp:110] Creating Layer label_ntype_cifar_1_split
I1006 11:30:57.896469  1642 net.cpp:430] label_ntype_cifar_1_split <- label_ntype
I1006 11:30:57.896474  1642 net.cpp:388] label_ntype_cifar_1_split -> label_ntype_cifar_1_split_0
I1006 11:30:57.896481  1642 net.cpp:388] label_ntype_cifar_1_split -> label_ntype_cifar_1_split_1
I1006 11:30:57.896486  1642 net.cpp:140] Setting up label_ntype_cifar_1_split
I1006 11:30:57.896492  1642 net.cpp:147] Top shape: 100 (100)
I1006 11:30:57.896495  1642 net.cpp:147] Top shape: 100 (100)
I1006 11:30:57.896498  1642 layer_factory.hpp:74] Creating layer conv1
I1006 11:30:57.896504  1642 net.cpp:110] Creating Layer conv1
I1006 11:30:57.896507  1642 net.cpp:430] conv1 <- data
I1006 11:30:57.896530  1642 net.cpp:388] conv1 -> conv1
I1006 11:30:57.896536  1642 net.cpp:140] Setting up conv1
I1006 11:30:57.897114  1642 net.cpp:147] Top shape: 100 32 32 32 (3276800)
I1006 11:30:57.897130  1642 layer_factory.hpp:74] Creating layer pool1
I1006 11:30:57.897135  1642 net.cpp:110] Creating Layer pool1
I1006 11:30:57.897137  1642 net.cpp:430] pool1 <- conv1
I1006 11:30:57.897142  1642 net.cpp:388] pool1 -> pool1
I1006 11:30:57.897147  1642 net.cpp:140] Setting up pool1
I1006 11:30:57.897369  1642 net.cpp:147] Top shape: 100 32 16 16 (819200)
I1006 11:30:57.897377  1642 layer_factory.hpp:74] Creating layer relu1
I1006 11:30:57.897382  1642 net.cpp:110] Creating Layer relu1
I1006 11:30:57.897384  1642 net.cpp:430] relu1 <- pool1
I1006 11:30:57.897390  1642 net.cpp:377] relu1 -> pool1 (in-place)
I1006 11:30:57.897395  1642 net.cpp:140] Setting up relu1
I1006 11:30:57.897537  1642 net.cpp:147] Top shape: 100 32 16 16 (819200)
I1006 11:30:57.897549  1642 layer_factory.hpp:74] Creating layer conv2
I1006 11:30:57.897554  1642 net.cpp:110] Creating Layer conv2
I1006 11:30:57.897557  1642 net.cpp:430] conv2 <- pool1
I1006 11:30:57.897563  1642 net.cpp:388] conv2 -> conv2
I1006 11:30:57.897569  1642 net.cpp:140] Setting up conv2
I1006 11:30:57.898362  1642 net.cpp:147] Top shape: 100 32 16 16 (819200)
I1006 11:30:57.898377  1642 layer_factory.hpp:74] Creating layer relu2
I1006 11:30:57.898382  1642 net.cpp:110] Creating Layer relu2
I1006 11:30:57.898386  1642 net.cpp:430] relu2 <- conv2
I1006 11:30:57.898389  1642 net.cpp:377] relu2 -> conv2 (in-place)
I1006 11:30:57.898393  1642 net.cpp:140] Setting up relu2
I1006 11:30:57.898511  1642 net.cpp:147] Top shape: 100 32 16 16 (819200)
I1006 11:30:57.898517  1642 layer_factory.hpp:74] Creating layer pool2
I1006 11:30:57.898522  1642 net.cpp:110] Creating Layer pool2
I1006 11:30:57.898525  1642 net.cpp:430] pool2 <- conv2
I1006 11:30:57.898530  1642 net.cpp:388] pool2 -> pool2
I1006 11:30:57.898535  1642 net.cpp:140] Setting up pool2
I1006 11:30:57.898732  1642 net.cpp:147] Top shape: 100 32 8 8 (204800)
I1006 11:30:57.898741  1642 layer_factory.hpp:74] Creating layer conv3
I1006 11:30:57.898747  1642 net.cpp:110] Creating Layer conv3
I1006 11:30:57.898751  1642 net.cpp:430] conv3 <- pool2
I1006 11:30:57.898756  1642 net.cpp:388] conv3 -> conv3
I1006 11:30:57.898763  1642 net.cpp:140] Setting up conv3
I1006 11:30:57.899817  1642 net.cpp:147] Top shape: 100 64 8 8 (409600)
I1006 11:30:57.899832  1642 layer_factory.hpp:74] Creating layer relu3
I1006 11:30:57.899837  1642 net.cpp:110] Creating Layer relu3
I1006 11:30:57.899840  1642 net.cpp:430] relu3 <- conv3
I1006 11:30:57.899845  1642 net.cpp:377] relu3 -> conv3 (in-place)
I1006 11:30:57.899849  1642 net.cpp:140] Setting up relu3
I1006 11:30:57.899973  1642 net.cpp:147] Top shape: 100 64 8 8 (409600)
I1006 11:30:57.899981  1642 layer_factory.hpp:74] Creating layer pool3
I1006 11:30:57.899986  1642 net.cpp:110] Creating Layer pool3
I1006 11:30:57.899989  1642 net.cpp:430] pool3 <- conv3
I1006 11:30:57.899993  1642 net.cpp:388] pool3 -> pool3
I1006 11:30:57.899998  1642 net.cpp:140] Setting up pool3
I1006 11:30:57.900193  1642 net.cpp:147] Top shape: 100 64 4 4 (102400)
I1006 11:30:57.900202  1642 layer_factory.hpp:74] Creating layer ip1_ntype
I1006 11:30:57.900207  1642 net.cpp:110] Creating Layer ip1_ntype
I1006 11:30:57.900212  1642 net.cpp:430] ip1_ntype <- pool3
I1006 11:30:57.900216  1642 net.cpp:388] ip1_ntype -> ip1_ntype
I1006 11:30:57.900223  1642 net.cpp:140] Setting up ip1_ntype
I1006 11:30:57.900835  1642 net.cpp:147] Top shape: 100 64 (6400)
I1006 11:30:57.900843  1642 layer_factory.hpp:74] Creating layer ip2_ntype
I1006 11:30:57.900849  1642 net.cpp:110] Creating Layer ip2_ntype
I1006 11:30:57.900853  1642 net.cpp:430] ip2_ntype <- ip1_ntype
I1006 11:30:57.900857  1642 net.cpp:388] ip2_ntype -> ip2_ntype
I1006 11:30:57.900866  1642 net.cpp:140] Setting up ip2_ntype
I1006 11:30:57.900876  1642 net.cpp:147] Top shape: 100 3 (300)
I1006 11:30:57.900889  1642 layer_factory.hpp:74] Creating layer ip2_ntype_ip2_ntype_0_split
I1006 11:30:57.900899  1642 net.cpp:110] Creating Layer ip2_ntype_ip2_ntype_0_split
I1006 11:30:57.900905  1642 net.cpp:430] ip2_ntype_ip2_ntype_0_split <- ip2_ntype
I1006 11:30:57.900913  1642 net.cpp:388] ip2_ntype_ip2_ntype_0_split -> ip2_ntype_ip2_ntype_0_split_0
I1006 11:30:57.900921  1642 net.cpp:388] ip2_ntype_ip2_ntype_0_split -> ip2_ntype_ip2_ntype_0_split_1
I1006 11:30:57.900928  1642 net.cpp:140] Setting up ip2_ntype_ip2_ntype_0_split
I1006 11:30:57.900934  1642 net.cpp:147] Top shape: 100 3 (300)
I1006 11:30:57.900938  1642 net.cpp:147] Top shape: 100 3 (300)
I1006 11:30:57.900941  1642 layer_factory.hpp:74] Creating layer accuracy
I1006 11:30:57.900945  1642 net.cpp:110] Creating Layer accuracy
I1006 11:30:57.900949  1642 net.cpp:430] accuracy <- ip2_ntype_ip2_ntype_0_split_0
I1006 11:30:57.900952  1642 net.cpp:430] accuracy <- label_ntype_cifar_1_split_0
I1006 11:30:57.900956  1642 net.cpp:388] accuracy -> accuracy
I1006 11:30:57.900961  1642 net.cpp:140] Setting up accuracy
…
