…
I0321 10:32:59.550236   912 net.cpp:330] The NetState phase (0) differed from the phase (1) specified by a rule in layer accuracy
I0321 10:32:59.550343   912 net.cpp:47] Initializing net from parameters: 
name: "clothing1M_clean"
state {
  phase: TRAIN
}
richness: 2000
layer {
  name: "data"
  type: "Data"
  top: "data"
  top: "label"
  include {
    phase: TRAIN
  }
  transform_param {
    mirror: true
    crop_size: 227
    mean_file: "external/exp/db/clothing1M/clothing1M_mean.binaryproto"
  }
  data_param {
    source: "external/exp/db/clothing1M/clean_train"
    batch_size: 128
    backend: LMDB
  }
}
layer {
  name: "conv1"
  type: "Convolution"
  bottom: "data"
  top: "conv1"
  param {
    lr_mult: 1
    decay_mult: 1
  }
  param {
    lr_mult: 2
    decay_mult: 0
  }
  convolution_param {
    num_output: 96
    kernel_size: 11
    stride: 4
    weight_filler {
      type: "gaussian"
      std: 0.01
    }
    bias_filler {
      type: "constant"
      value: 0
    }
  }
}
layer {
  name: "relu1"
  type: "ReLU"
  bottom: "conv1"
  top: "conv1"
}
layer {
  name: "pool1"
  type: "Pooling"
  bottom: "conv1"
  top: "pool1"
  pooling_param {
    pool: MAX
    kernel_size: 3
    stride: 2
  }
}
layer {
  name: "norm1"
  type: "LRN"
  bottom: "pool1"
  top: "norm1"
  lrn_param {
    local_size: 5
    alpha: 0.0001
    beta: 0.75
  }
}
layer {
  name: "conv2"
  type: "Convolution"
  bottom: "norm1"
  top: "conv2"
  param {
    lr_mult: 1
    decay_mult: 1
  }
  param {
    lr_mult: 2
    decay_mult: 0
  }
  convolution_param {
    num_output: 256
    pad: 2
    kernel_size: 5
    group: 2
    weight_filler {
      type: "gaussian"
      std: 0.01
    }
    bias_filler {
      type: "constant"
      value: 1
    }
  }
}
layer {
  name: "relu2"
  type: "ReLU"
  bottom: "conv2"
  top: "conv2"
}
layer {
  name: "pool2"
  type: "Pooling"
  bottom: "conv2"
  top: "pool2"
  pooling_param {
    pool: MAX
    kernel_size: 3
    stride: 2
  }
}
layer {
  name: "norm2"
  type: "LRN"
  bottom: "pool2"
  top: "norm2"
  lrn_param {
    local_size: 5
    alpha: 0.0001
    beta: 0.75
  }
}
layer {
  name: "conv3"
  type: "Convolution"
  bottom: "norm2"
  top: "conv3"
  param {
    lr_mult: 1
    decay_mult: 1
  }
  param {
    lr_mult: 2
    decay_mult: 0
  }
  convolution_param {
    num_output: 384
    pad: 1
    kernel_size: 3
    weight_filler {
      type: "gaussian"
      std: 0.01
    }
    bias_filler {
      type: "constant"
      value: 0
    }
  }
}
layer {
  name: "relu3"
  type: "ReLU"
  bottom: "conv3"
  top: "conv3"
}
layer {
  name: "conv4"
  type: "Convolution"
  bottom: "conv3"
  top: "conv4"
  param {
    lr_mult: 1
    decay_mult: 1
  }
  param {
    lr_mult: 2
    decay_mult: 0
  }
  convolution_param {
    num_output: 384
    pad: 1
    kernel_size: 3
    group: 2
    weight_filler {
      type: "gaussian"
      std: 0.01
    }
    bias_filler {
      type: "constant"
      value: 1
    }
  }
}
layer {
  name: "relu4"
  type: "ReLU"
  bottom: "conv4"
  top: "conv4"
}
layer {
  name: "conv5"
  type: "Convolution"
  bottom: "conv4"
  top: "conv5"
  param {
    lr_mult: 1
    decay_mult: 1
  }
  param {
    lr_mult: 2
    decay_mult: 0
  }
  convolution_param {
    num_output: 256
    pad: 1
    kernel_size: 3
    group: 2
    weight_filler {
      type: "gaussian"
      std: 0.01
    }
    bias_filler {
      type: "constant"
      value: 1
    }
  }
}
layer {
  name: "relu5"
  type: "ReLU"
  bottom: "conv5"
  top: "conv5"
}
layer {
  name: "pool5"
  type: "Pooling"
  bottom: "conv5"
  top: "pool5"
  pooling_param {
    pool: MAX
    kernel_size: 3
    stride: 2
  }
}
layer {
  name: "fc6"
  type: "InnerProduct"
  bottom: "pool5"
  top: "fc6"
  param {
    lr_mult: 1
    decay_mult: 1
  }
  param {
    lr_mult: 2
    decay_mult: 0
  }
  inner_product_param {
    num_output: 4096
    weight_filler {
      type: "gaussian"
      std: 0.005
    }
    bias_filler {
      type: "constant"
      value: 1
    }
  }
}
layer {
  name: "relu6"
  type: "ReLU"
  bottom: "fc6"
  top: "fc6"
}
layer {
  name: "drop6"
  type: "Dropout"
  bottom: "fc6"
  top: "fc6"
  dropout_param {
    dropout_ratio: 0.5
  }
}
layer {
  name: "fc7"
  type: "InnerProduct"
  bottom: "fc6"
  top: "fc7"
  param {
    lr_mult: 1
    decay_mult: 1
  }
  param {
    lr_mult: 2
    decay_mult: 0
  }
  inner_product_param {
    num_output: 4096
    weight_filler {
      type: "gaussian"
      std: 0.005
    }
    bias_filler {
      type: "constant"
      value: 1
    }
  }
}
layer {
  name: "relu7"
  type: "ReLU"
  bottom: "fc7"
  top: "fc7"
}
layer {
  name: "drop7"
  type: "Dropout"
  bottom: "fc7"
  top: "fc7"
  dropout_param {
    dropout_ratio: 0.5
  }
}
layer {
  name: "fc8_clean"
  type: "InnerProduct"
  bottom: "fc7"
  top: "fc8_clean"
  param {
    lr_mult: 1
    decay_mult: 1
  }
  param {
    lr_mult: 2
    decay_mult: 0
  }
  inner_product_param {
    num_output: 14
    weight_filler {
      type: "gaussian"
      std: 0.01
    }
    bias_filler {
      type: "constant"
      value: 0
    }
  }
}
layer {
  name: "loss"
  type: "SoftmaxWithLoss"
  bottom: "fc8_clean"
  bottom: "label"
  top: "loss"
}
I0321 10:32:59.550737   912 layer_factory.hpp:74] Creating layer data
I0321 10:32:59.550755   912 net.cpp:133] Creating Layer data
I0321 10:32:59.550760   912 net.cpp:411] data -> data
I0321 10:32:59.550770   912 net.cpp:411] data -> label
I0321 10:32:59.550776   912 net.cpp:163] Setting up data
I0321 10:32:59.550781   912 data_transformer.cpp:23] Loading mean file from: external/exp/db/clothing1M/clothing1M_mean.binaryproto
I0321 10:32:59.615733   912 db_lmdb.cpp:22] Opened lmdb external/exp/db/clothing1M/clean_train
I0321 10:32:59.632632   912 data_layer.cpp:55] Skipping first 0 data points.
I0321 10:32:59.642107   912 data_layer.cpp:100] output data size: 64,3,227,227
I0321 10:32:59.642180   912 net.cpp:170] Top shape: 64 3 227 227 (9893568)
I0321 10:32:59.642187   912 net.cpp:170] Top shape: 64 (64)
I0321 10:32:59.642191   912 layer_factory.hpp:74] Creating layer conv1
I0321 10:32:59.642204   912 net.cpp:133] Creating Layer conv1
I0321 10:32:59.642209   912 net.cpp:453] conv1 <- data
I0321 10:32:59.642217   912 net.cpp:411] conv1 -> conv1
I0321 10:32:59.642226   912 net.cpp:163] Setting up conv1
I0321 10:33:04.373191   912 net.cpp:170] Top shape: 64 96 55 55 (18585600)
I0321 10:33:04.373214   912 layer_factory.hpp:74] Creating layer relu1
I0321 10:33:04.373219   912 net.cpp:133] Creating Layer relu1
I0321 10:33:04.373222   912 net.cpp:453] relu1 <- conv1
I0321 10:33:04.373225   912 net.cpp:400] relu1 -> conv1 (in-place)
I0321 10:33:04.373231   912 net.cpp:163] Setting up relu1
I0321 10:33:04.373337   912 net.cpp:170] Top shape: 64 96 55 55 (18585600)
I0321 10:33:04.373342   912 layer_factory.hpp:74] Creating layer pool1
I0321 10:33:04.373347   912 net.cpp:133] Creating Layer pool1
I0321 10:33:04.373347   912 net.cpp:453] pool1 <- conv1
I0321 10:33:04.373350   912 net.cpp:411] pool1 -> pool1
I0321 10:33:04.373354   912 net.cpp:163] Setting up pool1
I0321 10:33:04.373531   912 net.cpp:170] Top shape: 64 96 27 27 (4478976)
I0321 10:33:04.373538   912 layer_factory.hpp:74] Creating layer norm1
I0321 10:33:04.373543   912 net.cpp:133] Creating Layer norm1
I0321 10:33:04.373545   912 net.cpp:453] norm1 <- pool1
I0321 10:33:04.373548   912 net.cpp:411] norm1 -> norm1
I0321 10:33:04.373551   912 net.cpp:163] Setting up norm1
I0321 10:33:04.373556   912 net.cpp:170] Top shape: 64 96 27 27 (4478976)
I0321 10:33:04.373558   912 layer_factory.hpp:74] Creating layer conv2
I0321 10:33:04.373564   912 net.cpp:133] Creating Layer conv2
I0321 10:33:04.373565   912 net.cpp:453] conv2 <- norm1
I0321 10:33:04.373569   912 net.cpp:411] conv2 -> conv2
I0321 10:33:04.373574   912 net.cpp:163] Setting up conv2
I0321 10:33:04.442109   912 cudnn_conv_layer.cpp:348] fft context time 3.21878 mem 121929728
I0321 10:33:04.480685   912 net.cpp:170] Top shape: 64 256 27 27 (11943936)
I0321 10:33:04.480697   912 layer_factory.hpp:74] Creating layer relu2
I0321 10:33:04.480702   912 net.cpp:133] Creating Layer relu2
I0321 10:33:04.480705   912 net.cpp:453] relu2 <- conv2
I0321 10:33:04.480707   912 net.cpp:400] relu2 -> conv2 (in-place)
I0321 10:33:04.480712   912 net.cpp:163] Setting up relu2
I0321 10:33:04.480825   912 net.cpp:170] Top shape: 64 256 27 27 (11943936)
I0321 10:33:04.480831   912 layer_factory.hpp:74] Creating layer pool2
I0321 10:33:04.480835   912 net.cpp:133] Creating Layer pool2
I0321 10:33:04.480836   912 net.cpp:453] pool2 <- conv2
I0321 10:33:04.480839   912 net.cpp:411] pool2 -> pool2
I0321 10:33:04.480844   912 net.cpp:163] Setting up pool2
I0321 10:33:04.481012   912 net.cpp:170] Top shape: 64 256 13 13 (2768896)
I0321 10:33:04.481019   912 layer_factory.hpp:74] Creating layer norm2
I0321 10:33:04.481024   912 net.cpp:133] Creating Layer norm2
I0321 10:33:04.481025   912 net.cpp:453] norm2 <- pool2
I0321 10:33:04.481029   912 net.cpp:411] norm2 -> norm2
I0321 10:33:04.481031   912 net.cpp:163] Setting up norm2
I0321 10:33:04.481035   912 net.cpp:170] Top shape: 64 256 13 13 (2768896)
I0321 10:33:04.481037   912 layer_factory.hpp:74] Creating layer conv3
I0321 10:33:04.481041   912 net.cpp:133] Creating Layer conv3
I0321 10:33:04.481043   912 net.cpp:453] conv3 <- norm2
I0321 10:33:04.481046   912 net.cpp:411] conv3 -> conv3
I0321 10:33:04.481050   912 net.cpp:163] Setting up conv3
I0321 10:33:04.596817   912 cudnn_conv_layer.cpp:348] fft context time 4.42486 mem 243105792
I0321 10:33:04.660143   912 net.cpp:170] Top shape: 64 384 13 13 (4153344)
I0321 10:33:04.660161   912 layer_factory.hpp:74] Creating layer relu3
I0321 10:33:04.660166   912 net.cpp:133] Creating Layer relu3
I0321 10:33:04.660169   912 net.cpp:453] relu3 <- conv3
I0321 10:33:04.660172   912 net.cpp:400] relu3 -> conv3 (in-place)
I0321 10:33:04.660176   912 net.cpp:163] Setting up relu3
I0321 10:33:04.660488   912 net.cpp:170] Top shape: 64 384 13 13 (4153344)
I0321 10:33:04.660495   912 layer_factory.hpp:74] Creating layer conv4
I0321 10:33:04.660501   912 net.cpp:133] Creating Layer conv4
I0321 10:33:04.660503   912 net.cpp:453] conv4 <- conv3
I0321 10:33:04.660506   912 net.cpp:411] conv4 -> conv4
I0321 10:33:04.660511   912 net.cpp:163] Setting up conv4
I0321 10:33:04.717725   912 cudnn_conv_layer.cpp:348] fft context time 1.91286 mem 93241344
I0321 10:33:04.747545   912 net.cpp:170] Top shape: 64 384 13 13 (4153344)
I0321 10:33:04.747555   912 layer_factory.hpp:74] Creating layer relu4
I0321 10:33:04.747560   912 net.cpp:133] Creating Layer relu4
I0321 10:33:04.747561   912 net.cpp:453] relu4 <- conv4
I0321 10:33:04.747565   912 net.cpp:400] relu4 -> conv4 (in-place)
I0321 10:33:04.747568   912 net.cpp:163] Setting up relu4
I0321 10:33:04.747674   912 net.cpp:170] Top shape: 64 384 13 13 (4153344)
I0321 10:33:04.747679   912 layer_factory.hpp:74] Creating layer conv5
I0321 10:33:04.747684   912 net.cpp:133] Creating Layer conv5
I0321 10:33:04.747686   912 net.cpp:453] conv5 <- conv4
I0321 10:33:04.747689   912 net.cpp:411] conv5 -> conv5
I0321 10:33:04.747694   912 net.cpp:163] Setting up conv5
I0321 10:33:04.783917   912 cudnn_conv_layer.cpp:348] fft context time 1.4551 mem 62160896
I0321 10:33:04.804591   912 net.cpp:170] Top shape: 64 256 13 13 (2768896)
I0321 10:33:04.804617   912 layer_factory.hpp:74] Creating layer relu5
I0321 10:33:04.804625   912 net.cpp:133] Creating Layer relu5
I0321 10:33:04.804628   912 net.cpp:453] relu5 <- conv5
I0321 10:33:04.804632   912 net.cpp:400] relu5 -> conv5 (in-place)
I0321 10:33:04.804637   912 net.cpp:163] Setting up relu5
I0321 10:33:04.804776   912 net.cpp:170] Top shape: 64 256 13 13 (2768896)
I0321 10:33:04.804782   912 layer_factory.hpp:74] Creating layer pool5
I0321 10:33:04.804786   912 net.cpp:133] Creating Layer pool5
I0321 10:33:04.804787   912 net.cpp:453] pool5 <- conv5
I0321 10:33:04.804791   912 net.cpp:411] pool5 -> pool5
I0321 10:33:04.804795   912 net.cpp:163] Setting up pool5
I0321 10:33:04.805053   912 net.cpp:170] Top shape: 64 256 6 6 (589824)
I0321 10:33:04.805059   912 layer_factory.hpp:74] Creating layer gather_pool5_to_fc6
I0321 10:33:04.805065   912 net.cpp:133] Creating Layer gather_pool5_to_fc6
I0321 10:33:04.805068   912 net.cpp:453] gather_pool5_to_fc6 <- pool5
I0321 10:33:04.805070   912 net.cpp:411] gather_pool5_to_fc6 -> gathered_pool5
I0321 10:33:04.805074   912 net.cpp:163] Setting up gather_pool5_to_fc6
I0321 10:33:04.805078   912 net.cpp:170] Top shape: 128 256 6 6 (1179648)
I0321 10:33:04.805079   912 layer_factory.hpp:74] Creating layer fc6
I0321 10:33:04.805083   912 net.cpp:133] Creating Layer fc6
I0321 10:33:04.805084   912 net.cpp:453] fc6 <- gathered_pool5
I0321 10:33:04.805089   912 net.cpp:411] fc6 -> fc6
I0321 10:33:04.805094   912 net.cpp:163] Setting up fc6
I0321 10:33:05.046665   912 net.cpp:170] Top shape: 128 4096 (524288)
I0321 10:33:05.046691   912 layer_factory.hpp:74] Creating layer relu6
I0321 10:33:05.046699   912 net.cpp:133] Creating Layer relu6
I0321 10:33:05.046701   912 net.cpp:453] relu6 <- fc6
I0321 10:33:05.046705   912 net.cpp:400] relu6 -> fc6 (in-place)
I0321 10:33:05.046711   912 net.cpp:163] Setting up relu6
I0321 10:33:05.046886   912 net.cpp:170] Top shape: 128 4096 (524288)
I0321 10:33:05.046892   912 layer_factory.hpp:74] Creating layer drop6
I0321 10:33:05.046896   912 net.cpp:133] Creating Layer drop6
I0321 10:33:05.046897   912 net.cpp:453] drop6 <- fc6
I0321 10:33:05.046900   912 net.cpp:400] drop6 -> fc6 (in-place)
I0321 10:33:05.046903   912 net.cpp:163] Setting up drop6
I0321 10:33:05.046908   912 net.cpp:170] Top shape: 128 4096 (524288)
I0321 10:33:05.046911   912 layer_factory.hpp:74] Creating layer fc7
I0321 10:33:05.046916   912 net.cpp:133] Creating Layer fc7
I0321 10:33:05.046916   912 net.cpp:453] fc7 <- fc6
I0321 10:33:05.046919   912 net.cpp:411] fc7 -> fc7
I0321 10:33:05.046923   912 net.cpp:163] Setting up fc7
I0321 10:33:05.154777   912 net.cpp:170] Top shape: 128 4096 (524288)
I0321 10:33:05.154799   912 layer_factory.hpp:74] Creating layer relu7
I0321 10:33:05.154806   912 net.cpp:133] Creating Layer relu7
I0321 10:33:05.154809   912 net.cpp:453] relu7 <- fc7
I0321 10:33:05.154814   912 net.cpp:400] relu7 -> fc7 (in-place)
I0321 10:33:05.154819   912 net.cpp:163] Setting up relu7
I0321 10:33:05.155117   912 net.cpp:170] Top shape: 128 4096 (524288)
I0321 10:33:05.155123   912 layer_factory.hpp:74] Creating layer drop7
I0321 10:33:05.155128   912 net.cpp:133] Creating Layer drop7
I0321 10:33:05.155129   912 net.cpp:453] drop7 <- fc7
I0321 10:33:05.155133   912 net.cpp:400] drop7 -> fc7 (in-place)
I0321 10:33:05.155135   912 net.cpp:163] Setting up drop7
I0321 10:33:05.155139   912 net.cpp:170] Top shape: 128 4096 (524288)
I0321 10:33:05.155140   912 layer_factory.hpp:74] Creating layer fc8_clean
I0321 10:33:05.155144   912 net.cpp:133] Creating Layer fc8_clean
I0321 10:33:05.155146   912 net.cpp:453] fc8_clean <- fc7
I0321 10:33:05.155150   912 net.cpp:411] fc8_clean -> fc8_clean
I0321 10:33:05.155153   912 net.cpp:163] Setting up fc8_clean
I0321 10:33:05.155563   912 net.cpp:170] Top shape: 128 14 (1792)
I0321 10:33:05.155570   912 layer_factory.hpp:74] Creating layer gather_data_to_loss
I0321 10:33:05.155572   912 net.cpp:133] Creating Layer gather_data_to_loss
I0321 10:33:05.155575   912 net.cpp:453] gather_data_to_loss <- label
I0321 10:33:05.155577   912 net.cpp:411] gather_data_to_loss -> gathered_label
I0321 10:33:05.155582   912 net.cpp:163] Setting up gather_data_to_loss
I0321 10:33:05.155586   912 net.cpp:170] Top shape: 128 (128)
I0321 10:33:05.155587   912 layer_factory.hpp:74] Creating layer loss
I0321 10:33:05.155591   912 net.cpp:133] Creating Layer loss
I0321 10:33:05.155591   912 net.cpp:453] loss <- fc8_clean
I0321 10:33:05.155594   912 net.cpp:453] loss <- gathered_label
I0321 10:33:05.155596   912 net.cpp:411] loss -> loss
I0321 10:33:05.155599   912 net.cpp:163] Setting up loss
I0321 10:33:05.155608   912 layer_factory.hpp:74] Creating layer loss
…
I0321 10:33:05.186336   912 net.cpp:330] The NetState phase (1) differed from the phase (0) specified by a rule in layer data
I0321 10:33:05.186444   912 net.cpp:47] Initializing net from parameters: 
name: "clothing1M_clean"
state {
  phase: TEST
}
richness: 2000
layer {
  name: "data"
  type: "Data"
  top: "data"
  top: "label"
  include {
    phase: TEST
  }
  transform_param {
    mirror: false
    crop_size: 227
    mean_file: "external/exp/db/clothing1M/clothing1M_mean.binaryproto"
  }
  data_param {
    source: "external/exp/db/clothing1M/clean_val"
    batch_size: 100
    backend: LMDB
  }
}
layer {
  name: "conv1"
  type: "Convolution"
  bottom: "data"
  top: "conv1"
  param {
    lr_mult: 1
    decay_mult: 1
  }
  param {
    lr_mult: 2
    decay_mult: 0
  }
  convolution_param {
    num_output: 96
    kernel_size: 11
    stride: 4
    weight_filler {
      type: "gaussian"
      std: 0.01
    }
    bias_filler {
      type: "constant"
      value: 0
    }
  }
}
layer {
  name: "relu1"
  type: "ReLU"
  bottom: "conv1"
  top: "conv1"
}
layer {
  name: "pool1"
  type: "Pooling"
  bottom: "conv1"
  top: "pool1"
  pooling_param {
    pool: MAX
    kernel_size: 3
    stride: 2
  }
}
layer {
  name: "norm1"
  type: "LRN"
  bottom: "pool1"
  top: "norm1"
  lrn_param {
    local_size: 5
    alpha: 0.0001
    beta: 0.75
  }
}
layer {
  name: "conv2"
  type: "Convolution"
  bottom: "norm1"
  top: "conv2"
  param {
    lr_mult: 1
    decay_mult: 1
  }
  param {
    lr_mult: 2
    decay_mult: 0
  }
  convolution_param {
    num_output: 256
    pad: 2
    kernel_size: 5
    group: 2
    weight_filler {
      type: "gaussian"
      std: 0.01
    }
    bias_filler {
      type: "constant"
      value: 1
    }
  }
}
layer {
  name: "relu2"
  type: "ReLU"
  bottom: "conv2"
  top: "conv2"
}
layer {
  name: "pool2"
  type: "Pooling"
  bottom: "conv2"
  top: "pool2"
  pooling_param {
    pool: MAX
    kernel_size: 3
    stride: 2
  }
}
layer {
  name: "norm2"
  type: "LRN"
  bottom: "pool2"
  top: "norm2"
  lrn_param {
    local_size: 5
    alpha: 0.0001
    beta: 0.75
  }
}
layer {
  name: "conv3"
  type: "Convolution"
  bottom: "norm2"
  top: "conv3"
  param {
    lr_mult: 1
    decay_mult: 1
  }
  param {
    lr_mult: 2
    decay_mult: 0
  }
  convolution_param {
    num_output: 384
    pad: 1
    kernel_size: 3
    weight_filler {
      type: "gaussian"
      std: 0.01
    }
    bias_filler {
      type: "constant"
      value: 0
    }
  }
}
layer {
  name: "relu3"
  type: "ReLU"
  bottom: "conv3"
  top: "conv3"
}
layer {
  name: "conv4"
  type: "Convolution"
  bottom: "conv3"
  top: "conv4"
  param {
    lr_mult: 1
    decay_mult: 1
  }
  param {
    lr_mult: 2
    decay_mult: 0
  }
  convolution_param {
    num_output: 384
    pad: 1
    kernel_size: 3
    group: 2
    weight_filler {
      type: "gaussian"
      std: 0.01
    }
    bias_filler {
      type: "constant"
      value: 1
    }
  }
}
layer {
  name: "relu4"
  type: "ReLU"
  bottom: "conv4"
  top: "conv4"
}
layer {
  name: "conv5"
  type: "Convolution"
  bottom: "conv4"
  top: "conv5"
  param {
    lr_mult: 1
    decay_mult: 1
  }
  param {
    lr_mult: 2
    decay_mult: 0
  }
  convolution_param {
    num_output: 256
    pad: 1
    kernel_size: 3
    group: 2
    weight_filler {
      type: "gaussian"
      std: 0.01
    }
    bias_filler {
      type: "constant"
      value: 1
    }
  }
}
layer {
  name: "relu5"
  type: "ReLU"
  bottom: "conv5"
  top: "conv5"
}
layer {
  name: "pool5"
  type: "Pooling"
  bottom: "conv5"
  top: "pool5"
  pooling_param {
    pool: MAX
    kernel_size: 3
    stride: 2
  }
}
layer {
  name: "fc6"
  type: "InnerProduct"
  bottom: "pool5"
  top: "fc6"
  param {
    lr_mult: 1
    decay_mult: 1
  }
  param {
    lr_mult: 2
    decay_mult: 0
  }
  inner_product_param {
    num_output: 4096
    weight_filler {
      type: "gaussian"
      std: 0.005
    }
    bias_filler {
      type: "constant"
      value: 1
    }
  }
}
layer {
  name: "relu6"
  type: "ReLU"
  bottom: "fc6"
  top: "fc6"
}
layer {
  name: "drop6"
  type: "Dropout"
  bottom: "fc6"
  top: "fc6"
  dropout_param {
    dropout_ratio: 0.5
  }
}
layer {
  name: "fc7"
  type: "InnerProduct"
  bottom: "fc6"
  top: "fc7"
  param {
    lr_mult: 1
    decay_mult: 1
  }
  param {
    lr_mult: 2
    decay_mult: 0
  }
  inner_product_param {
    num_output: 4096
    weight_filler {
      type: "gaussian"
      std: 0.005
    }
    bias_filler {
      type: "constant"
      value: 1
    }
  }
}
layer {
  name: "relu7"
  type: "ReLU"
  bottom: "fc7"
  top: "fc7"
}
layer {
  name: "drop7"
  type: "Dropout"
  bottom: "fc7"
  top: "fc7"
  dropout_param {
    dropout_ratio: 0.5
  }
}
layer {
  name: "fc8_clean"
  type: "InnerProduct"
  bottom: "fc7"
  top: "fc8_clean"
  param {
    lr_mult: 1
    decay_mult: 1
  }
  param {
    lr_mult: 2
    decay_mult: 0
  }
  inner_product_param {
    num_output: 14
    weight_filler {
      type: "gaussian"
      std: 0.01
    }
    bias_filler {
      type: "constant"
      value: 0
    }
  }
}
layer {
  name: "accuracy"
  type: "Accuracy"
  bottom: "fc8_clean"
  bottom: "label"
  top: "accuracy"
  include {
    phase: TEST
  }
}
layer {
  name: "loss"
  type: "SoftmaxWithLoss"
  bottom: "fc8_clean"
  bottom: "label"
  top: "loss"
}
I0321 10:33:05.186622   912 layer_factory.hpp:74] Creating layer data
I0321 10:33:05.186631   912 net.cpp:133] Creating Layer data
I0321 10:33:05.186635   912 net.cpp:411] data -> data
I0321 10:33:05.186640   912 net.cpp:411] data -> label
I0321 10:33:05.186642   912 net.cpp:163] Setting up data
I0321 10:33:05.186645   912 data_transformer.cpp:23] Loading mean file from: external/exp/db/clothing1M/clothing1M_mean.binaryproto
I0321 10:33:05.209923   912 db_lmdb.cpp:22] Opened lmdb external/exp/db/clothing1M/clean_val
I0321 10:33:05.230923   912 data_layer.cpp:55] Skipping first 0 data points.
I0321 10:33:05.231909   912 data_layer.cpp:100] output data size: 50,3,227,227
I0321 10:33:05.231945   912 net.cpp:170] Top shape: 50 3 227 227 (7729350)
I0321 10:33:05.231950   912 net.cpp:170] Top shape: 50 (50)
I0321 10:33:05.231955   912 layer_factory.hpp:74] Creating layer label_data_1_split
I0321 10:33:05.231961   912 net.cpp:133] Creating Layer label_data_1_split
I0321 10:33:05.231963   912 net.cpp:453] label_data_1_split <- label
I0321 10:33:05.231968   912 net.cpp:411] label_data_1_split -> label_data_1_split_0
I0321 10:33:05.231976   912 net.cpp:411] label_data_1_split -> label_data_1_split_1
I0321 10:33:05.231981   912 net.cpp:163] Setting up label_data_1_split
I0321 10:33:05.231986   912 net.cpp:170] Top shape: 50 (50)
I0321 10:33:05.231989   912 net.cpp:170] Top shape: 50 (50)
I0321 10:33:05.231992   912 layer_factory.hpp:74] Creating layer conv1
I0321 10:33:05.231998   912 net.cpp:133] Creating Layer conv1
I0321 10:33:05.232002   912 net.cpp:453] conv1 <- data
I0321 10:33:05.232007   912 net.cpp:411] conv1 -> conv1
I0321 10:33:05.232013   912 net.cpp:163] Setting up conv1
I0321 10:33:08.709101   912 net.cpp:170] Top shape: 50 96 55 55 (14520000)
I0321 10:33:08.709122   912 layer_factory.hpp:74] Creating layer relu1
I0321 10:33:08.709130   912 net.cpp:133] Creating Layer relu1
I0321 10:33:08.709131   912 net.cpp:453] relu1 <- conv1
I0321 10:33:08.709136   912 net.cpp:400] relu1 -> conv1 (in-place)
I0321 10:33:08.709141   912 net.cpp:163] Setting up relu1
I0321 10:33:08.709367   912 net.cpp:170] Top shape: 50 96 55 55 (14520000)
I0321 10:33:08.709374   912 layer_factory.hpp:74] Creating layer pool1
I0321 10:33:08.709379   912 net.cpp:133] Creating Layer pool1
I0321 10:33:08.709381   912 net.cpp:453] pool1 <- conv1
I0321 10:33:08.709384   912 net.cpp:411] pool1 -> pool1
I0321 10:33:08.709388   912 net.cpp:163] Setting up pool1
I0321 10:33:08.709486   912 net.cpp:170] Top shape: 50 96 27 27 (3499200)
I0321 10:33:08.709491   912 layer_factory.hpp:74] Creating layer norm1
I0321 10:33:08.709497   912 net.cpp:133] Creating Layer norm1
I0321 10:33:08.709498   912 net.cpp:453] norm1 <- pool1
I0321 10:33:08.709501   912 net.cpp:411] norm1 -> norm1
I0321 10:33:08.709504   912 net.cpp:163] Setting up norm1
I0321 10:33:08.709508   912 net.cpp:170] Top shape: 50 96 27 27 (3499200)
I0321 10:33:08.709509   912 layer_factory.hpp:74] Creating layer conv2
I0321 10:33:08.709514   912 net.cpp:133] Creating Layer conv2
I0321 10:33:08.709517   912 net.cpp:453] conv2 <- norm1
I0321 10:33:08.709519   912 net.cpp:411] conv2 -> conv2
I0321 10:33:08.709524   912 net.cpp:163] Setting up conv2
I0321 10:33:08.765096   912 cudnn_conv_layer.cpp:348] fft context time 2.94765 mem 95257600
I0321 10:33:08.796036   912 net.cpp:170] Top shape: 50 256 27 27 (9331200)
I0321 10:33:08.796046   912 layer_factory.hpp:74] Creating layer relu2
I0321 10:33:08.796051   912 net.cpp:133] Creating Layer relu2
I0321 10:33:08.796052   912 net.cpp:453] relu2 <- conv2
I0321 10:33:08.796054   912 net.cpp:400] relu2 -> conv2 (in-place)
I0321 10:33:08.796058   912 net.cpp:163] Setting up relu2
I0321 10:33:08.796165   912 net.cpp:170] Top shape: 50 256 27 27 (9331200)
I0321 10:33:08.796170   912 layer_factory.hpp:74] Creating layer pool2
I0321 10:33:08.796175   912 net.cpp:133] Creating Layer pool2
I0321 10:33:08.796176   912 net.cpp:453] pool2 <- conv2
I0321 10:33:08.796180   912 net.cpp:411] pool2 -> pool2
I0321 10:33:08.796185   912 net.cpp:163] Setting up pool2
I0321 10:33:08.796356   912 net.cpp:170] Top shape: 50 256 13 13 (2163200)
I0321 10:33:08.796362   912 layer_factory.hpp:74] Creating layer norm2
I0321 10:33:08.796366   912 net.cpp:133] Creating Layer norm2
I0321 10:33:08.796367   912 net.cpp:453] norm2 <- pool2
I0321 10:33:08.796370   912 net.cpp:411] norm2 -> norm2
I0321 10:33:08.796373   912 net.cpp:163] Setting up norm2
I0321 10:33:08.796377   912 net.cpp:170] Top shape: 50 256 13 13 (2163200)
I0321 10:33:08.796378   912 layer_factory.hpp:74] Creating layer conv3
I0321 10:33:08.796382   912 net.cpp:133] Creating Layer conv3
I0321 10:33:08.796385   912 net.cpp:453] conv3 <- norm2
I0321 10:33:08.796387   912 net.cpp:411] conv3 -> conv3
I0321 10:33:08.796391   912 net.cpp:163] Setting up conv3
I0321 10:33:08.894263   912 cudnn_conv_layer.cpp:348] fft context time 4.13642 mem 239471616
I0321 10:33:08.950103   912 net.cpp:170] Top shape: 50 384 13 13 (3244800)
I0321 10:33:08.950116   912 layer_factory.hpp:74] Creating layer relu3
I0321 10:33:08.950122   912 net.cpp:133] Creating Layer relu3
I0321 10:33:08.950125   912 net.cpp:453] relu3 <- conv3
I0321 10:33:08.950129   912 net.cpp:400] relu3 -> conv3 (in-place)
I0321 10:33:08.950132   912 net.cpp:163] Setting up relu3
I0321 10:33:08.950247   912 net.cpp:170] Top shape: 50 384 13 13 (3244800)
I0321 10:33:08.950251   912 layer_factory.hpp:74] Creating layer conv4
I0321 10:33:08.950258   912 net.cpp:133] Creating Layer conv4
I0321 10:33:08.950259   912 net.cpp:453] conv4 <- conv3
I0321 10:33:08.950263   912 net.cpp:411] conv4 -> conv4
I0321 10:33:08.950268   912 net.cpp:163] Setting up conv4
I0321 10:33:08.998975   912 cudnn_conv_layer.cpp:348] fft context time 1.77613 mem 91424256
I0321 10:33:09.024045   912 net.cpp:170] Top shape: 50 384 13 13 (3244800)
I0321 10:33:09.024061   912 layer_factory.hpp:74] Creating layer relu4
I0321 10:33:09.024065   912 net.cpp:133] Creating Layer relu4
I0321 10:33:09.024068   912 net.cpp:453] relu4 <- conv4
I0321 10:33:09.024071   912 net.cpp:400] relu4 -> conv4 (in-place)
I0321 10:33:09.024075   912 net.cpp:163] Setting up relu4
I0321 10:33:09.024193   912 net.cpp:170] Top shape: 50 384 13 13 (3244800)
I0321 10:33:09.024197   912 layer_factory.hpp:74] Creating layer conv5
I0321 10:33:09.024201   912 net.cpp:133] Creating Layer conv5
I0321 10:33:09.024204   912 net.cpp:453] conv5 <- conv4
I0321 10:33:09.024207   912 net.cpp:411] conv5 -> conv5
I0321 10:33:09.024211   912 net.cpp:163] Setting up conv5
I0321 10:33:09.055582   912 cudnn_conv_layer.cpp:348] fft context time 1.37491 mem 60949504
I0321 10:33:09.073084   912 net.cpp:170] Top shape: 50 256 13 13 (2163200)
I0321 10:33:09.073096   912 layer_factory.hpp:74] Creating layer relu5
I0321 10:33:09.073101   912 net.cpp:133] Creating Layer relu5
I0321 10:33:09.073103   912 net.cpp:453] relu5 <- conv5
I0321 10:33:09.073107   912 net.cpp:400] relu5 -> conv5 (in-place)
I0321 10:33:09.073110   912 net.cpp:163] Setting up relu5
I0321 10:33:09.073216   912 net.cpp:170] Top shape: 50 256 13 13 (2163200)
I0321 10:33:09.073222   912 layer_factory.hpp:74] Creating layer pool5
I0321 10:33:09.073230   912 net.cpp:133] Creating Layer pool5
I0321 10:33:09.073230   912 net.cpp:453] pool5 <- conv5
I0321 10:33:09.073233   912 net.cpp:411] pool5 -> pool5
I0321 10:33:09.073237   912 net.cpp:163] Setting up pool5
I0321 10:33:09.073413   912 net.cpp:170] Top shape: 50 256 6 6 (460800)
I0321 10:33:09.073420   912 layer_factory.hpp:74] Creating layer gather_pool5_to_fc6
I0321 10:33:09.073424   912 net.cpp:133] Creating Layer gather_pool5_to_fc6
I0321 10:33:09.073427   912 net.cpp:453] gather_pool5_to_fc6 <- pool5
I0321 10:33:09.073431   912 net.cpp:411] gather_pool5_to_fc6 -> gathered_pool5
I0321 10:33:09.073436   912 net.cpp:163] Setting up gather_pool5_to_fc6
I0321 10:33:09.073441   912 net.cpp:170] Top shape: 100 256 6 6 (921600)
I0321 10:33:09.073442   912 layer_factory.hpp:74] Creating layer fc6
I0321 10:33:09.073446   912 net.cpp:133] Creating Layer fc6
I0321 10:33:09.073448   912 net.cpp:453] fc6 <- gathered_pool5
I0321 10:33:09.073454   912 net.cpp:411] fc6 -> fc6
I0321 10:33:09.073460   912 net.cpp:163] Setting up fc6
I0321 10:33:09.314692   912 net.cpp:170] Top shape: 100 4096 (409600)
I0321 10:33:09.314716   912 layer_factory.hpp:74] Creating layer relu6
I0321 10:33:09.314724   912 net.cpp:133] Creating Layer relu6
I0321 10:33:09.314728   912 net.cpp:453] relu6 <- fc6
I0321 10:33:09.314733   912 net.cpp:400] relu6 -> fc6 (in-place)
I0321 10:33:09.314738   912 net.cpp:163] Setting up relu6
I0321 10:33:09.315028   912 net.cpp:170] Top shape: 100 4096 (409600)
I0321 10:33:09.315034   912 layer_factory.hpp:74] Creating layer drop6
I0321 10:33:09.315039   912 net.cpp:133] Creating Layer drop6
I0321 10:33:09.315042   912 net.cpp:453] drop6 <- fc6
I0321 10:33:09.315044   912 net.cpp:400] drop6 -> fc6 (in-place)
I0321 10:33:09.315047   912 net.cpp:163] Setting up drop6
I0321 10:33:09.315052   912 net.cpp:170] Top shape: 100 4096 (409600)
I0321 10:33:09.315052   912 layer_factory.hpp:74] Creating layer fc7
I0321 10:33:09.315057   912 net.cpp:133] Creating Layer fc7
I0321 10:33:09.315058   912 net.cpp:453] fc7 <- fc6
I0321 10:33:09.315062   912 net.cpp:411] fc7 -> fc7
I0321 10:33:09.315073   912 net.cpp:163] Setting up fc7
I0321 10:33:09.422451   912 net.cpp:170] Top shape: 100 4096 (409600)
I0321 10:33:09.422475   912 layer_factory.hpp:74] Creating layer relu7
I0321 10:33:09.422483   912 net.cpp:133] Creating Layer relu7
I0321 10:33:09.422487   912 net.cpp:453] relu7 <- fc7
I0321 10:33:09.422490   912 net.cpp:400] relu7 -> fc7 (in-place)
I0321 10:33:09.422497   912 net.cpp:163] Setting up relu7
I0321 10:33:09.422683   912 net.cpp:170] Top shape: 100 4096 (409600)
I0321 10:33:09.422689   912 layer_factory.hpp:74] Creating layer drop7
I0321 10:33:09.422694   912 net.cpp:133] Creating Layer drop7
I0321 10:33:09.422695   912 net.cpp:453] drop7 <- fc7
I0321 10:33:09.422699   912 net.cpp:400] drop7 -> fc7 (in-place)
I0321 10:33:09.422703   912 net.cpp:163] Setting up drop7
I0321 10:33:09.422706   912 net.cpp:170] Top shape: 100 4096 (409600)
I0321 10:33:09.422708   912 layer_factory.hpp:74] Creating layer fc8_clean
I0321 10:33:09.422713   912 net.cpp:133] Creating Layer fc8_clean
I0321 10:33:09.422714   912 net.cpp:453] fc8_clean <- fc7
I0321 10:33:09.422718   912 net.cpp:411] fc8_clean -> fc8_clean
I0321 10:33:09.422721   912 net.cpp:163] Setting up fc8_clean
I0321 10:33:09.423128   912 net.cpp:170] Top shape: 100 14 (1400)
I0321 10:33:09.423135   912 layer_factory.hpp:74] Creating layer fc8_clean_fc8_clean_0_split
I0321 10:33:09.423138   912 net.cpp:133] Creating Layer fc8_clean_fc8_clean_0_split
I0321 10:33:09.423141   912 net.cpp:453] fc8_clean_fc8_clean_0_split <- fc8_clean
I0321 10:33:09.423143   912 net.cpp:411] fc8_clean_fc8_clean_0_split -> fc8_clean_fc8_clean_0_split_0
I0321 10:33:09.423147   912 net.cpp:411] fc8_clean_fc8_clean_0_split -> fc8_clean_fc8_clean_0_split_1
I0321 10:33:09.423151   912 net.cpp:163] Setting up fc8_clean_fc8_clean_0_split
I0321 10:33:09.423153   912 net.cpp:170] Top shape: 100 14 (1400)
I0321 10:33:09.423156   912 net.cpp:170] Top shape: 100 14 (1400)
I0321 10:33:09.423156   912 layer_factory.hpp:74] Creating layer gather_label_data_1_split_to_accuracy
I0321 10:33:09.423159   912 net.cpp:133] Creating Layer gather_label_data_1_split_to_accuracy
I0321 10:33:09.423161   912 net.cpp:453] gather_label_data_1_split_to_accuracy <- label_data_1_split_0
I0321 10:33:09.423163   912 net.cpp:411] gather_label_data_1_split_to_accuracy -> gathered_label_data_1_split_0
I0321 10:33:09.423166   912 net.cpp:163] Setting up gather_label_data_1_split_to_accuracy
I0321 10:33:09.423169   912 net.cpp:170] Top shape: 100 (100)
I0321 10:33:09.423171   912 layer_factory.hpp:74] Creating layer accuracy
I0321 10:33:09.423174   912 net.cpp:133] Creating Layer accuracy
I0321 10:33:09.423177   912 net.cpp:453] accuracy <- fc8_clean_fc8_clean_0_split_0
I0321 10:33:09.423178   912 net.cpp:453] accuracy <- gathered_label_data_1_split_0
I0321 10:33:09.423180   912 net.cpp:411] accuracy -> accuracy
I0321 10:33:09.423184   912 net.cpp:163] Setting up accuracy
I0321 10:33:09.423187   912 net.cpp:170] Top shape: (1)
I0321 10:33:09.423188   912 layer_factory.hpp:74] Creating layer gather_label_data_1_split_to_loss
I0321 10:33:09.423190   912 net.cpp:133] Creating Layer gather_label_data_1_split_to_loss
I0321 10:33:09.423192   912 net.cpp:453] gather_label_data_1_split_to_loss <- label_data_1_split_1
I0321 10:33:09.423194   912 net.cpp:411] gather_label_data_1_split_to_loss -> gathered_label_data_1_split_1
I0321 10:33:09.423197   912 net.cpp:163] Setting up gather_label_data_1_split_to_loss
I0321 10:33:09.423199   912 net.cpp:170] Top shape: 100 (100)
I0321 10:33:09.423200   912 layer_factory.hpp:74] Creating layer loss
I0321 10:33:09.423203   912 net.cpp:133] Creating Layer loss
I0321 10:33:09.423204   912 net.cpp:453] loss <- fc8_clean_fc8_clean_0_split_1
I0321 10:33:09.423207   912 net.cpp:453] loss <- gathered_label_data_1_split_1
I0321 10:33:09.423209   912 net.cpp:411] loss -> loss
I0321 10:33:09.423213   912 net.cpp:163] Setting up loss
…
