…
    source: "external/exp/db/clothing1M/mixed_train_images"
    batch_size: 128
    backend: LMDB
  }
}
layer {
  name: "label_clean"
  type: "Data"
  top: "label_clean"
  include {
    phase: TRAIN
  }
  data_param {
    source: "external/exp/db/clothing1M/mixed_train_label_clean"
    batch_size: 128
    backend: LMDB
  }
}
layer {
  name: "label_noisy"
  type: "Data"
  top: "label_noisy"
  include {
    phase: TRAIN
  }
  data_param {
    source: "external/exp/db/clothing1M/mixed_train_label_noisy"
    batch_size: 128
    backend: LMDB
  }
}
layer {
  name: "conv1_clean"
  type: "Convolution"
  bottom: "data"
  top: "conv1_clean"
  param {
    lr_mult: 1
    decay_mult: 1
  }
  param {
    lr_mult: 2
    decay_mult: 0
  }
  convolution_param {
    num_output: 96
    kernel_size: 11
    stride: 4
    weight_filler {
      type: "gaussian"
      std: 0.01
    }
    bias_filler {
      type: "constant"
      value: 0
    }
  }
}
layer {
  name: "relu1_clean"
  type: "ReLU"
  bottom: "conv1_clean"
  top: "conv1_clean"
}
layer {
  name: "pool1_clean"
  type: "Pooling"
  bottom: "conv1_clean"
  top: "pool1_clean"
  pooling_param {
    pool: MAX
    kernel_size: 3
    stride: 2
  }
}
layer {
  name: "norm1_clean"
  type: "LRN"
  bottom: "pool1_clean"
  top: "norm1_clean"
  lrn_param {
    local_size: 5
    alpha: 0.0001
    beta: 0.75
  }
}
layer {
  name: "conv2_clean"
  type: "Convolution"
  bottom: "norm1_clean"
  top: "conv2_clean"
  param {
    lr_mult: 1
    decay_mult: 1
  }
  param {
    lr_mult: 2
    decay_mult: 0
  }
  convolution_param {
    num_output: 256
    pad: 2
    kernel_size: 5
    group: 2
    weight_filler {
      type: "gaussian"
      std: 0.01
    }
    bias_filler {
      type: "constant"
      value: 1
    }
  }
}
layer {
  name: "relu2_clean"
  type: "ReLU"
  bottom: "conv2_clean"
  top: "conv2_clean"
}
layer {
  name: "pool2_clean"
  type: "Pooling"
  bottom: "conv2_clean"
  top: "pool2_clean"
  pooling_param {
    pool: MAX
    kernel_size: 3
    stride: 2
  }
}
layer {
  name: "norm2_clean"
  type: "LRN"
  bottom: "pool2_clean"
  top: "norm2_clean"
  lrn_param {
    local_size: 5
    alpha: 0.0001
    beta: 0.75
  }
}
layer {
  name: "conv3_clean"
  type: "Convolution"
  bottom: "norm2_clean"
  top: "conv3_clean"
  param {
    lr_mult: 1
    decay_mult: 1
  }
  param {
    lr_mult: 2
    decay_mult: 0
  }
  convolution_param {
    num_output: 384
    pad: 1
    kernel_size: 3
    weight_filler {
      type: "gaussian"
      std: 0.01
    }
    bias_filler {
      type: "constant"
      value: 0
    }
  }
}
layer {
  name: "relu3_clean"
  type: "ReLU"
  bottom: "conv3_clean"
  top: "conv3_clean"
}
layer {
  name: "conv4_clean"
  type: "Convolution"
  bottom: "conv3_clean"
  top: "conv4_clean"
  param {
    lr_mult: 1
    decay_mult: 1
  }
  param {
    lr_mult: 2
    decay_mult: 0
  }
  convolution_param {
    num_output: 384
    pad: 1
    kernel_size: 3
    group: 2
    weight_filler {
      type: "gaussian"
      std: 0.01
    }
    bias_filler {
      type: "constant"
      value: 1
    }
  }
}
layer {
  name: "relu4_clean"
  type: "ReLU"
  bottom: "conv4_clean"
  top: "conv4_clean"
}
layer {
  name: "conv5_clean"
  type: "Convolution"
  bottom: "conv4_clean"
  top: "conv5_clean"
  param {
    lr_mult: 1
    decay_mult: 1
  }
  param {
    lr_mult: 2
    decay_mult: 0
  }
  convolution_param {
    num_output: 256
    pad: 1
    kernel_size: 3
    group: 2
    weight_filler {
      type: "gaussian"
      std: 0.01
    }
    bias_filler {
      type: "constant"
      value: 1
    }
  }
}
layer {
  name: "relu5_clean"
  type: "ReLU"
  bottom: "conv5_clean"
  top: "conv5_clean"
}
layer {
  name: "pool5_clean"
  type: "Pooling"
  bottom: "conv5_clean"
  top: "pool5_clean"
  pooling_param {
    pool: MAX
    kernel_size: 3
    stride: 2
  }
}
layer {
  name: "fc6_clean"
  type: "InnerProduct"
  bottom: "pool5_clean"
  top: "fc6_clean"
  param {
    lr_mult: 1
    decay_mult: 1
  }
  param {
    lr_mult: 2
    decay_mult: 0
  }
  inner_product_param {
    num_output: 4096
    weight_filler {
      type: "gaussian"
      std: 0.005
    }
    bias_filler {
      type: "constant"
      value: 1
    }
  }
}
layer {
  name: "relu6_clean"
  type: "ReLU"
  bottom: "fc6_clean"
  top: "fc6_clean"
}
layer {
  name: "drop6_clean"
  type: "Dropout"
  bottom: "fc6_clean"
  top: "fc6_clean"
  dropout_param {
    dropout_ratio: 0.5
  }
}
layer {
  name: "fc7_clean"
  type: "InnerProduct"
  bottom: "fc6_clean"
  top: "fc7_clean"
  param {
    lr_mult: 1
    decay_mult: 1
  }
  param {
    lr_mult: 2
    decay_mult: 0
  }
  inner_product_param {
    num_output: 4096
    weight_filler {
      type: "gaussian"
      std: 0.005
    }
    bias_filler {
      type: "constant"
      value: 1
    }
  }
}
layer {
  name: "relu7_clean"
  type: "ReLU"
  bottom: "fc7_clean"
  top: "fc7_clean"
}
layer {
  name: "drop7_clean"
  type: "Dropout"
  bottom: "fc7_clean"
  top: "fc7_clean"
  dropout_param {
    dropout_ratio: 0.5
  }
}
layer {
  name: "fc8_clean"
  type: "InnerProduct"
  bottom: "fc7_clean"
  top: "fc8_clean"
  param {
    lr_mult: 1
    decay_mult: 1
  }
  param {
    lr_mult: 2
    decay_mult: 0
  }
  inner_product_param {
    num_output: 14
    weight_filler {
      type: "gaussian"
      std: 0.01
    }
    bias_filler {
      type: "constant"
      value: 0
    }
  }
}
layer {
  name: "loss_clean"
  type: "SoftmaxWithLoss"
  bottom: "fc8_clean"
  bottom: "label_clean"
  top: "loss_clean"
  loss_weight: 0.1
  loss_param {
    ignore_label: -1
    normalize: false
  }
}
layer {
  name: "conv1_ntype"
  type: "Convolution"
  bottom: "data"
  top: "conv1_ntype"
  param {
    lr_mult: 1
    decay_mult: 1
  }
  param {
    lr_mult: 2
    decay_mult: 0
  }
  include {
    phase: TRAIN
  }
  convolution_param {
    num_output: 96
    kernel_size: 11
    stride: 4
    weight_filler {
      type: "gaussian"
      std: 0.01
    }
    bias_filler {
      type: "constant"
      value: 0
    }
  }
}
layer {
  name: "relu1_ntype"
  type: "ReLU"
  bottom: "conv1_ntype"
  top: "conv1_ntype"
  include {
    phase: TRAIN
  }
}
layer {
  name: "pool1_ntype"
  type: "Pooling"
  bottom: "conv1_ntype"
  top: "pool1_ntype"
  include {
    phase: TRAIN
  }
  pooling_param {
    pool: MAX
    kernel_size: 3
    stride: 2
  }
}
layer {
  name: "norm1_ntype"
  type: "LRN"
  bottom: "pool1_ntype"
  top: "norm1_ntype"
  include {
    phase: TRAIN
  }
  lrn_param {
    local_size: 5
    alpha: 0.0001
    beta: 0.75
  }
}
layer {
  name: "conv2_ntype"
  type: "Convolution"
  bottom: "norm1_ntype"
  top: "conv2_ntype"
  param {
    lr_mult: 1
    decay_mult: 1
  }
  param {
    lr_mult: 2
    decay_mult: 0
  }
  include {
    phase: TRAIN
  }
  convolution_param {
    num_output: 256
    pad: 2
    kernel_size: 5
    group: 2
    weight_filler {
      type: "gaussian"
      std: 0.01
    }
    bias_filler {
      type: "constant"
      value: 1
    }
  }
}
layer {
  name: "relu2_ntype"
  type: "ReLU"
  bottom: "conv2_ntype"
  top: "conv2_ntype"
  include {
    phase: TRAIN
  }
}
layer {
  name: "pool2_ntype"
  type: "Pooling"
  bottom: "conv2_ntype"
  top: "pool2_ntype"
  include {
    phase: TRAIN
  }
  pooling_param {
    pool: MAX
    kernel_size: 3
    stride: 2
  }
}
layer {
  name: "norm2_ntype"
  type: "LRN"
  bottom: "pool2_ntype"
  top: "norm2_ntype"
  include {
    phase: TRAIN
  }
  lrn_param {
    local_size: 5
    alpha: 0.0001
    beta: 0.75
  }
}
layer {
  name: "conv3_ntype"
  type: "Convolution"
  bottom: "norm2_ntype"
  top: "conv3_ntype"
  param {
    lr_mult: 1
    decay_mult: 1
  }
  param {
    lr_mult: 2
    decay_mult: 0
  }
  include {
    phase: TRAIN
  }
  convolution_param {
    num_output: 384
    pad: 1
    kernel_size: 3
    weight_filler {
      type: "gaussian"
      std: 0.01
    }
    bias_filler {
      type: "constant"
      value: 0
    }
  }
}
layer {
  name: "relu3_ntype"
  type: "ReLU"
  bottom: "conv3_ntype"
  top: "conv3_ntype"
  include {
    phase: TRAIN
  }
}
layer {
  name: "conv4_ntype"
  type: "Convolution"
  bottom: "conv3_ntype"
  top: "conv4_ntype"
  param {
    lr_mult: 1
    decay_mult: 1
  }
  param {
    lr_mult: 2
    decay_mult: 0
  }
  include {
    phase: TRAIN
  }
  convolution_param {
    num_output: 384
    pad: 1
    kernel_size: 3
    group: 2
    weight_filler {
      type: "gaussian"
      std: 0.01
    }
    bias_filler {
      type: "constant"
      value: 1
    }
  }
}
layer {
  name: "relu4_ntype"
  type: "ReLU"
  bottom: "conv4_ntype"
  top: "conv4_ntype"
  include {
    phase: TRAIN
  }
}
layer {
  name: "conv5_ntype"
  type: "Convolution"
  bottom: "conv4_ntype"
  top: "conv5_ntype"
  param {
    lr_mult: 1
    decay_mult: 1
  }
  param {
    lr_mult: 2
    decay_mult: 0
  }
  include {
    phase: TRAIN
  }
  convolution_param {
    num_output: 256
    pad: 1
    kernel_size: 3
    group: 2
    weight_filler {
      type: "gaussian"
      std: 0.01
    }
    bias_filler {
      type: "constant"
      value: 1
    }
  }
}
layer {
  name: "relu5_ntype"
  type: "ReLU"
  bottom: "conv5_ntype"
  top: "conv5_ntype"
  include {
    phase: TRAIN
  }
}
layer {
  name: "pool5_ntype"
  type: "Pooling"
  bottom: "conv5_ntype"
  top: "pool5_ntype"
  include {
    phase: TRAIN
  }
  pooling_param {
    pool: MAX
    kernel_size: 3
    stride: 2
  }
}
layer {
  name: "fc6_ntype"
  type: "InnerProduct"
  bottom: "pool5_ntype"
  top: "fc6_ntype"
  param {
    lr_mult: 1
    decay_mult: 1
  }
  param {
    lr_mult: 2
    decay_mult: 0
  }
  include {
    phase: TRAIN
  }
  inner_product_param {
    num_output: 4096
    weight_filler {
      type: "gaussian"
      std: 0.005
    }
    bias_filler {
      type: "constant"
      value: 1
    }
  }
}
layer {
  name: "relu6_ntype"
  type: "ReLU"
  bottom: "fc6_ntype"
  top: "fc6_ntype"
  include {
    phase: TRAIN
  }
}
layer {
  name: "drop6_ntype"
  type: "Dropout"
  bottom: "fc6_ntype"
  top: "fc6_ntype"
  include {
    phase: TRAIN
  }
  dropout_param {
    dropout_ratio: 0.5
  }
}
layer {
  name: "fc7_ntype"
  type: "InnerProduct"
  bottom: "fc6_ntype"
  top: "fc7_ntype"
  param {
    lr_mult: 1
    decay_mult: 1
  }
  param {
    lr_mult: 2
    decay_mult: 0
  }
  include {
    phase: TRAIN
  }
  inner_product_param {
    num_output: 1024
    weight_filler {
      type: "gaussian"
      std: 0.005
    }
    bias_filler {
      type: "constant"
      value: 1
    }
  }
}
layer {
  name: "relu7_ntype"
  type: "ReLU"
  bottom: "fc7_ntype"
  top: "fc7_ntype"
  include {
    phase: TRAIN
  }
}
layer {
  name: "drop7_ntype"
  type: "Dropout"
  bottom: "fc7_ntype"
  top: "fc7_ntype"
  include {
    phase: TRAIN
  }
  dropout_param {
    dropout_ratio: 0.5
  }
}
layer {
  name: "fc8_ntype"
  type: "InnerProduct"
  bottom: "fc7_ntype"
  top: "fc8_ntype"
  param {
    lr_mult: 1
    decay_mult: 1
  }
  param {
    lr_mult: 2
    decay_mult: 0
  }
  include {
    phase: TRAIN
  }
  inner_product_param {
    num_output: 3
    weight_filler {
      type: "gaussian"
      std: 0.01
    }
    bias_filler {
      type: "constant"
      value: 0
    }
  }
}
layer {
  name: "loss_noisy"
  type: "SoftmaxWithNoisyLabelLoss"
  bottom: "fc8_clean"
  bottom: "fc8_ntype"
  bottom: "label_noisy"
  top: "loss_noisy"
  loss_weight: 1
  param {
    lr_mult: 0
    decay_mult: 0
  }
  include {
    phase: TRAIN
  }
  softmax_noisy_label_loss_param {
    update_noise_lr: 0
    matrix_c_filler {
      type: "blob_proto"
      source: "external/exp/db/clothing1M/matrix_c.binaryproto"
    }
  }
}
I0321 19:35:47.751711 16412 layer_factory.hpp:74] Creating layer data
I0321 19:35:47.751736 16412 net.cpp:133] Creating Layer data
I0321 19:35:47.751741 16412 net.cpp:411] data -> data
I0321 19:35:47.751750 16412 net.cpp:163] Setting up data
I0321 19:35:47.751754 16412 data_transformer.cpp:23] Loading mean file from: external/exp/db/clothing1M/clothing1M_mean.binaryproto
I0321 19:35:47.753481 16412 db_lmdb.cpp:22] Opened lmdb external/exp/db/clothing1M/mixed_train_images
I0321 19:35:47.753592 16412 data_layer.cpp:55] Skipping first 0 data points.
I0321 19:35:47.754120 16412 data_layer.cpp:100] output data size: 64,3,227,227
I0321 19:35:47.754320 16412 net.cpp:170] Top shape: 64 3 227 227 (9893568)
I0321 19:35:47.754340 16412 layer_factory.hpp:74] Creating layer data_data_0_split
I0321 19:35:47.754354 16412 net.cpp:133] Creating Layer data_data_0_split
I0321 19:35:47.754359 16412 net.cpp:453] data_data_0_split <- data
I0321 19:35:47.754369 16412 net.cpp:411] data_data_0_split -> data_data_0_split_0
I0321 19:35:47.754379 16412 net.cpp:411] data_data_0_split -> data_data_0_split_1
I0321 19:35:47.754390 16412 net.cpp:163] Setting up data_data_0_split
I0321 19:35:47.754397 16412 net.cpp:170] Top shape: 64 3 227 227 (9893568)
I0321 19:35:47.754402 16412 net.cpp:170] Top shape: 64 3 227 227 (9893568)
I0321 19:35:47.754405 16412 layer_factory.hpp:74] Creating layer label_clean
I0321 19:35:47.754413 16412 net.cpp:133] Creating Layer label_clean
I0321 19:35:47.754420 16412 net.cpp:411] label_clean -> label_clean
I0321 19:35:47.754425 16412 net.cpp:163] Setting up label_clean
I0321 19:35:47.754475 16412 db_lmdb.cpp:22] Opened lmdb external/exp/db/clothing1M/mixed_train_label_clean
I0321 19:35:47.754492 16412 data_layer.cpp:55] Skipping first 0 data points.
I0321 19:35:47.754501 16412 data_layer.cpp:100] output data size: 64,1,1,1
I0321 19:35:47.754524 16412 net.cpp:170] Top shape: 64 1 1 1 (64)
I0321 19:35:47.754529 16412 layer_factory.hpp:74] Creating layer label_noisy
I0321 19:35:47.754535 16412 net.cpp:133] Creating Layer label_noisy
I0321 19:35:47.754539 16412 net.cpp:411] label_noisy -> label_noisy
I0321 19:35:47.754546 16412 net.cpp:163] Setting up label_noisy
I0321 19:35:47.754572 16412 db_lmdb.cpp:22] Opened lmdb external/exp/db/clothing1M/mixed_train_label_noisy
I0321 19:35:47.754580 16412 data_layer.cpp:55] Skipping first 0 data points.
I0321 19:35:47.754588 16412 data_layer.cpp:100] output data size: 64,1,1,1
I0321 19:35:47.754607 16412 net.cpp:170] Top shape: 64 1 1 1 (64)
I0321 19:35:47.754613 16412 layer_factory.hpp:74] Creating layer conv1_clean
I0321 19:35:47.754622 16412 net.cpp:133] Creating Layer conv1_clean
I0321 19:35:47.754627 16412 net.cpp:453] conv1_clean <- data_data_0_split_0
I0321 19:35:47.754637 16412 net.cpp:411] conv1_clean -> conv1_clean
I0321 19:35:47.754644 16412 net.cpp:163] Setting up conv1_clean
I0321 19:35:52.412307 16412 net.cpp:170] Top shape: 64 96 55 55 (18585600)
I0321 19:35:52.412329 16412 layer_factory.hpp:74] Creating layer relu1_clean
I0321 19:35:52.412334 16412 net.cpp:133] Creating Layer relu1_clean
I0321 19:35:52.412338 16412 net.cpp:453] relu1_clean <- conv1_clean
I0321 19:35:52.412340 16412 net.cpp:400] relu1_clean -> conv1_clean (in-place)
I0321 19:35:52.412345 16412 net.cpp:163] Setting up relu1_clean
I0321 19:35:52.412457 16412 net.cpp:170] Top shape: 64 96 55 55 (18585600)
I0321 19:35:52.412463 16412 layer_factory.hpp:74] Creating layer pool1_clean
I0321 19:35:52.412469 16412 net.cpp:133] Creating Layer pool1_clean
I0321 19:35:52.412472 16412 net.cpp:453] pool1_clean <- conv1_clean
I0321 19:35:52.412474 16412 net.cpp:411] pool1_clean -> pool1_clean
I0321 19:35:52.412477 16412 net.cpp:163] Setting up pool1_clean
I0321 19:35:52.412644 16412 net.cpp:170] Top shape: 64 96 27 27 (4478976)
I0321 19:35:52.412650 16412 layer_factory.hpp:74] Creating layer norm1_clean
I0321 19:35:52.412655 16412 net.cpp:133] Creating Layer norm1_clean
I0321 19:35:52.412657 16412 net.cpp:453] norm1_clean <- pool1_clean
I0321 19:35:52.412659 16412 net.cpp:411] norm1_clean -> norm1_clean
I0321 19:35:52.412663 16412 net.cpp:163] Setting up norm1_clean
I0321 19:35:52.412667 16412 net.cpp:170] Top shape: 64 96 27 27 (4478976)
I0321 19:35:52.412668 16412 layer_factory.hpp:74] Creating layer conv2_clean
I0321 19:35:52.412673 16412 net.cpp:133] Creating Layer conv2_clean
I0321 19:35:52.412675 16412 net.cpp:453] conv2_clean <- norm1_clean
I0321 19:35:52.412678 16412 net.cpp:411] conv2_clean -> conv2_clean
I0321 19:35:52.412683 16412 net.cpp:163] Setting up conv2_clean
I0321 19:35:52.481057 16412 cudnn_conv_layer.cpp:348] fft context time 3.22624 mem 121929728
I0321 19:35:52.519700 16412 net.cpp:170] Top shape: 64 256 27 27 (11943936)
I0321 19:35:52.519711 16412 layer_factory.hpp:74] Creating layer relu2_clean
I0321 19:35:52.519716 16412 net.cpp:133] Creating Layer relu2_clean
I0321 19:35:52.519718 16412 net.cpp:453] relu2_clean <- conv2_clean
I0321 19:35:52.519721 16412 net.cpp:400] relu2_clean -> conv2_clean (in-place)
I0321 19:35:52.519726 16412 net.cpp:163] Setting up relu2_clean
I0321 19:35:52.519829 16412 net.cpp:170] Top shape: 64 256 27 27 (11943936)
I0321 19:35:52.519834 16412 layer_factory.hpp:74] Creating layer pool2_clean
I0321 19:35:52.519837 16412 net.cpp:133] Creating Layer pool2_clean
I0321 19:35:52.519839 16412 net.cpp:453] pool2_clean <- conv2_clean
I0321 19:35:52.519841 16412 net.cpp:411] pool2_clean -> pool2_clean
I0321 19:35:52.519845 16412 net.cpp:163] Setting up pool2_clean
I0321 19:35:52.520009 16412 net.cpp:170] Top shape: 64 256 13 13 (2768896)
I0321 19:35:52.520015 16412 layer_factory.hpp:74] Creating layer norm2_clean
I0321 19:35:52.520017 16412 net.cpp:133] Creating Layer norm2_clean
I0321 19:35:52.520020 16412 net.cpp:453] norm2_clean <- pool2_clean
I0321 19:35:52.520023 16412 net.cpp:411] norm2_clean -> norm2_clean
I0321 19:35:52.520026 16412 net.cpp:163] Setting up norm2_clean
I0321 19:35:52.520030 16412 net.cpp:170] Top shape: 64 256 13 13 (2768896)
I0321 19:35:52.520031 16412 layer_factory.hpp:74] Creating layer conv3_clean
I0321 19:35:52.520036 16412 net.cpp:133] Creating Layer conv3_clean
I0321 19:35:52.520037 16412 net.cpp:453] conv3_clean <- norm2_clean
I0321 19:35:52.520040 16412 net.cpp:411] conv3_clean -> conv3_clean
I0321 19:35:52.520043 16412 net.cpp:163] Setting up conv3_clean
I0321 19:35:52.636118 16412 cudnn_conv_layer.cpp:348] fft context time 4.47498 mem 243105792
I0321 19:35:52.699110 16412 net.cpp:170] Top shape: 64 384 13 13 (4153344)
I0321 19:35:52.699123 16412 layer_factory.hpp:74] Creating layer relu3_clean
I0321 19:35:52.699128 16412 net.cpp:133] Creating Layer relu3_clean
I0321 19:35:52.699131 16412 net.cpp:453] relu3_clean <- conv3_clean
I0321 19:35:52.699133 16412 net.cpp:400] relu3_clean -> conv3_clean (in-place)
I0321 19:35:52.699136 16412 net.cpp:163] Setting up relu3_clean
I0321 19:35:52.699316 16412 net.cpp:170] Top shape: 64 384 13 13 (4153344)
I0321 19:35:52.699322 16412 layer_factory.hpp:74] Creating layer conv4_clean
I0321 19:35:52.699327 16412 net.cpp:133] Creating Layer conv4_clean
I0321 19:35:52.699329 16412 net.cpp:453] conv4_clean <- conv3_clean
I0321 19:35:52.699332 16412 net.cpp:411] conv4_clean -> conv4_clean
I0321 19:35:52.699337 16412 net.cpp:163] Setting up conv4_clean
I0321 19:35:52.756356 16412 cudnn_conv_layer.cpp:348] fft context time 1.89843 mem 93241344
I0321 19:35:52.785920 16412 net.cpp:170] Top shape: 64 384 13 13 (4153344)
I0321 19:35:52.785931 16412 layer_factory.hpp:74] Creating layer relu4_clean
I0321 19:35:52.785938 16412 net.cpp:133] Creating Layer relu4_clean
I0321 19:35:52.785939 16412 net.cpp:453] relu4_clean <- conv4_clean
I0321 19:35:52.785943 16412 net.cpp:400] relu4_clean -> conv4_clean (in-place)
I0321 19:35:52.785946 16412 net.cpp:163] Setting up relu4_clean
I0321 19:35:52.786054 16412 net.cpp:170] Top shape: 64 384 13 13 (4153344)
I0321 19:35:52.786059 16412 layer_factory.hpp:74] Creating layer conv5_clean
I0321 19:35:52.786067 16412 net.cpp:133] Creating Layer conv5_clean
I0321 19:35:52.786069 16412 net.cpp:453] conv5_clean <- conv4_clean
I0321 19:35:52.786072 16412 net.cpp:411] conv5_clean -> conv5_clean
I0321 19:35:52.786077 16412 net.cpp:163] Setting up conv5_clean
I0321 19:35:52.821810 16412 cudnn_conv_layer.cpp:348] fft context time 1.46467 mem 62160896
I0321 19:35:52.842367 16412 net.cpp:170] Top shape: 64 256 13 13 (2768896)
I0321 19:35:52.842383 16412 layer_factory.hpp:74] Creating layer relu5_clean
I0321 19:35:52.842388 16412 net.cpp:133] Creating Layer relu5_clean
I0321 19:35:52.842391 16412 net.cpp:453] relu5_clean <- conv5_clean
I0321 19:35:52.842393 16412 net.cpp:400] relu5_clean -> conv5_clean (in-place)
I0321 19:35:52.842397 16412 net.cpp:163] Setting up relu5_clean
I0321 19:35:52.842505 16412 net.cpp:170] Top shape: 64 256 13 13 (2768896)
I0321 19:35:52.842511 16412 layer_factory.hpp:74] Creating layer pool5_clean
I0321 19:35:52.842515 16412 net.cpp:133] Creating Layer pool5_clean
I0321 19:35:52.842516 16412 net.cpp:453] pool5_clean <- conv5_clean
I0321 19:35:52.842520 16412 net.cpp:411] pool5_clean -> pool5_clean
I0321 19:35:52.842524 16412 net.cpp:163] Setting up pool5_clean
I0321 19:35:52.842761 16412 net.cpp:170] Top shape: 64 256 6 6 (589824)
I0321 19:35:52.842767 16412 layer_factory.hpp:74] Creating layer gather_pool5_clean_to_fc6_clean
I0321 19:35:52.842772 16412 net.cpp:133] Creating Layer gather_pool5_clean_to_fc6_clean
I0321 19:35:52.842773 16412 net.cpp:453] gather_pool5_clean_to_fc6_clean <- pool5_clean
I0321 19:35:52.842777 16412 net.cpp:411] gather_pool5_clean_to_fc6_clean -> gathered_pool5_clean
I0321 19:35:52.842782 16412 net.cpp:163] Setting up gather_pool5_clean_to_fc6_clean
I0321 19:35:52.842788 16412 net.cpp:170] Top shape: 128 256 6 6 (1179648)
I0321 19:35:52.842790 16412 layer_factory.hpp:74] Creating layer fc6_clean
I0321 19:35:52.842797 16412 net.cpp:133] Creating Layer fc6_clean
I0321 19:35:52.842799 16412 net.cpp:453] fc6_clean <- gathered_pool5_clean
I0321 19:35:52.842803 16412 net.cpp:411] fc6_clean -> fc6_clean
I0321 19:35:52.842808 16412 net.cpp:163] Setting up fc6_clean
I0321 19:35:53.084100 16412 net.cpp:170] Top shape: 128 4096 (524288)
I0321 19:35:53.084126 16412 layer_factory.hpp:74] Creating layer relu6_clean
I0321 19:35:53.084137 16412 net.cpp:133] Creating Layer relu6_clean
I0321 19:35:53.084141 16412 net.cpp:453] relu6_clean <- fc6_clean
I0321 19:35:53.084146 16412 net.cpp:400] relu6_clean -> fc6_clean (in-place)
I0321 19:35:53.084151 16412 net.cpp:163] Setting up relu6_clean
I0321 19:35:53.084317 16412 net.cpp:170] Top shape: 128 4096 (524288)
I0321 19:35:53.084321 16412 layer_factory.hpp:74] Creating layer drop6_clean
I0321 19:35:53.084326 16412 net.cpp:133] Creating Layer drop6_clean
I0321 19:35:53.084328 16412 net.cpp:453] drop6_clean <- fc6_clean
I0321 19:35:53.084331 16412 net.cpp:400] drop6_clean -> fc6_clean (in-place)
I0321 19:35:53.084333 16412 net.cpp:163] Setting up drop6_clean
I0321 19:35:53.084339 16412 net.cpp:170] Top shape: 128 4096 (524288)
I0321 19:35:53.084342 16412 layer_factory.hpp:74] Creating layer fc7_clean
I0321 19:35:53.084345 16412 net.cpp:133] Creating Layer fc7_clean
I0321 19:35:53.084347 16412 net.cpp:453] fc7_clean <- fc6_clean
I0321 19:35:53.084349 16412 net.cpp:411] fc7_clean -> fc7_clean
I0321 19:35:53.084353 16412 net.cpp:163] Setting up fc7_clean
I0321 19:35:53.191695 16412 net.cpp:170] Top shape: 128 4096 (524288)
I0321 19:35:53.191710 16412 layer_factory.hpp:74] Creating layer relu7_clean
I0321 19:35:53.191715 16412 net.cpp:133] Creating Layer relu7_clean
I0321 19:35:53.191718 16412 net.cpp:453] relu7_clean <- fc7_clean
I0321 19:35:53.191722 16412 net.cpp:400] relu7_clean -> fc7_clean (in-place)
I0321 19:35:53.191725 16412 net.cpp:163] Setting up relu7_clean
I0321 19:35:53.191984 16412 net.cpp:170] Top shape: 128 4096 (524288)
I0321 19:35:53.191992 16412 layer_factory.hpp:74] Creating layer drop7_clean
I0321 19:35:53.191995 16412 net.cpp:133] Creating Layer drop7_clean
I0321 19:35:53.191998 16412 net.cpp:453] drop7_clean <- fc7_clean
I0321 19:35:53.192000 16412 net.cpp:400] drop7_clean -> fc7_clean (in-place)
I0321 19:35:53.192003 16412 net.cpp:163] Setting up drop7_clean
I0321 19:35:53.192006 16412 net.cpp:170] Top shape: 128 4096 (524288)
I0321 19:35:53.192008 16412 layer_factory.hpp:74] Creating layer fc8_clean
I0321 19:35:53.192013 16412 net.cpp:133] Creating Layer fc8_clean
I0321 19:35:53.192013 16412 net.cpp:453] fc8_clean <- fc7_clean
I0321 19:35:53.192016 16412 net.cpp:411] fc8_clean -> fc8_clean
I0321 19:35:53.192020 16412 net.cpp:163] Setting up fc8_clean
I0321 19:35:53.192428 16412 net.cpp:170] Top shape: 128 14 (1792)
I0321 19:35:53.192435 16412 layer_factory.hpp:74] Creating layer fc8_clean_fc8_clean_0_split
I0321 19:35:53.192438 16412 net.cpp:133] Creating Layer fc8_clean_fc8_clean_0_split
I0321 19:35:53.192440 16412 net.cpp:453] fc8_clean_fc8_clean_0_split <- fc8_clean
I0321 19:35:53.192442 16412 net.cpp:411] fc8_clean_fc8_clean_0_split -> fc8_clean_fc8_clean_0_split_0
I0321 19:35:53.192445 16412 net.cpp:411] fc8_clean_fc8_clean_0_split -> fc8_clean_fc8_clean_0_split_1
I0321 19:35:53.192450 16412 net.cpp:163] Setting up fc8_clean_fc8_clean_0_split
I0321 19:35:53.192452 16412 net.cpp:170] Top shape: 128 14 (1792)
I0321 19:35:53.192454 16412 net.cpp:170] Top shape: 128 14 (1792)
I0321 19:35:53.192456 16412 layer_factory.hpp:74] Creating layer gather_label_clean_to_loss_clean
I0321 19:35:53.192458 16412 net.cpp:133] Creating Layer gather_label_clean_to_loss_clean
I0321 19:35:53.192459 16412 net.cpp:453] gather_label_clean_to_loss_clean <- label_clean
I0321 19:35:53.192462 16412 net.cpp:411] gather_label_clean_to_loss_clean -> gathered_label_clean
I0321 19:35:53.192466 16412 net.cpp:163] Setting up gather_label_clean_to_loss_clean
I0321 19:35:53.192468 16412 net.cpp:170] Top shape: 128 1 1 1 (128)
I0321 19:35:53.192471 16412 layer_factory.hpp:74] Creating layer loss_clean
I0321 19:35:53.192473 16412 net.cpp:133] Creating Layer loss_clean
I0321 19:35:53.192476 16412 net.cpp:453] loss_clean <- fc8_clean_fc8_clean_0_split_0
I0321 19:35:53.192477 16412 net.cpp:453] loss_clean <- gathered_label_clean
I0321 19:35:53.192481 16412 net.cpp:411] loss_clean -> loss_clean
I0321 19:35:53.192482 16412 net.cpp:163] Setting up loss_clean
I0321 19:35:53.192487 16412 layer_factory.hpp:74] Creating layer loss_clean
I0321 19:35:53.192595 16412 net.cpp:170] Top shape: (1)
I0321 19:35:53.192600 16412 net.cpp:172]     with loss weight 0.1
I0321 19:35:53.192605 16412 layer_factory.hpp:74] Creating layer conv1_ntype
I0321 19:35:53.192610 16412 net.cpp:133] Creating Layer conv1_ntype
I0321 19:35:53.192612 16412 net.cpp:453] conv1_ntype <- data_data_0_split_1
I0321 19:35:53.192616 16412 net.cpp:411] conv1_ntype -> conv1_ntype
I0321 19:35:53.192620 16412 net.cpp:163] Setting up conv1_ntype
I0321 19:35:57.694747 16412 net.cpp:170] Top shape: 64 96 55 55 (18585600)
I0321 19:35:57.694761 16412 layer_factory.hpp:74] Creating layer relu1_ntype
I0321 19:35:57.694764 16412 net.cpp:133] Creating Layer relu1_ntype
I0321 19:35:57.694766 16412 net.cpp:453] relu1_ntype <- conv1_ntype
I0321 19:35:57.694769 16412 net.cpp:400] relu1_ntype -> conv1_ntype (in-place)
I0321 19:35:57.694772 16412 net.cpp:163] Setting up relu1_ntype
I0321 19:35:57.695075 16412 net.cpp:170] Top shape: 64 96 55 55 (18585600)
I0321 19:35:57.695083 16412 layer_factory.hpp:74] Creating layer pool1_ntype
I0321 19:35:57.695091 16412 net.cpp:133] Creating Layer pool1_ntype
I0321 19:35:57.695093 16412 net.cpp:453] pool1_ntype <- conv1_ntype
I0321 19:35:57.695096 16412 net.cpp:411] pool1_ntype -> pool1_ntype
I0321 19:35:57.695101 16412 net.cpp:163] Setting up pool1_ntype
I0321 19:35:57.695207 16412 net.cpp:170] Top shape: 64 96 27 27 (4478976)
I0321 19:35:57.695214 16412 layer_factory.hpp:74] Creating layer norm1_ntype
I0321 19:35:57.695217 16412 net.cpp:133] Creating Layer norm1_ntype
I0321 19:35:57.695219 16412 net.cpp:453] norm1_ntype <- pool1_ntype
I0321 19:35:57.695222 16412 net.cpp:411] norm1_ntype -> norm1_ntype
I0321 19:35:57.695225 16412 net.cpp:163] Setting up norm1_ntype
I0321 19:35:57.695228 16412 net.cpp:170] Top shape: 64 96 27 27 (4478976)
I0321 19:35:57.695230 16412 layer_factory.hpp:74] Creating layer conv2_ntype
I0321 19:35:57.695235 16412 net.cpp:133] Creating Layer conv2_ntype
I0321 19:35:57.695236 16412 net.cpp:453] conv2_ntype <- norm1_ntype
I0321 19:35:57.695240 16412 net.cpp:411] conv2_ntype -> conv2_ntype
I0321 19:35:57.695242 16412 net.cpp:163] Setting up conv2_ntype
I0321 19:35:57.763770 16412 cudnn_conv_layer.cpp:348] fft context time 3.24819 mem 121929728
I0321 19:35:57.802881 16412 net.cpp:170] Top shape: 64 256 27 27 (11943936)
I0321 19:35:57.802892 16412 layer_factory.hpp:74] Creating layer relu2_ntype
I0321 19:35:57.802897 16412 net.cpp:133] Creating Layer relu2_ntype
I0321 19:35:57.802901 16412 net.cpp:453] relu2_ntype <- conv2_ntype
I0321 19:35:57.802903 16412 net.cpp:400] relu2_ntype -> conv2_ntype (in-place)
I0321 19:35:57.802907 16412 net.cpp:163] Setting up relu2_ntype
I0321 19:35:57.803032 16412 net.cpp:170] Top shape: 64 256 27 27 (11943936)
I0321 19:35:57.803038 16412 layer_factory.hpp:74] Creating layer pool2_ntype
I0321 19:35:57.803042 16412 net.cpp:133] Creating Layer pool2_ntype
I0321 19:35:57.803045 16412 net.cpp:453] pool2_ntype <- conv2_ntype
I0321 19:35:57.803047 16412 net.cpp:411] pool2_ntype -> pool2_ntype
I0321 19:35:57.803050 16412 net.cpp:163] Setting up pool2_ntype
I0321 19:35:57.803227 16412 net.cpp:170] Top shape: 64 256 13 13 (2768896)
I0321 19:35:57.803233 16412 layer_factory.hpp:74] Creating layer norm2_ntype
I0321 19:35:57.803237 16412 net.cpp:133] Creating Layer norm2_ntype
I0321 19:35:57.803239 16412 net.cpp:453] norm2_ntype <- pool2_ntype
I0321 19:35:57.803242 16412 net.cpp:411] norm2_ntype -> norm2_ntype
I0321 19:35:57.803246 16412 net.cpp:163] Setting up norm2_ntype
I0321 19:35:57.803248 16412 net.cpp:170] Top shape: 64 256 13 13 (2768896)
I0321 19:35:57.803251 16412 layer_factory.hpp:74] Creating layer conv3_ntype
I0321 19:35:57.803256 16412 net.cpp:133] Creating Layer conv3_ntype
I0321 19:35:57.803257 16412 net.cpp:453] conv3_ntype <- norm2_ntype
I0321 19:35:57.803261 16412 net.cpp:411] conv3_ntype -> conv3_ntype
I0321 19:35:57.803264 16412 net.cpp:163] Setting up conv3_ntype
I0321 19:35:57.919605 16412 cudnn_conv_layer.cpp:348] fft context time 4.47312 mem 243105792
I0321 19:35:57.982693 16412 net.cpp:170] Top shape: 64 384 13 13 (4153344)
I0321 19:35:57.982705 16412 layer_factory.hpp:74] Creating layer relu3_ntype
I0321 19:35:57.982712 16412 net.cpp:133] Creating Layer relu3_ntype
I0321 19:35:57.982713 16412 net.cpp:453] relu3_ntype <- conv3_ntype
I0321 19:35:57.982717 16412 net.cpp:400] relu3_ntype -> conv3_ntype (in-place)
I0321 19:35:57.982722 16412 net.cpp:163] Setting up relu3_ntype
I0321 19:35:57.982837 16412 net.cpp:170] Top shape: 64 384 13 13 (4153344)
I0321 19:35:57.982843 16412 layer_factory.hpp:74] Creating layer conv4_ntype
I0321 19:35:57.982849 16412 net.cpp:133] Creating Layer conv4_ntype
I0321 19:35:57.982851 16412 net.cpp:453] conv4_ntype <- conv3_ntype
I0321 19:35:57.982856 16412 net.cpp:411] conv4_ntype -> conv4_ntype
I0321 19:35:57.982859 16412 net.cpp:163] Setting up conv4_ntype
I0321 19:35:58.040030 16412 cudnn_conv_layer.cpp:348] fft context time 1.90336 mem 93241344
I0321 19:35:58.069766 16412 net.cpp:170] Top shape: 64 384 13 13 (4153344)
I0321 19:35:58.069792 16412 layer_factory.hpp:74] Creating layer relu4_ntype
I0321 19:35:58.069800 16412 net.cpp:133] Creating Layer relu4_ntype
I0321 19:35:58.069803 16412 net.cpp:453] relu4_ntype <- conv4_ntype
I0321 19:35:58.069808 16412 net.cpp:400] relu4_ntype -> conv4_ntype (in-place)
I0321 19:35:58.069813 16412 net.cpp:163] Setting up relu4_ntype
I0321 19:35:58.069983 16412 net.cpp:170] Top shape: 64 384 13 13 (4153344)
I0321 19:35:58.069988 16412 layer_factory.hpp:74] Creating layer conv5_ntype
I0321 19:35:58.069994 16412 net.cpp:133] Creating Layer conv5_ntype
I0321 19:35:58.069996 16412 net.cpp:453] conv5_ntype <- conv4_ntype
I0321 19:35:58.070000 16412 net.cpp:411] conv5_ntype -> conv5_ntype
I0321 19:35:58.070004 16412 net.cpp:163] Setting up conv5_ntype
I0321 19:35:58.105873 16412 cudnn_conv_layer.cpp:348] fft context time 1.44358 mem 62160896
I0321 19:35:58.126466 16412 net.cpp:170] Top shape: 64 256 13 13 (2768896)
I0321 19:35:58.126488 16412 layer_factory.hpp:74] Creating layer relu5_ntype
I0321 19:35:58.126497 16412 net.cpp:133] Creating Layer relu5_ntype
I0321 19:35:58.126499 16412 net.cpp:453] relu5_ntype <- conv5_ntype
I0321 19:35:58.126504 16412 net.cpp:400] relu5_ntype -> conv5_ntype (in-place)
I0321 19:35:58.126510 16412 net.cpp:163] Setting up relu5_ntype
I0321 19:35:58.126652 16412 net.cpp:170] Top shape: 64 256 13 13 (2768896)
I0321 19:35:58.126658 16412 layer_factory.hpp:74] Creating layer pool5_ntype
I0321 19:35:58.126663 16412 net.cpp:133] Creating Layer pool5_ntype
I0321 19:35:58.126665 16412 net.cpp:453] pool5_ntype <- conv5_ntype
I0321 19:35:58.126668 16412 net.cpp:411] pool5_ntype -> pool5_ntype
I0321 19:35:58.126677 16412 net.cpp:163] Setting up pool5_ntype
I0321 19:35:58.126869 16412 net.cpp:170] Top shape: 64 256 6 6 (589824)
I0321 19:35:58.126875 16412 layer_factory.hpp:74] Creating layer gather_pool5_ntype_to_fc6_ntype
I0321 19:35:58.126879 16412 net.cpp:133] Creating Layer gather_pool5_ntype_to_fc6_ntype
I0321 19:35:58.126881 16412 net.cpp:453] gather_pool5_ntype_to_fc6_ntype <- pool5_ntype
I0321 19:35:58.126885 16412 net.cpp:411] gather_pool5_ntype_to_fc6_ntype -> gathered_pool5_ntype
I0321 19:35:58.126888 16412 net.cpp:163] Setting up gather_pool5_ntype_to_fc6_ntype
I0321 19:35:58.126891 16412 net.cpp:170] Top shape: 128 256 6 6 (1179648)
I0321 19:35:58.126893 16412 layer_factory.hpp:74] Creating layer fc6_ntype
I0321 19:35:58.126899 16412 net.cpp:133] Creating Layer fc6_ntype
I0321 19:35:58.126901 16412 net.cpp:453] fc6_ntype <- gathered_pool5_ntype
I0321 19:35:58.126905 16412 net.cpp:411] fc6_ntype -> fc6_ntype
I0321 19:35:58.126911 16412 net.cpp:163] Setting up fc6_ntype
I0321 19:35:58.367928 16412 net.cpp:170] Top shape: 128 4096 (524288)
I0321 19:35:58.367951 16412 layer_factory.hpp:74] Creating layer relu6_ntype
I0321 19:35:58.367959 16412 net.cpp:133] Creating Layer relu6_ntype
I0321 19:35:58.367961 16412 net.cpp:453] relu6_ntype <- fc6_ntype
I0321 19:35:58.367967 16412 net.cpp:400] relu6_ntype -> fc6_ntype (in-place)
I0321 19:35:58.367972 16412 net.cpp:163] Setting up relu6_ntype
I0321 19:35:58.368283 16412 net.cpp:170] Top shape: 128 4096 (524288)
I0321 19:35:58.368290 16412 layer_factory.hpp:74] Creating layer drop6_ntype
I0321 19:35:58.368295 16412 net.cpp:133] Creating Layer drop6_ntype
I0321 19:35:58.368296 16412 net.cpp:453] drop6_ntype <- fc6_ntype
I0321 19:35:58.368299 16412 net.cpp:400] drop6_ntype -> fc6_ntype (in-place)
I0321 19:35:58.368304 16412 net.cpp:163] Setting up drop6_ntype
I0321 19:35:58.368307 16412 net.cpp:170] Top shape: 128 4096 (524288)
I0321 19:35:58.368309 16412 layer_factory.hpp:74] Creating layer fc7_ntype
I0321 19:35:58.368314 16412 net.cpp:133] Creating Layer fc7_ntype
I0321 19:35:58.368315 16412 net.cpp:453] fc7_ntype <- fc6_ntype
I0321 19:35:58.368319 16412 net.cpp:411] fc7_ntype -> fc7_ntype
I0321 19:35:58.368322 16412 net.cpp:163] Setting up fc7_ntype
I0321 19:35:58.395243 16412 net.cpp:170] Top shape: 128 1024 (131072)
I0321 19:35:58.395265 16412 layer_factory.hpp:74] Creating layer relu7_ntype
I0321 19:35:58.395272 16412 net.cpp:133] Creating Layer relu7_ntype
I0321 19:35:58.395277 16412 net.cpp:453] relu7_ntype <- fc7_ntype
I0321 19:35:58.395282 16412 net.cpp:400] relu7_ntype -> fc7_ntype (in-place)
I0321 19:35:58.395287 16412 net.cpp:163] Setting up relu7_ntype
I0321 19:35:58.395463 16412 net.cpp:170] Top shape: 128 1024 (131072)
I0321 19:35:58.395468 16412 layer_factory.hpp:74] Creating layer drop7_ntype
I0321 19:35:58.395473 16412 net.cpp:133] Creating Layer drop7_ntype
I0321 19:35:58.395474 16412 net.cpp:453] drop7_ntype <- fc7_ntype
I0321 19:35:58.395478 16412 net.cpp:400] drop7_ntype -> fc7_ntype (in-place)
I0321 19:35:58.395480 16412 net.cpp:163] Setting up drop7_ntype
I0321 19:35:58.395483 16412 net.cpp:170] Top shape: 128 1024 (131072)
I0321 19:35:58.395485 16412 layer_factory.hpp:74] Creating layer fc8_ntype
I0321 19:35:58.395490 16412 net.cpp:133] Creating Layer fc8_ntype
I0321 19:35:58.395491 16412 net.cpp:453] fc8_ntype <- fc7_ntype
I0321 19:35:58.395494 16412 net.cpp:411] fc8_ntype -> fc8_ntype
I0321 19:35:58.395499 16412 net.cpp:163] Setting up fc8_ntype
I0321 19:35:58.395539 16412 net.cpp:170] Top shape: 128 3 (384)
I0321 19:35:58.395545 16412 layer_factory.hpp:74] Creating layer gather_label_noisy_to_loss_noisy
I0321 19:35:58.395547 16412 net.cpp:133] Creating Layer gather_label_noisy_to_loss_noisy
I0321 19:35:58.395550 16412 net.cpp:453] gather_label_noisy_to_loss_noisy <- label_noisy
I0321 19:35:58.395553 16412 net.cpp:411] gather_label_noisy_to_loss_noisy -> gathered_label_noisy
I0321 19:35:58.395556 16412 net.cpp:163] Setting up gather_label_noisy_to_loss_noisy
I0321 19:35:58.395560 16412 net.cpp:170] Top shape: 128 1 1 1 (128)
I0321 19:35:58.395560 16412 layer_factory.hpp:74] Creating layer loss_noisy
I0321 19:35:58.395571 16412 net.cpp:133] Creating Layer loss_noisy
I0321 19:35:58.395576 16412 net.cpp:453] loss_noisy <- fc8_clean_fc8_clean_0_split_1
I0321 19:35:58.395581 16412 net.cpp:453] loss_noisy <- fc8_ntype
I0321 19:35:58.395583 16412 net.cpp:453] loss_noisy <- gathered_label_noisy
I0321 19:35:58.395588 16412 net.cpp:411] loss_noisy -> loss_noisy
…
I0321 19:35:58.449383 16412 net.cpp:330] The NetState phase (1) differed from the phase (0) specified by a rule in layer loss_noisy
I0321 19:35:58.449498 16412 net.cpp:47] Initializing net from parameters: 
name: "clothing1M_noisy_label_loss"
state {
  phase: TEST
}
richness: 1000
layer {
  name: "data"
  type: "Data"
  top: "data"
  top: "label_clean"
  include {
    phase: TEST
  }
  transform_param {
    mirror: false
    crop_size: 227
    mean_file: "external/exp/db/clothing1M/clothing1M_mean.binaryproto"
  }
  data_param {
    source: "external/exp/db/clothing1M/clean_val"
    batch_size: 100
    backend: LMDB
  }
}
layer {
  name: "conv1_clean"
  type: "Convolution"
  bottom: "data"
  top: "conv1_clean"
  param {
    lr_mult: 1
    decay_mult: 1
  }
  param {
    lr_mult: 2
    decay_mult: 0
  }
  convolution_param {
    num_output: 96
    kernel_size: 11
    stride: 4
    weight_filler {
      type: "gaussian"
      std: 0.01
    }
    bias_filler {
      type: "constant"
      value: 0
    }
  }
}
layer {
  name: "relu1_clean"
  type: "ReLU"
  bottom: "conv1_clean"
  top: "conv1_clean"
}
layer {
  name: "pool1_clean"
  type: "Pooling"
  bottom: "conv1_clean"
  top: "pool1_clean"
  pooling_param {
    pool: MAX
    kernel_size: 3
    stride: 2
  }
}
layer {
  name: "norm1_clean"
  type: "LRN"
  bottom: "pool1_clean"
  top: "norm1_clean"
  lrn_param {
    local_size: 5
    alpha: 0.0001
    beta: 0.75
  }
}
layer {
  name: "conv2_clean"
  type: "Convolution"
  bottom: "norm1_clean"
  top: "conv2_clean"
  param {
    lr_mult: 1
    decay_mult: 1
  }
  param {
    lr_mult: 2
    decay_mult: 0
  }
  convolution_param {
    num_output: 256
    pad: 2
    kernel_size: 5
    group: 2
    weight_filler {
      type: "gaussian"
      std: 0.01
    }
    bias_filler {
      type: "constant"
      value: 1
    }
  }
}
layer {
  name: "relu2_clean"
  type: "ReLU"
  bottom: "conv2_clean"
  top: "conv2_clean"
}
layer {
  name: "pool2_clean"
  type: "Pooling"
  bottom: "conv2_clean"
  top: "pool2_clean"
  pooling_param {
    pool: MAX
    kernel_size: 3
    stride: 2
  }
}
layer {
  name: "norm2_clean"
  type: "LRN"
  bottom: "pool2_clean"
  top: "norm2_clean"
  lrn_param {
    local_size: 5
    alpha: 0.0001
    beta: 0.75
  }
}
layer {
  name: "conv3_clean"
  type: "Convolution"
  bottom: "norm2_clean"
  top: "conv3_clean"
  param {
    lr_mult: 1
    decay_mult: 1
  }
  param {
    lr_mult: 2
    decay_mult: 0
  }
  convolution_param {
    num_output: 384
    pad: 1
    kernel_size: 3
    weight_filler {
      type: "gaussian"
      std: 0.01
    }
    bias_filler {
      type: "constant"
      value: 0
    }
  }
}
layer {
  name: "relu3_clean"
  type: "ReLU"
  bottom: "conv3_clean"
  top: "conv3_clean"
}
layer {
  name: "conv4_clean"
  type: "Convolution"
  bottom: "conv3_clean"
  top: "conv4_clean"
  param {
    lr_mult: 1
    decay_mult: 1
  }
  param {
    lr_mult: 2
    decay_mult: 0
  }
  convolution_param {
    num_output: 384
    pad: 1
    kernel_size: 3
    group: 2
    weight_filler {
      type: "gaussian"
      std: 0.01
    }
    bias_filler {
      type: "constant"
      value: 1
    }
  }
}
layer {
  name: "relu4_clean"
  type: "ReLU"
  bottom: "conv4_clean"
  top: "conv4_clean"
}
layer {
  name: "conv5_clean"
  type: "Convolution"
  bottom: "conv4_clean"
  top: "conv5_clean"
  param {
    lr_mult: 1
    decay_mult: 1
  }
  param {
    lr_mult: 2
    decay_mult: 0
  }
  convolution_param {
    num_output: 256
    pad: 1
    kernel_size: 3
    group: 2
    weight_filler {
      type: "gaussian"
      std: 0.01
    }
    bias_filler {
      type: "constant"
      value: 1
    }
  }
}
layer {
  name: "relu5_clean"
  type: "ReLU"
  bottom: "conv5_clean"
  top: "conv5_clean"
}
layer {
  name: "pool5_clean"
  type: "Pooling"
  bottom: "conv5_clean"
  top: "pool5_clean"
  pooling_param {
    pool: MAX
    kernel_size: 3
    stride: 2
  }
}
layer {
  name: "fc6_clean"
  type: "InnerProduct"
  bottom: "pool5_clean"
  top: "fc6_clean"
  param {
    lr_mult: 1
    decay_mult: 1
  }
  param {
    lr_mult: 2
    decay_mult: 0
  }
  inner_product_param {
    num_output: 4096
    weight_filler {
      type: "gaussian"
      std: 0.005
    }
    bias_filler {
      type: "constant"
      value: 1
    }
  }
}
layer {
  name: "relu6_clean"
  type: "ReLU"
  bottom: "fc6_clean"
  top: "fc6_clean"
}
layer {
  name: "drop6_clean"
  type: "Dropout"
  bottom: "fc6_clean"
  top: "fc6_clean"
  dropout_param {
    dropout_ratio: 0.5
  }
}
layer {
  name: "fc7_clean"
  type: "InnerProduct"
  bottom: "fc6_clean"
  top: "fc7_clean"
  param {
    lr_mult: 1
    decay_mult: 1
  }
  param {
    lr_mult: 2
    decay_mult: 0
  }
  inner_product_param {
    num_output: 4096
    weight_filler {
      type: "gaussian"
      std: 0.005
    }
    bias_filler {
      type: "constant"
      value: 1
    }
  }
}
layer {
  name: "relu7_clean"
  type: "ReLU"
  bottom: "fc7_clean"
  top: "fc7_clean"
}
layer {
  name: "drop7_clean"
  type: "Dropout"
  bottom: "fc7_clean"
  top: "fc7_clean"
  dropout_param {
    dropout_ratio: 0.5
  }
}
layer {
  name: "fc8_clean"
  type: "InnerProduct"
  bottom: "fc7_clean"
  top: "fc8_clean"
  param {
    lr_mult: 1
    decay_mult: 1
  }
  param {
    lr_mult: 2
    decay_mult: 0
  }
  inner_product_param {
    num_output: 14
    weight_filler {
      type: "gaussian"
      std: 0.01
    }
    bias_filler {
      type: "constant"
      value: 0
    }
  }
}
layer {
  name: "accuracy"
  type: "Accuracy"
  bottom: "fc8_clean"
  bottom: "label_clean"
  top: "accuracy"
  include {
    phase: TEST
  }
}
layer {
  name: "loss_clean"
  type: "SoftmaxWithLoss"
  bottom: "fc8_clean"
  bottom: "label_clean"
  top: "loss_clean"
  loss_weight: 0.1
  loss_param {
    ignore_label: -1
    normalize: false
  }
}
I0321 19:35:58.449662 16412 layer_factory.hpp:74] Creating layer data
I0321 19:35:58.449692 16412 net.cpp:133] Creating Layer data
I0321 19:35:58.449699 16412 net.cpp:411] data -> data
I0321 19:35:58.449707 16412 net.cpp:411] data -> label_clean
I0321 19:35:58.449712 16412 net.cpp:163] Setting up data
I0321 19:35:58.449717 16412 data_transformer.cpp:23] Loading mean file from: external/exp/db/clothing1M/clothing1M_mean.binaryproto
I0321 19:35:58.450577 16412 db_lmdb.cpp:22] Opened lmdb external/exp/db/clothing1M/clean_val
I0321 19:35:58.450594 16412 data_layer.cpp:55] Skipping first 0 data points.
I0321 19:35:58.450649 16412 data_layer.cpp:100] output data size: 50,3,227,227
I0321 19:35:58.450678 16412 net.cpp:170] Top shape: 50 3 227 227 (7729350)
I0321 19:35:58.450685 16412 net.cpp:170] Top shape: 50 (50)
I0321 19:35:58.450687 16412 layer_factory.hpp:74] Creating layer label_clean_data_1_split
I0321 19:35:58.450693 16412 net.cpp:133] Creating Layer label_clean_data_1_split
I0321 19:35:58.450698 16412 net.cpp:453] label_clean_data_1_split <- label_clean
I0321 19:35:58.450703 16412 net.cpp:411] label_clean_data_1_split -> label_clean_data_1_split_0
I0321 19:35:58.450709 16412 net.cpp:411] label_clean_data_1_split -> label_clean_data_1_split_1
I0321 19:35:58.450713 16412 net.cpp:163] Setting up label_clean_data_1_split
I0321 19:35:58.450718 16412 net.cpp:170] Top shape: 50 (50)
I0321 19:35:58.450722 16412 net.cpp:170] Top shape: 50 (50)
I0321 19:35:58.450724 16412 layer_factory.hpp:74] Creating layer conv1_clean
I0321 19:35:58.450731 16412 net.cpp:133] Creating Layer conv1_clean
I0321 19:35:58.450733 16412 net.cpp:453] conv1_clean <- data
I0321 19:35:58.450738 16412 net.cpp:411] conv1_clean -> conv1_clean
I0321 19:35:58.450743 16412 net.cpp:163] Setting up conv1_clean
I0321 19:36:01.978282 16412 net.cpp:170] Top shape: 50 96 55 55 (14520000)
I0321 19:36:01.978301 16412 layer_factory.hpp:74] Creating layer relu1_clean
I0321 19:36:01.978305 16412 net.cpp:133] Creating Layer relu1_clean
I0321 19:36:01.978308 16412 net.cpp:453] relu1_clean <- conv1_clean
I0321 19:36:01.978312 16412 net.cpp:400] relu1_clean -> conv1_clean (in-place)
I0321 19:36:01.978315 16412 net.cpp:163] Setting up relu1_clean
I0321 19:36:01.978433 16412 net.cpp:170] Top shape: 50 96 55 55 (14520000)
I0321 19:36:01.978438 16412 layer_factory.hpp:74] Creating layer pool1_clean
I0321 19:36:01.978443 16412 net.cpp:133] Creating Layer pool1_clean
I0321 19:36:01.978446 16412 net.cpp:453] pool1_clean <- conv1_clean
I0321 19:36:01.978447 16412 net.cpp:411] pool1_clean -> pool1_clean
I0321 19:36:01.978451 16412 net.cpp:163] Setting up pool1_clean
I0321 19:36:01.978631 16412 net.cpp:170] Top shape: 50 96 27 27 (3499200)
I0321 19:36:01.978636 16412 layer_factory.hpp:74] Creating layer norm1_clean
I0321 19:36:01.978641 16412 net.cpp:133] Creating Layer norm1_clean
I0321 19:36:01.978641 16412 net.cpp:453] norm1_clean <- pool1_clean
I0321 19:36:01.978644 16412 net.cpp:411] norm1_clean -> norm1_clean
I0321 19:36:01.978648 16412 net.cpp:163] Setting up norm1_clean
I0321 19:36:01.978652 16412 net.cpp:170] Top shape: 50 96 27 27 (3499200)
I0321 19:36:01.978653 16412 layer_factory.hpp:74] Creating layer conv2_clean
I0321 19:36:01.978657 16412 net.cpp:133] Creating Layer conv2_clean
I0321 19:36:01.978658 16412 net.cpp:453] conv2_clean <- norm1_clean
I0321 19:36:01.978662 16412 net.cpp:411] conv2_clean -> conv2_clean
I0321 19:36:01.978664 16412 net.cpp:163] Setting up conv2_clean
I0321 19:36:02.035006 16412 cudnn_conv_layer.cpp:348] fft context time 2.97018 mem 95257600
I0321 19:36:02.066253 16412 net.cpp:170] Top shape: 50 256 27 27 (9331200)
I0321 19:36:02.066265 16412 layer_factory.hpp:74] Creating layer relu2_clean
I0321 19:36:02.066272 16412 net.cpp:133] Creating Layer relu2_clean
I0321 19:36:02.066273 16412 net.cpp:453] relu2_clean <- conv2_clean
I0321 19:36:02.066277 16412 net.cpp:400] relu2_clean -> conv2_clean (in-place)
I0321 19:36:02.066282 16412 net.cpp:163] Setting up relu2_clean
I0321 19:36:02.066397 16412 net.cpp:170] Top shape: 50 256 27 27 (9331200)
I0321 19:36:02.066404 16412 layer_factory.hpp:74] Creating layer pool2_clean
I0321 19:36:02.066411 16412 net.cpp:133] Creating Layer pool2_clean
I0321 19:36:02.066412 16412 net.cpp:453] pool2_clean <- conv2_clean
I0321 19:36:02.066416 16412 net.cpp:411] pool2_clean -> pool2_clean
I0321 19:36:02.066419 16412 net.cpp:163] Setting up pool2_clean
I0321 19:36:02.066607 16412 net.cpp:170] Top shape: 50 256 13 13 (2163200)
I0321 19:36:02.066613 16412 layer_factory.hpp:74] Creating layer norm2_clean
I0321 19:36:02.066617 16412 net.cpp:133] Creating Layer norm2_clean
I0321 19:36:02.066619 16412 net.cpp:453] norm2_clean <- pool2_clean
I0321 19:36:02.066623 16412 net.cpp:411] norm2_clean -> norm2_clean
I0321 19:36:02.066627 16412 net.cpp:163] Setting up norm2_clean
I0321 19:36:02.066630 16412 net.cpp:170] Top shape: 50 256 13 13 (2163200)
I0321 19:36:02.066632 16412 layer_factory.hpp:74] Creating layer conv3_clean
I0321 19:36:02.066637 16412 net.cpp:133] Creating Layer conv3_clean
I0321 19:36:02.066638 16412 net.cpp:453] conv3_clean <- norm2_clean
I0321 19:36:02.066640 16412 net.cpp:411] conv3_clean -> conv3_clean
I0321 19:36:02.066643 16412 net.cpp:163] Setting up conv3_clean
I0321 19:36:02.164963 16412 cudnn_conv_layer.cpp:348] fft context time 4.18723 mem 239471616
I0321 19:36:02.221330 16412 net.cpp:170] Top shape: 50 384 13 13 (3244800)
I0321 19:36:02.221344 16412 layer_factory.hpp:74] Creating layer relu3_clean
I0321 19:36:02.221349 16412 net.cpp:133] Creating Layer relu3_clean
I0321 19:36:02.221352 16412 net.cpp:453] relu3_clean <- conv3_clean
I0321 19:36:02.221355 16412 net.cpp:400] relu3_clean -> conv3_clean (in-place)
I0321 19:36:02.221359 16412 net.cpp:163] Setting up relu3_clean
I0321 19:36:02.221554 16412 net.cpp:170] Top shape: 50 384 13 13 (3244800)
I0321 19:36:02.221560 16412 layer_factory.hpp:74] Creating layer conv4_clean
I0321 19:36:02.221565 16412 net.cpp:133] Creating Layer conv4_clean
I0321 19:36:02.221567 16412 net.cpp:453] conv4_clean <- conv3_clean
I0321 19:36:02.221570 16412 net.cpp:411] conv4_clean -> conv4_clean
I0321 19:36:02.221575 16412 net.cpp:163] Setting up conv4_clean
I0321 19:36:02.271539 16412 cudnn_conv_layer.cpp:348] fft context time 1.79338 mem 91424256
I0321 19:36:02.296996 16412 net.cpp:170] Top shape: 50 384 13 13 (3244800)
I0321 19:36:02.297020 16412 layer_factory.hpp:74] Creating layer relu4_clean
I0321 19:36:02.297029 16412 net.cpp:133] Creating Layer relu4_clean
I0321 19:36:02.297031 16412 net.cpp:453] relu4_clean <- conv4_clean
I0321 19:36:02.297035 16412 net.cpp:400] relu4_clean -> conv4_clean (in-place)
I0321 19:36:02.297041 16412 net.cpp:163] Setting up relu4_clean
I0321 19:36:02.297200 16412 net.cpp:170] Top shape: 50 384 13 13 (3244800)
I0321 19:36:02.297205 16412 layer_factory.hpp:74] Creating layer conv5_clean
I0321 19:36:02.297212 16412 net.cpp:133] Creating Layer conv5_clean
I0321 19:36:02.297214 16412 net.cpp:453] conv5_clean <- conv4_clean
I0321 19:36:02.297217 16412 net.cpp:411] conv5_clean -> conv5_clean
I0321 19:36:02.297224 16412 net.cpp:163] Setting up conv5_clean
I0321 19:36:02.329007 16412 cudnn_conv_layer.cpp:348] fft context time 1.36387 mem 60949504
I0321 19:36:02.346635 16412 net.cpp:170] Top shape: 50 256 13 13 (2163200)
I0321 19:36:02.346662 16412 layer_factory.hpp:74] Creating layer relu5_clean
I0321 19:36:02.346669 16412 net.cpp:133] Creating Layer relu5_clean
I0321 19:36:02.346673 16412 net.cpp:453] relu5_clean <- conv5_clean
I0321 19:36:02.346676 16412 net.cpp:400] relu5_clean -> conv5_clean (in-place)
I0321 19:36:02.346683 16412 net.cpp:163] Setting up relu5_clean
I0321 19:36:02.346835 16412 net.cpp:170] Top shape: 50 256 13 13 (2163200)
I0321 19:36:02.346840 16412 layer_factory.hpp:74] Creating layer pool5_clean
I0321 19:36:02.346848 16412 net.cpp:133] Creating Layer pool5_clean
I0321 19:36:02.346849 16412 net.cpp:453] pool5_clean <- conv5_clean
I0321 19:36:02.346853 16412 net.cpp:411] pool5_clean -> pool5_clean
I0321 19:36:02.346855 16412 net.cpp:163] Setting up pool5_clean
I0321 19:36:02.347054 16412 net.cpp:170] Top shape: 50 256 6 6 (460800)
I0321 19:36:02.347062 16412 layer_factory.hpp:74] Creating layer gather_pool5_clean_to_fc6_clean
I0321 19:36:02.347069 16412 net.cpp:133] Creating Layer gather_pool5_clean_to_fc6_clean
I0321 19:36:02.347070 16412 net.cpp:453] gather_pool5_clean_to_fc6_clean <- pool5_clean
I0321 19:36:02.347074 16412 net.cpp:411] gather_pool5_clean_to_fc6_clean -> gathered_pool5_clean
I0321 19:36:02.347079 16412 net.cpp:163] Setting up gather_pool5_clean_to_fc6_clean
I0321 19:36:02.347081 16412 net.cpp:170] Top shape: 100 256 6 6 (921600)
I0321 19:36:02.347082 16412 layer_factory.hpp:74] Creating layer fc6_clean
I0321 19:36:02.347087 16412 net.cpp:133] Creating Layer fc6_clean
I0321 19:36:02.347090 16412 net.cpp:453] fc6_clean <- gathered_pool5_clean
I0321 19:36:02.347092 16412 net.cpp:411] fc6_clean -> fc6_clean
I0321 19:36:02.347096 16412 net.cpp:163] Setting up fc6_clean
I0321 19:36:02.587980 16412 net.cpp:170] Top shape: 100 4096 (409600)
I0321 19:36:02.588006 16412 layer_factory.hpp:74] Creating layer relu6_clean
I0321 19:36:02.588013 16412 net.cpp:133] Creating Layer relu6_clean
I0321 19:36:02.588016 16412 net.cpp:453] relu6_clean <- fc6_clean
I0321 19:36:02.588021 16412 net.cpp:400] relu6_clean -> fc6_clean (in-place)
I0321 19:36:02.588027 16412 net.cpp:163] Setting up relu6_clean
I0321 19:36:02.588206 16412 net.cpp:170] Top shape: 100 4096 (409600)
I0321 19:36:02.588210 16412 layer_factory.hpp:74] Creating layer drop6_clean
I0321 19:36:02.588214 16412 net.cpp:133] Creating Layer drop6_clean
I0321 19:36:02.588217 16412 net.cpp:453] drop6_clean <- fc6_clean
I0321 19:36:02.588218 16412 net.cpp:400] drop6_clean -> fc6_clean (in-place)
I0321 19:36:02.588222 16412 net.cpp:163] Setting up drop6_clean
I0321 19:36:02.588225 16412 net.cpp:170] Top shape: 100 4096 (409600)
I0321 19:36:02.588227 16412 layer_factory.hpp:74] Creating layer fc7_clean
I0321 19:36:02.588232 16412 net.cpp:133] Creating Layer fc7_clean
I0321 19:36:02.588232 16412 net.cpp:453] fc7_clean <- fc6_clean
I0321 19:36:02.588235 16412 net.cpp:411] fc7_clean -> fc7_clean
I0321 19:36:02.588243 16412 net.cpp:163] Setting up fc7_clean
I0321 19:36:02.695317 16412 net.cpp:170] Top shape: 100 4096 (409600)
I0321 19:36:02.695340 16412 layer_factory.hpp:74] Creating layer relu7_clean
I0321 19:36:02.695348 16412 net.cpp:133] Creating Layer relu7_clean
I0321 19:36:02.695351 16412 net.cpp:453] relu7_clean <- fc7_clean
I0321 19:36:02.695356 16412 net.cpp:400] relu7_clean -> fc7_clean (in-place)
I0321 19:36:02.695363 16412 net.cpp:163] Setting up relu7_clean
I0321 19:36:02.695684 16412 net.cpp:170] Top shape: 100 4096 (409600)
I0321 19:36:02.695690 16412 layer_factory.hpp:74] Creating layer drop7_clean
I0321 19:36:02.695695 16412 net.cpp:133] Creating Layer drop7_clean
I0321 19:36:02.695698 16412 net.cpp:453] drop7_clean <- fc7_clean
I0321 19:36:02.695699 16412 net.cpp:400] drop7_clean -> fc7_clean (in-place)
I0321 19:36:02.695703 16412 net.cpp:163] Setting up drop7_clean
I0321 19:36:02.695706 16412 net.cpp:170] Top shape: 100 4096 (409600)
I0321 19:36:02.695708 16412 layer_factory.hpp:74] Creating layer fc8_clean
I0321 19:36:02.695713 16412 net.cpp:133] Creating Layer fc8_clean
I0321 19:36:02.695715 16412 net.cpp:453] fc8_clean <- fc7_clean
I0321 19:36:02.695718 16412 net.cpp:411] fc8_clean -> fc8_clean
I0321 19:36:02.695721 16412 net.cpp:163] Setting up fc8_clean
I0321 19:36:02.696128 16412 net.cpp:170] Top shape: 100 14 (1400)
I0321 19:36:02.696133 16412 layer_factory.hpp:74] Creating layer fc8_clean_fc8_clean_0_split
I0321 19:36:02.696137 16412 net.cpp:133] Creating Layer fc8_clean_fc8_clean_0_split
I0321 19:36:02.696138 16412 net.cpp:453] fc8_clean_fc8_clean_0_split <- fc8_clean
I0321 19:36:02.696141 16412 net.cpp:411] fc8_clean_fc8_clean_0_split -> fc8_clean_fc8_clean_0_split_0
I0321 19:36:02.696146 16412 net.cpp:411] fc8_clean_fc8_clean_0_split -> fc8_clean_fc8_clean_0_split_1
I0321 19:36:02.696148 16412 net.cpp:163] Setting up fc8_clean_fc8_clean_0_split
I0321 19:36:02.696151 16412 net.cpp:170] Top shape: 100 14 (1400)
I0321 19:36:02.696153 16412 net.cpp:170] Top shape: 100 14 (1400)
I0321 19:36:02.696156 16412 layer_factory.hpp:74] Creating layer gather_label_clean_data_1_split_to_accuracy
I0321 19:36:02.696157 16412 net.cpp:133] Creating Layer gather_label_clean_data_1_split_to_accuracy
I0321 19:36:02.696159 16412 net.cpp:453] gather_label_clean_data_1_split_to_accuracy <- label_clean_data_1_split_0
I0321 19:36:02.696162 16412 net.cpp:411] gather_label_clean_data_1_split_to_accuracy -> gathered_label_clean_data_1_split_0
I0321 19:36:02.696166 16412 net.cpp:163] Setting up gather_label_clean_data_1_split_to_accuracy
I0321 19:36:02.696167 16412 net.cpp:170] Top shape: 100 (100)
I0321 19:36:02.696169 16412 layer_factory.hpp:74] Creating layer accuracy
I0321 19:36:02.696172 16412 net.cpp:133] Creating Layer accuracy
I0321 19:36:02.696174 16412 net.cpp:453] accuracy <- fc8_clean_fc8_clean_0_split_0
I0321 19:36:02.696177 16412 net.cpp:453] accuracy <- gathered_label_clean_data_1_split_0
I0321 19:36:02.696179 16412 net.cpp:411] accuracy -> accuracy
I0321 19:36:02.696182 16412 net.cpp:163] Setting up accuracy
I0321 19:36:02.696184 16412 net.cpp:170] Top shape: (1)
I0321 19:36:02.696187 16412 layer_factory.hpp:74] Creating layer gather_label_clean_data_1_split_to_loss_clean
I0321 19:36:02.696188 16412 net.cpp:133] Creating Layer gather_label_clean_data_1_split_to_loss_clean
I0321 19:36:02.696190 16412 net.cpp:453] gather_label_clean_data_1_split_to_loss_clean <- label_clean_data_1_split_1
I0321 19:36:02.696193 16412 net.cpp:411] gather_label_clean_data_1_split_to_loss_clean -> gathered_label_clean_data_1_split_1
I0321 19:36:02.696195 16412 net.cpp:163] Setting up gather_label_clean_data_1_split_to_loss_clean
I0321 19:36:02.696197 16412 net.cpp:170] Top shape: 100 (100)
I0321 19:36:02.696199 16412 layer_factory.hpp:74] Creating layer loss_clean
I0321 19:36:02.696203 16412 net.cpp:133] Creating Layer loss_clean
I0321 19:36:02.696204 16412 net.cpp:453] loss_clean <- fc8_clean_fc8_clean_0_split_1
I0321 19:36:02.696207 16412 net.cpp:453] loss_clean <- gathered_label_clean_data_1_split_1
I0321 19:36:02.696209 16412 net.cpp:411] loss_clean -> loss_clean
I0321 19:36:02.696213 16412 net.cpp:163] Setting up loss_clean
…
