…
    source: "external/exp/db/clothing1M/mixed_train_label_clean"
    batch_size: 128
    backend: LMDB
  }
}
layer {
  name: "label_ntype"
  type: "Data"
  top: "label_ntype"
  include {
    phase: TRAIN
  }
  data_param {
    source: "external/exp/db/clothing1M/mixed_train_label_ntype"
    batch_size: 128
    backend: LMDB
  }
}
layer {
  name: "label_noisy"
  type: "Data"
  top: "label_noisy"
  include {
    phase: TRAIN
  }
  data_param {
    source: "external/exp/db/clothing1M/mixed_train_label_noisy"
    batch_size: 128
    backend: LMDB
  }
}
layer {
  name: "conv1_clean"
  type: "Convolution"
  bottom: "data"
  top: "conv1_clean"
  param {
    lr_mult: 1
    decay_mult: 1
  }
  param {
    lr_mult: 2
    decay_mult: 0
  }
  convolution_param {
    num_output: 96
    kernel_size: 11
    stride: 4
    weight_filler {
      type: "gaussian"
      std: 0.01
    }
    bias_filler {
      type: "constant"
      value: 0
    }
  }
}
layer {
  name: "relu1_clean"
  type: "ReLU"
  bottom: "conv1_clean"
  top: "conv1_clean"
}
layer {
  name: "pool1_clean"
  type: "Pooling"
  bottom: "conv1_clean"
  top: "pool1_clean"
  pooling_param {
    pool: MAX
    kernel_size: 3
    stride: 2
  }
}
layer {
  name: "norm1_clean"
  type: "LRN"
  bottom: "pool1_clean"
  top: "norm1_clean"
  lrn_param {
    local_size: 5
    alpha: 0.0001
    beta: 0.75
  }
}
layer {
  name: "conv2_clean"
  type: "Convolution"
  bottom: "norm1_clean"
  top: "conv2_clean"
  param {
    lr_mult: 1
    decay_mult: 1
  }
  param {
    lr_mult: 2
    decay_mult: 0
  }
  convolution_param {
    num_output: 256
    pad: 2
    kernel_size: 5
    group: 2
    weight_filler {
      type: "gaussian"
      std: 0.01
    }
    bias_filler {
      type: "constant"
      value: 1
    }
  }
}
layer {
  name: "relu2_clean"
  type: "ReLU"
  bottom: "conv2_clean"
  top: "conv2_clean"
}
layer {
  name: "pool2_clean"
  type: "Pooling"
  bottom: "conv2_clean"
  top: "pool2_clean"
  pooling_param {
    pool: MAX
    kernel_size: 3
    stride: 2
  }
}
layer {
  name: "norm2_clean"
  type: "LRN"
  bottom: "pool2_clean"
  top: "norm2_clean"
  lrn_param {
    local_size: 5
    alpha: 0.0001
    beta: 0.75
  }
}
layer {
  name: "conv3_clean"
  type: "Convolution"
  bottom: "norm2_clean"
  top: "conv3_clean"
  param {
    lr_mult: 1
    decay_mult: 1
  }
  param {
    lr_mult: 2
    decay_mult: 0
  }
  convolution_param {
    num_output: 384
    pad: 1
    kernel_size: 3
    weight_filler {
      type: "gaussian"
      std: 0.01
    }
    bias_filler {
      type: "constant"
      value: 0
    }
  }
}
layer {
  name: "relu3_clean"
  type: "ReLU"
  bottom: "conv3_clean"
  top: "conv3_clean"
}
layer {
  name: "conv4_clean"
  type: "Convolution"
  bottom: "conv3_clean"
  top: "conv4_clean"
  param {
    lr_mult: 1
    decay_mult: 1
  }
  param {
    lr_mult: 2
    decay_mult: 0
  }
  convolution_param {
    num_output: 384
    pad: 1
    kernel_size: 3
    group: 2
    weight_filler {
      type: "gaussian"
      std: 0.01
    }
    bias_filler {
      type: "constant"
      value: 1
    }
  }
}
layer {
  name: "relu4_clean"
  type: "ReLU"
  bottom: "conv4_clean"
  top: "conv4_clean"
}
layer {
  name: "conv5_clean"
  type: "Convolution"
  bottom: "conv4_clean"
  top: "conv5_clean"
  param {
    lr_mult: 1
    decay_mult: 1
  }
  param {
    lr_mult: 2
    decay_mult: 0
  }
  convolution_param {
    num_output: 256
    pad: 1
    kernel_size: 3
    group: 2
    weight_filler {
      type: "gaussian"
      std: 0.01
    }
    bias_filler {
      type: "constant"
      value: 1
    }
  }
}
layer {
  name: "relu5_clean"
  type: "ReLU"
  bottom: "conv5_clean"
  top: "conv5_clean"
}
layer {
  name: "pool5_clean"
  type: "Pooling"
  bottom: "conv5_clean"
  top: "pool5_clean"
  pooling_param {
    pool: MAX
    kernel_size: 3
    stride: 2
  }
}
layer {
  name: "fc6_clean"
  type: "InnerProduct"
  bottom: "pool5_clean"
  top: "fc6_clean"
  param {
    lr_mult: 1
    decay_mult: 1
  }
  param {
    lr_mult: 2
    decay_mult: 0
  }
  inner_product_param {
    num_output: 4096
    weight_filler {
      type: "gaussian"
      std: 0.005
    }
    bias_filler {
      type: "constant"
      value: 1
    }
  }
}
layer {
  name: "relu6_clean"
  type: "ReLU"
  bottom: "fc6_clean"
  top: "fc6_clean"
}
layer {
  name: "drop6_clean"
  type: "Dropout"
  bottom: "fc6_clean"
  top: "fc6_clean"
  dropout_param {
    dropout_ratio: 0.5
  }
}
layer {
  name: "fc7_clean"
  type: "InnerProduct"
  bottom: "fc6_clean"
  top: "fc7_clean"
  param {
    lr_mult: 1
    decay_mult: 1
  }
  param {
    lr_mult: 2
    decay_mult: 0
  }
  inner_product_param {
    num_output: 4096
    weight_filler {
      type: "gaussian"
      std: 0.005
    }
    bias_filler {
      type: "constant"
      value: 1
    }
  }
}
layer {
  name: "relu7_clean"
  type: "ReLU"
  bottom: "fc7_clean"
  top: "fc7_clean"
}
layer {
  name: "drop7_clean"
  type: "Dropout"
  bottom: "fc7_clean"
  top: "fc7_clean"
  dropout_param {
    dropout_ratio: 0.5
  }
}
layer {
  name: "fc8_clean"
  type: "InnerProduct"
  bottom: "fc7_clean"
  top: "fc8_clean"
  param {
    lr_mult: 1
    decay_mult: 1
  }
  param {
    lr_mult: 2
    decay_mult: 0
  }
  inner_product_param {
    num_output: 14
    weight_filler {
      type: "gaussian"
      std: 0.01
    }
    bias_filler {
      type: "constant"
      value: 0
    }
  }
}
layer {
  name: "loss_clean"
  type: "SoftmaxWithLoss"
  bottom: "fc8_clean"
  bottom: "label_clean"
  top: "loss_clean"
  loss_weight: 1
  loss_param {
    ignore_label: -1
    normalize: false
  }
}
layer {
  name: "conv1_ntype"
  type: "Convolution"
  bottom: "data"
  top: "conv1_ntype"
  param {
    lr_mult: 1
    decay_mult: 1
  }
  param {
    lr_mult: 2
    decay_mult: 0
  }
  include {
    phase: TRAIN
  }
  convolution_param {
    num_output: 96
    kernel_size: 11
    stride: 4
    weight_filler {
      type: "gaussian"
      std: 0.01
    }
    bias_filler {
      type: "constant"
      value: 0
    }
  }
}
layer {
  name: "relu1_ntype"
  type: "ReLU"
  bottom: "conv1_ntype"
  top: "conv1_ntype"
  include {
    phase: TRAIN
  }
}
layer {
  name: "pool1_ntype"
  type: "Pooling"
  bottom: "conv1_ntype"
  top: "pool1_ntype"
  include {
    phase: TRAIN
  }
  pooling_param {
    pool: MAX
    kernel_size: 3
    stride: 2
  }
}
layer {
  name: "norm1_ntype"
  type: "LRN"
  bottom: "pool1_ntype"
  top: "norm1_ntype"
  include {
    phase: TRAIN
  }
  lrn_param {
    local_size: 5
    alpha: 0.0001
    beta: 0.75
  }
}
layer {
  name: "conv2_ntype"
  type: "Convolution"
  bottom: "norm1_ntype"
  top: "conv2_ntype"
  param {
    lr_mult: 1
    decay_mult: 1
  }
  param {
    lr_mult: 2
    decay_mult: 0
  }
  include {
    phase: TRAIN
  }
  convolution_param {
    num_output: 256
    pad: 2
    kernel_size: 5
    group: 2
    weight_filler {
      type: "gaussian"
      std: 0.01
    }
    bias_filler {
      type: "constant"
      value: 1
    }
  }
}
layer {
  name: "relu2_ntype"
  type: "ReLU"
  bottom: "conv2_ntype"
  top: "conv2_ntype"
  include {
    phase: TRAIN
  }
}
layer {
  name: "pool2_ntype"
  type: "Pooling"
  bottom: "conv2_ntype"
  top: "pool2_ntype"
  include {
    phase: TRAIN
  }
  pooling_param {
    pool: MAX
    kernel_size: 3
    stride: 2
  }
}
layer {
  name: "norm2_ntype"
  type: "LRN"
  bottom: "pool2_ntype"
  top: "norm2_ntype"
  include {
    phase: TRAIN
  }
  lrn_param {
    local_size: 5
    alpha: 0.0001
    beta: 0.75
  }
}
layer {
  name: "conv3_ntype"
  type: "Convolution"
  bottom: "norm2_ntype"
  top: "conv3_ntype"
  param {
    lr_mult: 1
    decay_mult: 1
  }
  param {
    lr_mult: 2
    decay_mult: 0
  }
  include {
    phase: TRAIN
  }
  convolution_param {
    num_output: 384
    pad: 1
    kernel_size: 3
    weight_filler {
      type: "gaussian"
      std: 0.01
    }
    bias_filler {
      type: "constant"
      value: 0
    }
  }
}
layer {
  name: "relu3_ntype"
  type: "ReLU"
  bottom: "conv3_ntype"
  top: "conv3_ntype"
  include {
    phase: TRAIN
  }
}
layer {
  name: "conv4_ntype"
  type: "Convolution"
  bottom: "conv3_ntype"
  top: "conv4_ntype"
  param {
    lr_mult: 1
    decay_mult: 1
  }
  param {
    lr_mult: 2
    decay_mult: 0
  }
  include {
    phase: TRAIN
  }
  convolution_param {
    num_output: 384
    pad: 1
    kernel_size: 3
    group: 2
    weight_filler {
      type: "gaussian"
      std: 0.01
    }
    bias_filler {
      type: "constant"
      value: 1
    }
  }
}
layer {
  name: "relu4_ntype"
  type: "ReLU"
  bottom: "conv4_ntype"
  top: "conv4_ntype"
  include {
    phase: TRAIN
  }
}
layer {
  name: "conv5_ntype"
  type: "Convolution"
  bottom: "conv4_ntype"
  top: "conv5_ntype"
  param {
    lr_mult: 1
    decay_mult: 1
  }
  param {
    lr_mult: 2
    decay_mult: 0
  }
  include {
    phase: TRAIN
  }
  convolution_param {
    num_output: 256
    pad: 1
    kernel_size: 3
    group: 2
    weight_filler {
      type: "gaussian"
      std: 0.01
    }
    bias_filler {
      type: "constant"
      value: 1
    }
  }
}
layer {
  name: "relu5_ntype"
  type: "ReLU"
  bottom: "conv5_ntype"
  top: "conv5_ntype"
  include {
    phase: TRAIN
  }
}
layer {
  name: "pool5_ntype"
  type: "Pooling"
  bottom: "conv5_ntype"
  top: "pool5_ntype"
  include {
    phase: TRAIN
  }
  pooling_param {
    pool: MAX
    kernel_size: 3
    stride: 2
  }
}
layer {
  name: "fc6_ntype"
  type: "InnerProduct"
  bottom: "pool5_ntype"
  top: "fc6_ntype"
  param {
    lr_mult: 1
    decay_mult: 1
  }
  param {
    lr_mult: 2
    decay_mult: 0
  }
  include {
    phase: TRAIN
  }
  inner_product_param {
    num_output: 4096
    weight_filler {
      type: "gaussian"
      std: 0.005
    }
    bias_filler {
      type: "constant"
      value: 1
    }
  }
}
layer {
  name: "relu6_ntype"
  type: "ReLU"
  bottom: "fc6_ntype"
  top: "fc6_ntype"
  include {
    phase: TRAIN
  }
}
layer {
  name: "drop6_ntype"
  type: "Dropout"
  bottom: "fc6_ntype"
  top: "fc6_ntype"
  include {
    phase: TRAIN
  }
  dropout_param {
    dropout_ratio: 0.5
  }
}
layer {
  name: "fc7_ntype"
  type: "InnerProduct"
  bottom: "fc6_ntype"
  top: "fc7_ntype"
  param {
    lr_mult: 1
    decay_mult: 1
  }
  param {
    lr_mult: 2
    decay_mult: 0
  }
  include {
    phase: TRAIN
  }
  inner_product_param {
    num_output: 1024
    weight_filler {
      type: "gaussian"
      std: 0.005
    }
    bias_filler {
      type: "constant"
      value: 1
    }
  }
}
layer {
  name: "relu7_ntype"
  type: "ReLU"
  bottom: "fc7_ntype"
  top: "fc7_ntype"
  include {
    phase: TRAIN
  }
}
layer {
  name: "drop7_ntype"
  type: "Dropout"
  bottom: "fc7_ntype"
  top: "fc7_ntype"
  include {
    phase: TRAIN
  }
  dropout_param {
    dropout_ratio: 0.5
  }
}
layer {
  name: "fc8_ntype"
  type: "InnerProduct"
  bottom: "fc7_ntype"
  top: "fc8_ntype"
  param {
    lr_mult: 1
    decay_mult: 1
  }
  param {
    lr_mult: 2
    decay_mult: 0
  }
  include {
    phase: TRAIN
  }
  inner_product_param {
    num_output: 3
    weight_filler {
      type: "gaussian"
      std: 0.01
    }
    bias_filler {
      type: "constant"
      value: 0
    }
  }
}
layer {
  name: "loss_ntype"
  type: "SoftmaxWithLoss"
  bottom: "fc8_ntype"
  bottom: "label_ntype"
  top: "loss_ntype"
  loss_weight: 0.1
  include {
    phase: TRAIN
  }
  loss_param {
    ignore_label: -1
    normalize: false
  }
}
layer {
  name: "loss_noisy"
  type: "SoftmaxWithNoisyLabelLoss"
  bottom: "fc8_clean"
  bottom: "fc8_ntype"
  bottom: "label_noisy"
  top: "loss_noisy"
  loss_weight: 1
  param {
    lr_mult: 0
    decay_mult: 0
  }
  include {
    phase: TRAIN
  }
  softmax_noisy_label_loss_param {
    update_noise_lr: 0.1
    matrix_c_filler {
      type: "blob_proto"
      source: "external/exp/db/clothing1M/matrix_c.binaryproto"
    }
  }
}
I0322 08:51:36.010035  1043 layer_factory.hpp:74] Creating layer data
I0322 08:51:36.010048  1043 net.cpp:133] Creating Layer data
I0322 08:51:36.010067  1043 net.cpp:411] data -> data
I0322 08:51:36.010076  1043 net.cpp:163] Setting up data
I0322 08:51:36.010081  1043 data_transformer.cpp:23] Loading mean file from: external/exp/db/clothing1M/clothing1M_mean.binaryproto
I0322 08:51:36.012300  1043 db_lmdb.cpp:22] Opened lmdb external/exp/db/clothing1M/mixed_train_images
I0322 08:51:36.012403  1043 data_layer.cpp:55] Skipping first 0 data points.
I0322 08:51:36.012465  1043 data_layer.cpp:100] output data size: 64,3,227,227
I0322 08:51:36.012608  1043 net.cpp:170] Top shape: 64 3 227 227 (9893568)
I0322 08:51:36.012616  1043 layer_factory.hpp:74] Creating layer data_data_0_split
I0322 08:51:36.012627  1043 net.cpp:133] Creating Layer data_data_0_split
I0322 08:51:36.012660  1043 net.cpp:453] data_data_0_split <- data
I0322 08:51:36.012670  1043 net.cpp:411] data_data_0_split -> data_data_0_split_0
I0322 08:51:36.013197  1043 net.cpp:411] data_data_0_split -> data_data_0_split_1
I0322 08:51:36.013229  1043 net.cpp:163] Setting up data_data_0_split
I0322 08:51:36.013242  1043 net.cpp:170] Top shape: 64 3 227 227 (9893568)
I0322 08:51:36.013253  1043 net.cpp:170] Top shape: 64 3 227 227 (9893568)
I0322 08:51:36.013258  1043 layer_factory.hpp:74] Creating layer label_clean
I0322 08:51:36.013269  1043 net.cpp:133] Creating Layer label_clean
I0322 08:51:36.013274  1043 net.cpp:411] label_clean -> label_clean
I0322 08:51:36.013279  1043 net.cpp:163] Setting up label_clean
I0322 08:51:36.013833  1043 db_lmdb.cpp:22] Opened lmdb external/exp/db/clothing1M/mixed_train_label_clean
I0322 08:51:36.013870  1043 data_layer.cpp:55] Skipping first 0 data points.
I0322 08:51:36.013883  1043 data_layer.cpp:100] output data size: 64,1,1,1
I0322 08:51:36.013933  1043 net.cpp:170] Top shape: 64 1 1 1 (64)
I0322 08:51:36.013942  1043 layer_factory.hpp:74] Creating layer label_ntype
I0322 08:51:36.013957  1043 net.cpp:133] Creating Layer label_ntype
I0322 08:51:36.013989  1043 net.cpp:411] label_ntype -> label_ntype
I0322 08:51:36.014009  1043 net.cpp:163] Setting up label_ntype
I0322 08:51:36.014086  1043 db_lmdb.cpp:22] Opened lmdb external/exp/db/clothing1M/mixed_train_label_ntype
I0322 08:51:36.014107  1043 data_layer.cpp:55] Skipping first 0 data points.
I0322 08:51:36.014120  1043 data_layer.cpp:100] output data size: 64,1,1,1
I0322 08:51:36.014168  1043 net.cpp:170] Top shape: 64 1 1 1 (64)
I0322 08:51:36.014174  1043 layer_factory.hpp:74] Creating layer label_noisy
I0322 08:51:36.014190  1043 net.cpp:133] Creating Layer label_noisy
I0322 08:51:36.014196  1043 net.cpp:411] label_noisy -> label_noisy
I0322 08:51:36.014202  1043 net.cpp:163] Setting up label_noisy
I0322 08:51:36.014256  1043 db_lmdb.cpp:22] Opened lmdb external/exp/db/clothing1M/mixed_train_label_noisy
I0322 08:51:36.014266  1043 data_layer.cpp:55] Skipping first 0 data points.
I0322 08:51:36.014272  1043 data_layer.cpp:100] output data size: 64,1,1,1
I0322 08:51:36.014297  1043 net.cpp:170] Top shape: 64 1 1 1 (64)
I0322 08:51:36.014302  1043 layer_factory.hpp:74] Creating layer conv1_clean
I0322 08:51:36.014312  1043 net.cpp:133] Creating Layer conv1_clean
I0322 08:51:36.014317  1043 net.cpp:453] conv1_clean <- data_data_0_split_0
I0322 08:51:36.014333  1043 net.cpp:411] conv1_clean -> conv1_clean
I0322 08:51:36.014346  1043 net.cpp:163] Setting up conv1_clean
I0322 08:51:40.629554  1043 net.cpp:170] Top shape: 64 96 55 55 (18585600)
I0322 08:51:40.629586  1043 layer_factory.hpp:74] Creating layer relu1_clean
I0322 08:51:40.629595  1043 net.cpp:133] Creating Layer relu1_clean
I0322 08:51:40.629596  1043 net.cpp:453] relu1_clean <- conv1_clean
I0322 08:51:40.629601  1043 net.cpp:400] relu1_clean -> conv1_clean (in-place)
I0322 08:51:40.629609  1043 net.cpp:163] Setting up relu1_clean
I0322 08:51:40.629724  1043 net.cpp:170] Top shape: 64 96 55 55 (18585600)
I0322 08:51:40.629729  1043 layer_factory.hpp:74] Creating layer pool1_clean
I0322 08:51:40.629734  1043 net.cpp:133] Creating Layer pool1_clean
I0322 08:51:40.629735  1043 net.cpp:453] pool1_clean <- conv1_clean
I0322 08:51:40.629739  1043 net.cpp:411] pool1_clean -> pool1_clean
I0322 08:51:40.629742  1043 net.cpp:163] Setting up pool1_clean
I0322 08:51:40.629914  1043 net.cpp:170] Top shape: 64 96 27 27 (4478976)
I0322 08:51:40.629920  1043 layer_factory.hpp:74] Creating layer norm1_clean
I0322 08:51:40.629926  1043 net.cpp:133] Creating Layer norm1_clean
I0322 08:51:40.629928  1043 net.cpp:453] norm1_clean <- pool1_clean
I0322 08:51:40.629931  1043 net.cpp:411] norm1_clean -> norm1_clean
I0322 08:51:40.629936  1043 net.cpp:163] Setting up norm1_clean
I0322 08:51:40.629940  1043 net.cpp:170] Top shape: 64 96 27 27 (4478976)
I0322 08:51:40.629942  1043 layer_factory.hpp:74] Creating layer conv2_clean
I0322 08:51:40.629948  1043 net.cpp:133] Creating Layer conv2_clean
I0322 08:51:40.629950  1043 net.cpp:453] conv2_clean <- norm1_clean
I0322 08:51:40.629952  1043 net.cpp:411] conv2_clean -> conv2_clean
I0322 08:51:40.629956  1043 net.cpp:163] Setting up conv2_clean
I0322 08:51:40.697803  1043 cudnn_conv_layer.cpp:348] fft context time 3.21661 mem 121929728
I0322 08:51:40.736459  1043 net.cpp:170] Top shape: 64 256 27 27 (11943936)
I0322 08:51:40.736469  1043 layer_factory.hpp:74] Creating layer relu2_clean
I0322 08:51:40.736474  1043 net.cpp:133] Creating Layer relu2_clean
I0322 08:51:40.736476  1043 net.cpp:453] relu2_clean <- conv2_clean
I0322 08:51:40.736479  1043 net.cpp:400] relu2_clean -> conv2_clean (in-place)
I0322 08:51:40.736482  1043 net.cpp:163] Setting up relu2_clean
I0322 08:51:40.736593  1043 net.cpp:170] Top shape: 64 256 27 27 (11943936)
I0322 08:51:40.736598  1043 layer_factory.hpp:74] Creating layer pool2_clean
I0322 08:51:40.736603  1043 net.cpp:133] Creating Layer pool2_clean
I0322 08:51:40.736604  1043 net.cpp:453] pool2_clean <- conv2_clean
I0322 08:51:40.736608  1043 net.cpp:411] pool2_clean -> pool2_clean
I0322 08:51:40.736610  1043 net.cpp:163] Setting up pool2_clean
I0322 08:51:40.736783  1043 net.cpp:170] Top shape: 64 256 13 13 (2768896)
I0322 08:51:40.736788  1043 layer_factory.hpp:74] Creating layer norm2_clean
I0322 08:51:40.736791  1043 net.cpp:133] Creating Layer norm2_clean
I0322 08:51:40.736793  1043 net.cpp:453] norm2_clean <- pool2_clean
I0322 08:51:40.736798  1043 net.cpp:411] norm2_clean -> norm2_clean
I0322 08:51:40.736800  1043 net.cpp:163] Setting up norm2_clean
I0322 08:51:40.736804  1043 net.cpp:170] Top shape: 64 256 13 13 (2768896)
I0322 08:51:40.736806  1043 layer_factory.hpp:74] Creating layer conv3_clean
I0322 08:51:40.736812  1043 net.cpp:133] Creating Layer conv3_clean
I0322 08:51:40.736814  1043 net.cpp:453] conv3_clean <- norm2_clean
I0322 08:51:40.736817  1043 net.cpp:411] conv3_clean -> conv3_clean
I0322 08:51:40.736821  1043 net.cpp:163] Setting up conv3_clean
I0322 08:51:40.852054  1043 cudnn_conv_layer.cpp:348] fft context time 4.43578 mem 243105792
I0322 08:51:40.914511  1043 net.cpp:170] Top shape: 64 384 13 13 (4153344)
I0322 08:51:40.914525  1043 layer_factory.hpp:74] Creating layer relu3_clean
I0322 08:51:40.914532  1043 net.cpp:133] Creating Layer relu3_clean
I0322 08:51:40.914535  1043 net.cpp:453] relu3_clean <- conv3_clean
I0322 08:51:40.914538  1043 net.cpp:400] relu3_clean -> conv3_clean (in-place)
I0322 08:51:40.914543  1043 net.cpp:163] Setting up relu3_clean
I0322 08:51:40.914727  1043 net.cpp:170] Top shape: 64 384 13 13 (4153344)
I0322 08:51:40.914733  1043 layer_factory.hpp:74] Creating layer conv4_clean
I0322 08:51:40.914739  1043 net.cpp:133] Creating Layer conv4_clean
I0322 08:51:40.914741  1043 net.cpp:453] conv4_clean <- conv3_clean
I0322 08:51:40.914746  1043 net.cpp:411] conv4_clean -> conv4_clean
I0322 08:51:40.914749  1043 net.cpp:163] Setting up conv4_clean
I0322 08:51:40.971484  1043 cudnn_conv_layer.cpp:348] fft context time 1.92 mem 93241344
I0322 08:51:41.000885  1043 net.cpp:170] Top shape: 64 384 13 13 (4153344)
I0322 08:51:41.000896  1043 layer_factory.hpp:74] Creating layer relu4_clean
I0322 08:51:41.000903  1043 net.cpp:133] Creating Layer relu4_clean
I0322 08:51:41.000905  1043 net.cpp:453] relu4_clean <- conv4_clean
I0322 08:51:41.000908  1043 net.cpp:400] relu4_clean -> conv4_clean (in-place)
I0322 08:51:41.000912  1043 net.cpp:163] Setting up relu4_clean
I0322 08:51:41.001020  1043 net.cpp:170] Top shape: 64 384 13 13 (4153344)
I0322 08:51:41.001025  1043 layer_factory.hpp:74] Creating layer conv5_clean
I0322 08:51:41.001030  1043 net.cpp:133] Creating Layer conv5_clean
I0322 08:51:41.001032  1043 net.cpp:453] conv5_clean <- conv4_clean
I0322 08:51:41.001035  1043 net.cpp:411] conv5_clean -> conv5_clean
I0322 08:51:41.001040  1043 net.cpp:163] Setting up conv5_clean
I0322 08:51:41.036893  1043 cudnn_conv_layer.cpp:348] fft context time 1.45203 mem 62160896
I0322 08:51:41.057168  1043 net.cpp:170] Top shape: 64 256 13 13 (2768896)
I0322 08:51:41.057178  1043 layer_factory.hpp:74] Creating layer relu5_clean
I0322 08:51:41.057183  1043 net.cpp:133] Creating Layer relu5_clean
I0322 08:51:41.057185  1043 net.cpp:453] relu5_clean <- conv5_clean
I0322 08:51:41.057188  1043 net.cpp:400] relu5_clean -> conv5_clean (in-place)
I0322 08:51:41.057191  1043 net.cpp:163] Setting up relu5_clean
I0322 08:51:41.057297  1043 net.cpp:170] Top shape: 64 256 13 13 (2768896)
I0322 08:51:41.057303  1043 layer_factory.hpp:74] Creating layer pool5_clean
I0322 08:51:41.057307  1043 net.cpp:133] Creating Layer pool5_clean
I0322 08:51:41.057309  1043 net.cpp:453] pool5_clean <- conv5_clean
I0322 08:51:41.057313  1043 net.cpp:411] pool5_clean -> pool5_clean
I0322 08:51:41.057317  1043 net.cpp:163] Setting up pool5_clean
I0322 08:51:41.057557  1043 net.cpp:170] Top shape: 64 256 6 6 (589824)
I0322 08:51:41.057564  1043 layer_factory.hpp:74] Creating layer gather_pool5_clean_to_fc6_clean
I0322 08:51:41.057567  1043 net.cpp:133] Creating Layer gather_pool5_clean_to_fc6_clean
I0322 08:51:41.057571  1043 net.cpp:453] gather_pool5_clean_to_fc6_clean <- pool5_clean
I0322 08:51:41.057579  1043 net.cpp:411] gather_pool5_clean_to_fc6_clean -> gathered_pool5_clean
I0322 08:51:41.057585  1043 net.cpp:163] Setting up gather_pool5_clean_to_fc6_clean
I0322 08:51:41.057588  1043 net.cpp:170] Top shape: 128 256 6 6 (1179648)
I0322 08:51:41.057590  1043 layer_factory.hpp:74] Creating layer fc6_clean
I0322 08:51:41.057595  1043 net.cpp:133] Creating Layer fc6_clean
I0322 08:51:41.057597  1043 net.cpp:453] fc6_clean <- gathered_pool5_clean
I0322 08:51:41.057600  1043 net.cpp:411] fc6_clean -> fc6_clean
I0322 08:51:41.057605  1043 net.cpp:163] Setting up fc6_clean
I0322 08:51:41.299206  1043 net.cpp:170] Top shape: 128 4096 (524288)
I0322 08:51:41.299232  1043 layer_factory.hpp:74] Creating layer relu6_clean
I0322 08:51:41.299238  1043 net.cpp:133] Creating Layer relu6_clean
I0322 08:51:41.299242  1043 net.cpp:453] relu6_clean <- fc6_clean
I0322 08:51:41.299247  1043 net.cpp:400] relu6_clean -> fc6_clean (in-place)
I0322 08:51:41.299252  1043 net.cpp:163] Setting up relu6_clean
I0322 08:51:41.299432  1043 net.cpp:170] Top shape: 128 4096 (524288)
I0322 08:51:41.299438  1043 layer_factory.hpp:74] Creating layer drop6_clean
I0322 08:51:41.299443  1043 net.cpp:133] Creating Layer drop6_clean
I0322 08:51:41.299444  1043 net.cpp:453] drop6_clean <- fc6_clean
I0322 08:51:41.299448  1043 net.cpp:400] drop6_clean -> fc6_clean (in-place)
I0322 08:51:41.299450  1043 net.cpp:163] Setting up drop6_clean
I0322 08:51:41.299456  1043 net.cpp:170] Top shape: 128 4096 (524288)
I0322 08:51:41.299458  1043 layer_factory.hpp:74] Creating layer fc7_clean
I0322 08:51:41.299463  1043 net.cpp:133] Creating Layer fc7_clean
I0322 08:51:41.299465  1043 net.cpp:453] fc7_clean <- fc6_clean
I0322 08:51:41.299468  1043 net.cpp:411] fc7_clean -> fc7_clean
I0322 08:51:41.299473  1043 net.cpp:163] Setting up fc7_clean
I0322 08:51:41.407014  1043 net.cpp:170] Top shape: 128 4096 (524288)
I0322 08:51:41.407040  1043 layer_factory.hpp:74] Creating layer relu7_clean
I0322 08:51:41.407047  1043 net.cpp:133] Creating Layer relu7_clean
I0322 08:51:41.407052  1043 net.cpp:453] relu7_clean <- fc7_clean
I0322 08:51:41.407055  1043 net.cpp:400] relu7_clean -> fc7_clean (in-place)
I0322 08:51:41.407061  1043 net.cpp:163] Setting up relu7_clean
I0322 08:51:41.407374  1043 net.cpp:170] Top shape: 128 4096 (524288)
I0322 08:51:41.407382  1043 layer_factory.hpp:74] Creating layer drop7_clean
I0322 08:51:41.407385  1043 net.cpp:133] Creating Layer drop7_clean
I0322 08:51:41.407387  1043 net.cpp:453] drop7_clean <- fc7_clean
I0322 08:51:41.407390  1043 net.cpp:400] drop7_clean -> fc7_clean (in-place)
I0322 08:51:41.407394  1043 net.cpp:163] Setting up drop7_clean
I0322 08:51:41.407397  1043 net.cpp:170] Top shape: 128 4096 (524288)
I0322 08:51:41.407399  1043 layer_factory.hpp:74] Creating layer fc8_clean
I0322 08:51:41.407404  1043 net.cpp:133] Creating Layer fc8_clean
I0322 08:51:41.407407  1043 net.cpp:453] fc8_clean <- fc7_clean
I0322 08:51:41.407409  1043 net.cpp:411] fc8_clean -> fc8_clean
I0322 08:51:41.407413  1043 net.cpp:163] Setting up fc8_clean
I0322 08:51:41.407826  1043 net.cpp:170] Top shape: 128 14 (1792)
I0322 08:51:41.407832  1043 layer_factory.hpp:74] Creating layer fc8_clean_fc8_clean_0_split
I0322 08:51:41.407836  1043 net.cpp:133] Creating Layer fc8_clean_fc8_clean_0_split
I0322 08:51:41.407838  1043 net.cpp:453] fc8_clean_fc8_clean_0_split <- fc8_clean
I0322 08:51:41.407842  1043 net.cpp:411] fc8_clean_fc8_clean_0_split -> fc8_clean_fc8_clean_0_split_0
I0322 08:51:41.407846  1043 net.cpp:411] fc8_clean_fc8_clean_0_split -> fc8_clean_fc8_clean_0_split_1
I0322 08:51:41.407850  1043 net.cpp:163] Setting up fc8_clean_fc8_clean_0_split
I0322 08:51:41.407853  1043 net.cpp:170] Top shape: 128 14 (1792)
I0322 08:51:41.407855  1043 net.cpp:170] Top shape: 128 14 (1792)
I0322 08:51:41.407856  1043 layer_factory.hpp:74] Creating layer gather_label_clean_to_loss_clean
I0322 08:51:41.407860  1043 net.cpp:133] Creating Layer gather_label_clean_to_loss_clean
I0322 08:51:41.407861  1043 net.cpp:453] gather_label_clean_to_loss_clean <- label_clean
I0322 08:51:41.407865  1043 net.cpp:411] gather_label_clean_to_loss_clean -> gathered_label_clean
I0322 08:51:41.407867  1043 net.cpp:163] Setting up gather_label_clean_to_loss_clean
I0322 08:51:41.407871  1043 net.cpp:170] Top shape: 128 1 1 1 (128)
I0322 08:51:41.407871  1043 layer_factory.hpp:74] Creating layer loss_clean
I0322 08:51:41.407877  1043 net.cpp:133] Creating Layer loss_clean
I0322 08:51:41.407881  1043 net.cpp:453] loss_clean <- fc8_clean_fc8_clean_0_split_0
I0322 08:51:41.407884  1043 net.cpp:453] loss_clean <- gathered_label_clean
I0322 08:51:41.407887  1043 net.cpp:411] loss_clean -> loss_clean
I0322 08:51:41.407891  1043 net.cpp:163] Setting up loss_clean
I0322 08:51:41.407896  1043 layer_factory.hpp:74] Creating layer loss_clean
I0322 08:51:41.408010  1043 net.cpp:170] Top shape: (1)
I0322 08:51:41.408013  1043 net.cpp:172]     with loss weight 1
I0322 08:51:41.408021  1043 layer_factory.hpp:74] Creating layer conv1_ntype
I0322 08:51:41.408028  1043 net.cpp:133] Creating Layer conv1_ntype
I0322 08:51:41.408030  1043 net.cpp:453] conv1_ntype <- data_data_0_split_1
I0322 08:51:41.408035  1043 net.cpp:411] conv1_ntype -> conv1_ntype
I0322 08:51:41.408040  1043 net.cpp:163] Setting up conv1_ntype
I0322 08:51:45.883103  1043 net.cpp:170] Top shape: 64 96 55 55 (18585600)
I0322 08:51:45.883121  1043 layer_factory.hpp:74] Creating layer relu1_ntype
I0322 08:51:45.883132  1043 net.cpp:133] Creating Layer relu1_ntype
I0322 08:51:45.883136  1043 net.cpp:453] relu1_ntype <- conv1_ntype
I0322 08:51:45.883139  1043 net.cpp:400] relu1_ntype -> conv1_ntype (in-place)
I0322 08:51:45.883143  1043 net.cpp:163] Setting up relu1_ntype
I0322 08:51:45.883343  1043 net.cpp:170] Top shape: 64 96 55 55 (18585600)
I0322 08:51:45.883349  1043 layer_factory.hpp:74] Creating layer pool1_ntype
I0322 08:51:45.883354  1043 net.cpp:133] Creating Layer pool1_ntype
I0322 08:51:45.883357  1043 net.cpp:453] pool1_ntype <- conv1_ntype
I0322 08:51:45.883359  1043 net.cpp:411] pool1_ntype -> pool1_ntype
I0322 08:51:45.883364  1043 net.cpp:163] Setting up pool1_ntype
I0322 08:51:45.883463  1043 net.cpp:170] Top shape: 64 96 27 27 (4478976)
I0322 08:51:45.883469  1043 layer_factory.hpp:74] Creating layer norm1_ntype
I0322 08:51:45.883474  1043 net.cpp:133] Creating Layer norm1_ntype
I0322 08:51:45.883476  1043 net.cpp:453] norm1_ntype <- pool1_ntype
I0322 08:51:45.883479  1043 net.cpp:411] norm1_ntype -> norm1_ntype
I0322 08:51:45.883483  1043 net.cpp:163] Setting up norm1_ntype
I0322 08:51:45.883486  1043 net.cpp:170] Top shape: 64 96 27 27 (4478976)
I0322 08:51:45.883488  1043 layer_factory.hpp:74] Creating layer conv2_ntype
I0322 08:51:45.883493  1043 net.cpp:133] Creating Layer conv2_ntype
I0322 08:51:45.883496  1043 net.cpp:453] conv2_ntype <- norm1_ntype
I0322 08:51:45.883498  1043 net.cpp:411] conv2_ntype -> conv2_ntype
I0322 08:51:45.883502  1043 net.cpp:163] Setting up conv2_ntype
I0322 08:51:45.951961  1043 cudnn_conv_layer.cpp:348] fft context time 3.23014 mem 121929728
I0322 08:51:45.990491  1043 net.cpp:170] Top shape: 64 256 27 27 (11943936)
I0322 08:51:45.990501  1043 layer_factory.hpp:74] Creating layer relu2_ntype
I0322 08:51:45.990506  1043 net.cpp:133] Creating Layer relu2_ntype
I0322 08:51:45.990509  1043 net.cpp:453] relu2_ntype <- conv2_ntype
I0322 08:51:45.990512  1043 net.cpp:400] relu2_ntype -> conv2_ntype (in-place)
I0322 08:51:45.990515  1043 net.cpp:163] Setting up relu2_ntype
I0322 08:51:45.990631  1043 net.cpp:170] Top shape: 64 256 27 27 (11943936)
I0322 08:51:45.990636  1043 layer_factory.hpp:74] Creating layer pool2_ntype
I0322 08:51:45.990641  1043 net.cpp:133] Creating Layer pool2_ntype
I0322 08:51:45.990643  1043 net.cpp:453] pool2_ntype <- conv2_ntype
I0322 08:51:45.990646  1043 net.cpp:411] pool2_ntype -> pool2_ntype
I0322 08:51:45.990653  1043 net.cpp:163] Setting up pool2_ntype
I0322 08:51:45.990830  1043 net.cpp:170] Top shape: 64 256 13 13 (2768896)
I0322 08:51:45.990838  1043 layer_factory.hpp:74] Creating layer norm2_ntype
I0322 08:51:45.990842  1043 net.cpp:133] Creating Layer norm2_ntype
I0322 08:51:45.990844  1043 net.cpp:453] norm2_ntype <- pool2_ntype
I0322 08:51:45.990847  1043 net.cpp:411] norm2_ntype -> norm2_ntype
I0322 08:51:45.990850  1043 net.cpp:163] Setting up norm2_ntype
I0322 08:51:45.990854  1043 net.cpp:170] Top shape: 64 256 13 13 (2768896)
I0322 08:51:45.990856  1043 layer_factory.hpp:74] Creating layer conv3_ntype
I0322 08:51:45.990861  1043 net.cpp:133] Creating Layer conv3_ntype
I0322 08:51:45.990866  1043 net.cpp:453] conv3_ntype <- norm2_ntype
I0322 08:51:45.990874  1043 net.cpp:411] conv3_ntype -> conv3_ntype
I0322 08:51:45.990880  1043 net.cpp:163] Setting up conv3_ntype
I0322 08:51:46.106760  1043 cudnn_conv_layer.cpp:348] fft context time 4.44557 mem 243105792
I0322 08:51:46.170205  1043 net.cpp:170] Top shape: 64 384 13 13 (4153344)
I0322 08:51:46.170217  1043 layer_factory.hpp:74] Creating layer relu3_ntype
I0322 08:51:46.170223  1043 net.cpp:133] Creating Layer relu3_ntype
I0322 08:51:46.170227  1043 net.cpp:453] relu3_ntype <- conv3_ntype
I0322 08:51:46.170230  1043 net.cpp:400] relu3_ntype -> conv3_ntype (in-place)
I0322 08:51:46.170234  1043 net.cpp:163] Setting up relu3_ntype
I0322 08:51:46.170351  1043 net.cpp:170] Top shape: 64 384 13 13 (4153344)
I0322 08:51:46.170356  1043 layer_factory.hpp:74] Creating layer conv4_ntype
I0322 08:51:46.170361  1043 net.cpp:133] Creating Layer conv4_ntype
I0322 08:51:46.170363  1043 net.cpp:453] conv4_ntype <- conv3_ntype
I0322 08:51:46.170368  1043 net.cpp:411] conv4_ntype -> conv4_ntype
I0322 08:51:46.170372  1043 net.cpp:163] Setting up conv4_ntype
I0322 08:51:46.227675  1043 cudnn_conv_layer.cpp:348] fft context time 1.91427 mem 93241344
I0322 08:51:46.257362  1043 net.cpp:170] Top shape: 64 384 13 13 (4153344)
I0322 08:51:46.257375  1043 layer_factory.hpp:74] Creating layer relu4_ntype
I0322 08:51:46.257380  1043 net.cpp:133] Creating Layer relu4_ntype
I0322 08:51:46.257383  1043 net.cpp:453] relu4_ntype <- conv4_ntype
I0322 08:51:46.257387  1043 net.cpp:400] relu4_ntype -> conv4_ntype (in-place)
I0322 08:51:46.257391  1043 net.cpp:163] Setting up relu4_ntype
I0322 08:51:46.257519  1043 net.cpp:170] Top shape: 64 384 13 13 (4153344)
I0322 08:51:46.257524  1043 layer_factory.hpp:74] Creating layer conv5_ntype
I0322 08:51:46.257530  1043 net.cpp:133] Creating Layer conv5_ntype
I0322 08:51:46.257532  1043 net.cpp:453] conv5_ntype <- conv4_ntype
I0322 08:51:46.257536  1043 net.cpp:411] conv5_ntype -> conv5_ntype
I0322 08:51:46.257544  1043 net.cpp:163] Setting up conv5_ntype
I0322 08:51:46.293215  1043 cudnn_conv_layer.cpp:348] fft context time 1.43789 mem 62160896
I0322 08:51:46.313601  1043 net.cpp:170] Top shape: 64 256 13 13 (2768896)
I0322 08:51:46.313611  1043 layer_factory.hpp:74] Creating layer relu5_ntype
I0322 08:51:46.313616  1043 net.cpp:133] Creating Layer relu5_ntype
I0322 08:51:46.313618  1043 net.cpp:453] relu5_ntype <- conv5_ntype
I0322 08:51:46.313621  1043 net.cpp:400] relu5_ntype -> conv5_ntype (in-place)
I0322 08:51:46.313624  1043 net.cpp:163] Setting up relu5_ntype
I0322 08:51:46.313741  1043 net.cpp:170] Top shape: 64 256 13 13 (2768896)
I0322 08:51:46.313747  1043 layer_factory.hpp:74] Creating layer pool5_ntype
I0322 08:51:46.313752  1043 net.cpp:133] Creating Layer pool5_ntype
I0322 08:51:46.313755  1043 net.cpp:453] pool5_ntype <- conv5_ntype
I0322 08:51:46.313757  1043 net.cpp:411] pool5_ntype -> pool5_ntype
I0322 08:51:46.313761  1043 net.cpp:163] Setting up pool5_ntype
I0322 08:51:46.313941  1043 net.cpp:170] Top shape: 64 256 6 6 (589824)
I0322 08:51:46.313947  1043 layer_factory.hpp:74] Creating layer gather_pool5_ntype_to_fc6_ntype
I0322 08:51:46.313951  1043 net.cpp:133] Creating Layer gather_pool5_ntype_to_fc6_ntype
I0322 08:51:46.313953  1043 net.cpp:453] gather_pool5_ntype_to_fc6_ntype <- pool5_ntype
I0322 08:51:46.313956  1043 net.cpp:411] gather_pool5_ntype_to_fc6_ntype -> gathered_pool5_ntype
I0322 08:51:46.313961  1043 net.cpp:163] Setting up gather_pool5_ntype_to_fc6_ntype
I0322 08:51:46.313964  1043 net.cpp:170] Top shape: 128 256 6 6 (1179648)
I0322 08:51:46.313966  1043 layer_factory.hpp:74] Creating layer fc6_ntype
I0322 08:51:46.313971  1043 net.cpp:133] Creating Layer fc6_ntype
I0322 08:51:46.313972  1043 net.cpp:453] fc6_ntype <- gathered_pool5_ntype
I0322 08:51:46.313977  1043 net.cpp:411] fc6_ntype -> fc6_ntype
I0322 08:51:46.313982  1043 net.cpp:163] Setting up fc6_ntype
I0322 08:51:46.555608  1043 net.cpp:170] Top shape: 128 4096 (524288)
I0322 08:51:46.555625  1043 layer_factory.hpp:74] Creating layer relu6_ntype
I0322 08:51:46.555634  1043 net.cpp:133] Creating Layer relu6_ntype
I0322 08:51:46.555636  1043 net.cpp:453] relu6_ntype <- fc6_ntype
I0322 08:51:46.555640  1043 net.cpp:400] relu6_ntype -> fc6_ntype (in-place)
I0322 08:51:46.555644  1043 net.cpp:163] Setting up relu6_ntype
I0322 08:51:46.555922  1043 net.cpp:170] Top shape: 128 4096 (524288)
I0322 08:51:46.555928  1043 layer_factory.hpp:74] Creating layer drop6_ntype
I0322 08:51:46.555933  1043 net.cpp:133] Creating Layer drop6_ntype
I0322 08:51:46.555935  1043 net.cpp:453] drop6_ntype <- fc6_ntype
I0322 08:51:46.555938  1043 net.cpp:400] drop6_ntype -> fc6_ntype (in-place)
I0322 08:51:46.555943  1043 net.cpp:163] Setting up drop6_ntype
I0322 08:51:46.555945  1043 net.cpp:170] Top shape: 128 4096 (524288)
I0322 08:51:46.555948  1043 layer_factory.hpp:74] Creating layer fc7_ntype
I0322 08:51:46.555953  1043 net.cpp:133] Creating Layer fc7_ntype
I0322 08:51:46.555954  1043 net.cpp:453] fc7_ntype <- fc6_ntype
I0322 08:51:46.555958  1043 net.cpp:411] fc7_ntype -> fc7_ntype
I0322 08:51:46.555961  1043 net.cpp:163] Setting up fc7_ntype
I0322 08:51:46.582967  1043 net.cpp:170] Top shape: 128 1024 (131072)
I0322 08:51:46.582980  1043 layer_factory.hpp:74] Creating layer relu7_ntype
I0322 08:51:46.582985  1043 net.cpp:133] Creating Layer relu7_ntype
I0322 08:51:46.582988  1043 net.cpp:453] relu7_ntype <- fc7_ntype
I0322 08:51:46.582993  1043 net.cpp:400] relu7_ntype -> fc7_ntype (in-place)
I0322 08:51:46.582996  1043 net.cpp:163] Setting up relu7_ntype
I0322 08:51:46.583158  1043 net.cpp:170] Top shape: 128 1024 (131072)
I0322 08:51:46.583163  1043 layer_factory.hpp:74] Creating layer drop7_ntype
I0322 08:51:46.583168  1043 net.cpp:133] Creating Layer drop7_ntype
I0322 08:51:46.583169  1043 net.cpp:453] drop7_ntype <- fc7_ntype
I0322 08:51:46.583173  1043 net.cpp:400] drop7_ntype -> fc7_ntype (in-place)
I0322 08:51:46.583175  1043 net.cpp:163] Setting up drop7_ntype
I0322 08:51:46.583178  1043 net.cpp:170] Top shape: 128 1024 (131072)
I0322 08:51:46.583180  1043 layer_factory.hpp:74] Creating layer fc8_ntype
I0322 08:51:46.583185  1043 net.cpp:133] Creating Layer fc8_ntype
I0322 08:51:46.583187  1043 net.cpp:453] fc8_ntype <- fc7_ntype
I0322 08:51:46.583189  1043 net.cpp:411] fc8_ntype -> fc8_ntype
I0322 08:51:46.583194  1043 net.cpp:163] Setting up fc8_ntype
I0322 08:51:46.583225  1043 net.cpp:170] Top shape: 128 3 (384)
I0322 08:51:46.583230  1043 layer_factory.hpp:74] Creating layer fc8_ntype_fc8_ntype_0_split
I0322 08:51:46.583233  1043 net.cpp:133] Creating Layer fc8_ntype_fc8_ntype_0_split
I0322 08:51:46.583235  1043 net.cpp:453] fc8_ntype_fc8_ntype_0_split <- fc8_ntype
I0322 08:51:46.583240  1043 net.cpp:411] fc8_ntype_fc8_ntype_0_split -> fc8_ntype_fc8_ntype_0_split_0
I0322 08:51:46.583242  1043 net.cpp:411] fc8_ntype_fc8_ntype_0_split -> fc8_ntype_fc8_ntype_0_split_1
I0322 08:51:46.583245  1043 net.cpp:163] Setting up fc8_ntype_fc8_ntype_0_split
I0322 08:51:46.583248  1043 net.cpp:170] Top shape: 128 3 (384)
I0322 08:51:46.583250  1043 net.cpp:170] Top shape: 128 3 (384)
I0322 08:51:46.583252  1043 layer_factory.hpp:74] Creating layer gather_label_ntype_to_loss_ntype
I0322 08:51:46.583256  1043 net.cpp:133] Creating Layer gather_label_ntype_to_loss_ntype
I0322 08:51:46.583257  1043 net.cpp:453] gather_label_ntype_to_loss_ntype <- label_ntype
I0322 08:51:46.583261  1043 net.cpp:411] gather_label_ntype_to_loss_ntype -> gathered_label_ntype
I0322 08:51:46.583263  1043 net.cpp:163] Setting up gather_label_ntype_to_loss_ntype
I0322 08:51:46.583268  1043 net.cpp:170] Top shape: 128 1 1 1 (128)
I0322 08:51:46.583271  1043 layer_factory.hpp:74] Creating layer loss_ntype
I0322 08:51:46.583274  1043 net.cpp:133] Creating Layer loss_ntype
I0322 08:51:46.583279  1043 net.cpp:453] loss_ntype <- fc8_ntype_fc8_ntype_0_split_0
I0322 08:51:46.583283  1043 net.cpp:453] loss_ntype <- gathered_label_ntype
I0322 08:51:46.583287  1043 net.cpp:411] loss_ntype -> loss_ntype
I0322 08:51:46.583290  1043 net.cpp:163] Setting up loss_ntype
I0322 08:51:46.583294  1043 layer_factory.hpp:74] Creating layer loss_ntype
I0322 08:51:46.583526  1043 net.cpp:170] Top shape: (1)
I0322 08:51:46.583533  1043 net.cpp:172]     with loss weight 0.1
I0322 08:51:46.583537  1043 layer_factory.hpp:74] Creating layer gather_label_noisy_to_loss_noisy
I0322 08:51:46.583540  1043 net.cpp:133] Creating Layer gather_label_noisy_to_loss_noisy
I0322 08:51:46.583542  1043 net.cpp:453] gather_label_noisy_to_loss_noisy <- label_noisy
I0322 08:51:46.583547  1043 net.cpp:411] gather_label_noisy_to_loss_noisy -> gathered_label_noisy
I0322 08:51:46.583550  1043 net.cpp:163] Setting up gather_label_noisy_to_loss_noisy
I0322 08:51:46.583554  1043 net.cpp:170] Top shape: 128 1 1 1 (128)
I0322 08:51:46.583555  1043 layer_factory.hpp:74] Creating layer loss_noisy
I0322 08:51:46.583564  1043 net.cpp:133] Creating Layer loss_noisy
I0322 08:51:46.583567  1043 net.cpp:453] loss_noisy <- fc8_clean_fc8_clean_0_split_1
I0322 08:51:46.583570  1043 net.cpp:453] loss_noisy <- fc8_ntype_fc8_ntype_0_split_1
I0322 08:51:46.583572  1043 net.cpp:453] loss_noisy <- gathered_label_noisy
…
I0322 08:51:46.637398  1043 net.cpp:330] The NetState phase (1) differed from the phase (0) specified by a rule in layer loss_noisy
I0322 08:51:46.637503  1043 net.cpp:47] Initializing net from parameters: 
name: "clothing1M_noisy_label_loss"
state {
  phase: TEST
}
richness: 1000
layer {
  name: "data"
  type: "Data"
  top: "data"
  top: "label_clean"
  include {
    phase: TEST
  }
  transform_param {
    mirror: false
    crop_size: 227
    mean_file: "external/exp/db/clothing1M/clothing1M_mean.binaryproto"
  }
  data_param {
    source: "external/exp/db/clothing1M/clean_val"
    batch_size: 100
    backend: LMDB
  }
}
layer {
  name: "conv1_clean"
  type: "Convolution"
  bottom: "data"
  top: "conv1_clean"
  param {
    lr_mult: 1
    decay_mult: 1
  }
  param {
    lr_mult: 2
    decay_mult: 0
  }
  convolution_param {
    num_output: 96
    kernel_size: 11
    stride: 4
    weight_filler {
      type: "gaussian"
      std: 0.01
    }
    bias_filler {
      type: "constant"
      value: 0
    }
  }
}
layer {
  name: "relu1_clean"
  type: "ReLU"
  bottom: "conv1_clean"
  top: "conv1_clean"
}
layer {
  name: "pool1_clean"
  type: "Pooling"
  bottom: "conv1_clean"
  top: "pool1_clean"
  pooling_param {
    pool: MAX
    kernel_size: 3
    stride: 2
  }
}
layer {
  name: "norm1_clean"
  type: "LRN"
  bottom: "pool1_clean"
  top: "norm1_clean"
  lrn_param {
    local_size: 5
    alpha: 0.0001
    beta: 0.75
  }
}
layer {
  name: "conv2_clean"
  type: "Convolution"
  bottom: "norm1_clean"
  top: "conv2_clean"
  param {
    lr_mult: 1
    decay_mult: 1
  }
  param {
    lr_mult: 2
    decay_mult: 0
  }
  convolution_param {
    num_output: 256
    pad: 2
    kernel_size: 5
    group: 2
    weight_filler {
      type: "gaussian"
      std: 0.01
    }
    bias_filler {
      type: "constant"
      value: 1
    }
  }
}
layer {
  name: "relu2_clean"
  type: "ReLU"
  bottom: "conv2_clean"
  top: "conv2_clean"
}
layer {
  name: "pool2_clean"
  type: "Pooling"
  bottom: "conv2_clean"
  top: "pool2_clean"
  pooling_param {
    pool: MAX
    kernel_size: 3
    stride: 2
  }
}
layer {
  name: "norm2_clean"
  type: "LRN"
  bottom: "pool2_clean"
  top: "norm2_clean"
  lrn_param {
    local_size: 5
    alpha: 0.0001
    beta: 0.75
  }
}
layer {
  name: "conv3_clean"
  type: "Convolution"
  bottom: "norm2_clean"
  top: "conv3_clean"
  param {
    lr_mult: 1
    decay_mult: 1
  }
  param {
    lr_mult: 2
    decay_mult: 0
  }
  convolution_param {
    num_output: 384
    pad: 1
    kernel_size: 3
    weight_filler {
      type: "gaussian"
      std: 0.01
    }
    bias_filler {
      type: "constant"
      value: 0
    }
  }
}
layer {
  name: "relu3_clean"
  type: "ReLU"
  bottom: "conv3_clean"
  top: "conv3_clean"
}
layer {
  name: "conv4_clean"
  type: "Convolution"
  bottom: "conv3_clean"
  top: "conv4_clean"
  param {
    lr_mult: 1
    decay_mult: 1
  }
  param {
    lr_mult: 2
    decay_mult: 0
  }
  convolution_param {
    num_output: 384
    pad: 1
    kernel_size: 3
    group: 2
    weight_filler {
      type: "gaussian"
      std: 0.01
    }
    bias_filler {
      type: "constant"
      value: 1
    }
  }
}
layer {
  name: "relu4_clean"
  type: "ReLU"
  bottom: "conv4_clean"
  top: "conv4_clean"
}
layer {
  name: "conv5_clean"
  type: "Convolution"
  bottom: "conv4_clean"
  top: "conv5_clean"
  param {
    lr_mult: 1
    decay_mult: 1
  }
  param {
    lr_mult: 2
    decay_mult: 0
  }
  convolution_param {
    num_output: 256
    pad: 1
    kernel_size: 3
    group: 2
    weight_filler {
      type: "gaussian"
      std: 0.01
    }
    bias_filler {
      type: "constant"
      value: 1
    }
  }
}
layer {
  name: "relu5_clean"
  type: "ReLU"
  bottom: "conv5_clean"
  top: "conv5_clean"
}
layer {
  name: "pool5_clean"
  type: "Pooling"
  bottom: "conv5_clean"
  top: "pool5_clean"
  pooling_param {
    pool: MAX
    kernel_size: 3
    stride: 2
  }
}
layer {
  name: "fc6_clean"
  type: "InnerProduct"
  bottom: "pool5_clean"
  top: "fc6_clean"
  param {
    lr_mult: 1
    decay_mult: 1
  }
  param {
    lr_mult: 2
    decay_mult: 0
  }
  inner_product_param {
    num_output: 4096
    weight_filler {
      type: "gaussian"
      std: 0.005
    }
    bias_filler {
      type: "constant"
      value: 1
    }
  }
}
layer {
  name: "relu6_clean"
  type: "ReLU"
  bottom: "fc6_clean"
  top: "fc6_clean"
}
layer {
  name: "drop6_clean"
  type: "Dropout"
  bottom: "fc6_clean"
  top: "fc6_clean"
  dropout_param {
    dropout_ratio: 0.5
  }
}
layer {
  name: "fc7_clean"
  type: "InnerProduct"
  bottom: "fc6_clean"
  top: "fc7_clean"
  param {
    lr_mult: 1
    decay_mult: 1
  }
  param {
    lr_mult: 2
    decay_mult: 0
  }
  inner_product_param {
    num_output: 4096
    weight_filler {
      type: "gaussian"
      std: 0.005
    }
    bias_filler {
      type: "constant"
      value: 1
    }
  }
}
layer {
  name: "relu7_clean"
  type: "ReLU"
  bottom: "fc7_clean"
  top: "fc7_clean"
}
layer {
  name: "drop7_clean"
  type: "Dropout"
  bottom: "fc7_clean"
  top: "fc7_clean"
  dropout_param {
    dropout_ratio: 0.5
  }
}
layer {
  name: "fc8_clean"
  type: "InnerProduct"
  bottom: "fc7_clean"
  top: "fc8_clean"
  param {
    lr_mult: 1
    decay_mult: 1
  }
  param {
    lr_mult: 2
    decay_mult: 0
  }
  inner_product_param {
    num_output: 14
    weight_filler {
      type: "gaussian"
      std: 0.01
    }
    bias_filler {
      type: "constant"
      value: 0
    }
  }
}
layer {
  name: "accuracy"
  type: "Accuracy"
  bottom: "fc8_clean"
  bottom: "label_clean"
  top: "accuracy"
  include {
    phase: TEST
  }
}
layer {
  name: "loss_clean"
  type: "SoftmaxWithLoss"
  bottom: "fc8_clean"
  bottom: "label_clean"
  top: "loss_clean"
  loss_weight: 1
  loss_param {
    ignore_label: -1
    normalize: false
  }
}
I0322 08:51:46.637668  1043 layer_factory.hpp:74] Creating layer data
I0322 08:51:46.637678  1043 net.cpp:133] Creating Layer data
I0322 08:51:46.637683  1043 net.cpp:411] data -> data
I0322 08:51:46.637691  1043 net.cpp:411] data -> label_clean
I0322 08:51:46.637696  1043 net.cpp:163] Setting up data
I0322 08:51:46.637698  1043 data_transformer.cpp:23] Loading mean file from: external/exp/db/clothing1M/clothing1M_mean.binaryproto
I0322 08:51:46.638581  1043 db_lmdb.cpp:22] Opened lmdb external/exp/db/clothing1M/clean_val
I0322 08:51:46.638602  1043 data_layer.cpp:55] Skipping first 0 data points.
I0322 08:51:46.638659  1043 data_layer.cpp:100] output data size: 50,3,227,227
I0322 08:51:46.638684  1043 net.cpp:170] Top shape: 50 3 227 227 (7729350)
I0322 08:51:46.638689  1043 net.cpp:170] Top shape: 50 (50)
I0322 08:51:46.638692  1043 layer_factory.hpp:74] Creating layer label_clean_data_1_split
I0322 08:51:46.638698  1043 net.cpp:133] Creating Layer label_clean_data_1_split
I0322 08:51:46.638701  1043 net.cpp:453] label_clean_data_1_split <- label_clean
I0322 08:51:46.638712  1043 net.cpp:411] label_clean_data_1_split -> label_clean_data_1_split_0
I0322 08:51:46.638720  1043 net.cpp:411] label_clean_data_1_split -> label_clean_data_1_split_1
I0322 08:51:46.638725  1043 net.cpp:163] Setting up label_clean_data_1_split
I0322 08:51:46.638728  1043 net.cpp:170] Top shape: 50 (50)
I0322 08:51:46.638732  1043 net.cpp:170] Top shape: 50 (50)
I0322 08:51:46.638736  1043 layer_factory.hpp:74] Creating layer conv1_clean
I0322 08:51:46.638741  1043 net.cpp:133] Creating Layer conv1_clean
I0322 08:51:46.638744  1043 net.cpp:453] conv1_clean <- data
I0322 08:51:46.638749  1043 net.cpp:411] conv1_clean -> conv1_clean
I0322 08:51:46.638756  1043 net.cpp:163] Setting up conv1_clean
I0322 08:51:50.121613  1043 net.cpp:170] Top shape: 50 96 55 55 (14520000)
I0322 08:51:50.121629  1043 layer_factory.hpp:74] Creating layer relu1_clean
I0322 08:51:50.121635  1043 net.cpp:133] Creating Layer relu1_clean
I0322 08:51:50.121637  1043 net.cpp:453] relu1_clean <- conv1_clean
I0322 08:51:50.121640  1043 net.cpp:400] relu1_clean -> conv1_clean (in-place)
I0322 08:51:50.121644  1043 net.cpp:163] Setting up relu1_clean
I0322 08:51:50.121846  1043 net.cpp:170] Top shape: 50 96 55 55 (14520000)
I0322 08:51:50.121852  1043 layer_factory.hpp:74] Creating layer pool1_clean
I0322 08:51:50.121858  1043 net.cpp:133] Creating Layer pool1_clean
I0322 08:51:50.121860  1043 net.cpp:453] pool1_clean <- conv1_clean
I0322 08:51:50.121863  1043 net.cpp:411] pool1_clean -> pool1_clean
I0322 08:51:50.121866  1043 net.cpp:163] Setting up pool1_clean
I0322 08:51:50.121959  1043 net.cpp:170] Top shape: 50 96 27 27 (3499200)
I0322 08:51:50.121964  1043 layer_factory.hpp:74] Creating layer norm1_clean
I0322 08:51:50.121968  1043 net.cpp:133] Creating Layer norm1_clean
I0322 08:51:50.121970  1043 net.cpp:453] norm1_clean <- pool1_clean
I0322 08:51:50.121974  1043 net.cpp:411] norm1_clean -> norm1_clean
I0322 08:51:50.121978  1043 net.cpp:163] Setting up norm1_clean
I0322 08:51:50.121983  1043 net.cpp:170] Top shape: 50 96 27 27 (3499200)
I0322 08:51:50.121984  1043 layer_factory.hpp:74] Creating layer conv2_clean
I0322 08:51:50.121989  1043 net.cpp:133] Creating Layer conv2_clean
I0322 08:51:50.121989  1043 net.cpp:453] conv2_clean <- norm1_clean
I0322 08:51:50.121992  1043 net.cpp:411] conv2_clean -> conv2_clean
I0322 08:51:50.121996  1043 net.cpp:163] Setting up conv2_clean
I0322 08:51:50.177717  1043 cudnn_conv_layer.cpp:348] fft context time 2.93891 mem 95257600
I0322 08:51:50.208936  1043 net.cpp:170] Top shape: 50 256 27 27 (9331200)
I0322 08:51:50.208950  1043 layer_factory.hpp:74] Creating layer relu2_clean
I0322 08:51:50.208956  1043 net.cpp:133] Creating Layer relu2_clean
I0322 08:51:50.208958  1043 net.cpp:453] relu2_clean <- conv2_clean
I0322 08:51:50.208961  1043 net.cpp:400] relu2_clean -> conv2_clean (in-place)
I0322 08:51:50.208966  1043 net.cpp:163] Setting up relu2_clean
I0322 08:51:50.209164  1043 net.cpp:170] Top shape: 50 256 27 27 (9331200)
I0322 08:51:50.209170  1043 layer_factory.hpp:74] Creating layer pool2_clean
I0322 08:51:50.209177  1043 net.cpp:133] Creating Layer pool2_clean
I0322 08:51:50.209180  1043 net.cpp:453] pool2_clean <- conv2_clean
I0322 08:51:50.209183  1043 net.cpp:411] pool2_clean -> pool2_clean
I0322 08:51:50.209187  1043 net.cpp:163] Setting up pool2_clean
I0322 08:51:50.209288  1043 net.cpp:170] Top shape: 50 256 13 13 (2163200)
I0322 08:51:50.209292  1043 layer_factory.hpp:74] Creating layer norm2_clean
I0322 08:51:50.209297  1043 net.cpp:133] Creating Layer norm2_clean
I0322 08:51:50.209298  1043 net.cpp:453] norm2_clean <- pool2_clean
I0322 08:51:50.209303  1043 net.cpp:411] norm2_clean -> norm2_clean
I0322 08:51:50.209308  1043 net.cpp:163] Setting up norm2_clean
I0322 08:51:50.209314  1043 net.cpp:170] Top shape: 50 256 13 13 (2163200)
I0322 08:51:50.209316  1043 layer_factory.hpp:74] Creating layer conv3_clean
I0322 08:51:50.209322  1043 net.cpp:133] Creating Layer conv3_clean
I0322 08:51:50.209326  1043 net.cpp:453] conv3_clean <- norm2_clean
I0322 08:51:50.209329  1043 net.cpp:411] conv3_clean -> conv3_clean
I0322 08:51:50.209333  1043 net.cpp:163] Setting up conv3_clean
I0322 08:51:50.308419  1043 cudnn_conv_layer.cpp:348] fft context time 4.1881 mem 239471616
I0322 08:51:50.365058  1043 net.cpp:170] Top shape: 50 384 13 13 (3244800)
I0322 08:51:50.365072  1043 layer_factory.hpp:74] Creating layer relu3_clean
I0322 08:51:50.365077  1043 net.cpp:133] Creating Layer relu3_clean
I0322 08:51:50.365079  1043 net.cpp:453] relu3_clean <- conv3_clean
I0322 08:51:50.365083  1043 net.cpp:400] relu3_clean -> conv3_clean (in-place)
I0322 08:51:50.365087  1043 net.cpp:163] Setting up relu3_clean
I0322 08:51:50.365201  1043 net.cpp:170] Top shape: 50 384 13 13 (3244800)
I0322 08:51:50.365207  1043 layer_factory.hpp:74] Creating layer conv4_clean
I0322 08:51:50.365214  1043 net.cpp:133] Creating Layer conv4_clean
I0322 08:51:50.365216  1043 net.cpp:453] conv4_clean <- conv3_clean
I0322 08:51:50.365219  1043 net.cpp:411] conv4_clean -> conv4_clean
I0322 08:51:50.365223  1043 net.cpp:163] Setting up conv4_clean
I0322 08:51:50.414958  1043 cudnn_conv_layer.cpp:348] fft context time 1.81197 mem 91424256
I0322 08:51:50.440440  1043 net.cpp:170] Top shape: 50 384 13 13 (3244800)
I0322 08:51:50.440450  1043 layer_factory.hpp:74] Creating layer relu4_clean
I0322 08:51:50.440455  1043 net.cpp:133] Creating Layer relu4_clean
I0322 08:51:50.440457  1043 net.cpp:453] relu4_clean <- conv4_clean
I0322 08:51:50.440461  1043 net.cpp:400] relu4_clean -> conv4_clean (in-place)
I0322 08:51:50.440464  1043 net.cpp:163] Setting up relu4_clean
I0322 08:51:50.440654  1043 net.cpp:170] Top shape: 50 384 13 13 (3244800)
I0322 08:51:50.440660  1043 layer_factory.hpp:74] Creating layer conv5_clean
I0322 08:51:50.440666  1043 net.cpp:133] Creating Layer conv5_clean
I0322 08:51:50.440668  1043 net.cpp:453] conv5_clean <- conv4_clean
I0322 08:51:50.440672  1043 net.cpp:411] conv5_clean -> conv5_clean
I0322 08:51:50.440676  1043 net.cpp:163] Setting up conv5_clean
I0322 08:51:50.472283  1043 cudnn_conv_layer.cpp:348] fft context time 1.39043 mem 60949504
I0322 08:51:50.490017  1043 net.cpp:170] Top shape: 50 256 13 13 (2163200)
I0322 08:51:50.490043  1043 layer_factory.hpp:74] Creating layer relu5_clean
I0322 08:51:50.490051  1043 net.cpp:133] Creating Layer relu5_clean
I0322 08:51:50.490054  1043 net.cpp:453] relu5_clean <- conv5_clean
I0322 08:51:50.490058  1043 net.cpp:400] relu5_clean -> conv5_clean (in-place)
I0322 08:51:50.490064  1043 net.cpp:163] Setting up relu5_clean
I0322 08:51:50.490316  1043 net.cpp:170] Top shape: 50 256 13 13 (2163200)
I0322 08:51:50.490324  1043 layer_factory.hpp:74] Creating layer pool5_clean
I0322 08:51:50.490330  1043 net.cpp:133] Creating Layer pool5_clean
I0322 08:51:50.490332  1043 net.cpp:453] pool5_clean <- conv5_clean
I0322 08:51:50.490337  1043 net.cpp:411] pool5_clean -> pool5_clean
I0322 08:51:50.490340  1043 net.cpp:163] Setting up pool5_clean
I0322 08:51:50.490450  1043 net.cpp:170] Top shape: 50 256 6 6 (460800)
I0322 08:51:50.490455  1043 layer_factory.hpp:74] Creating layer gather_pool5_clean_to_fc6_clean
I0322 08:51:50.490459  1043 net.cpp:133] Creating Layer gather_pool5_clean_to_fc6_clean
I0322 08:51:50.490461  1043 net.cpp:453] gather_pool5_clean_to_fc6_clean <- pool5_clean
I0322 08:51:50.490465  1043 net.cpp:411] gather_pool5_clean_to_fc6_clean -> gathered_pool5_clean
I0322 08:51:50.490468  1043 net.cpp:163] Setting up gather_pool5_clean_to_fc6_clean
I0322 08:51:50.490473  1043 net.cpp:170] Top shape: 100 256 6 6 (921600)
I0322 08:51:50.490475  1043 layer_factory.hpp:74] Creating layer fc6_clean
I0322 08:51:50.490481  1043 net.cpp:133] Creating Layer fc6_clean
I0322 08:51:50.490483  1043 net.cpp:453] fc6_clean <- gathered_pool5_clean
I0322 08:51:50.490486  1043 net.cpp:411] fc6_clean -> fc6_clean
I0322 08:51:50.490490  1043 net.cpp:163] Setting up fc6_clean
I0322 08:51:50.731894  1043 net.cpp:170] Top shape: 100 4096 (409600)
I0322 08:51:50.731920  1043 layer_factory.hpp:74] Creating layer relu6_clean
I0322 08:51:50.731930  1043 net.cpp:133] Creating Layer relu6_clean
I0322 08:51:50.731931  1043 net.cpp:453] relu6_clean <- fc6_clean
I0322 08:51:50.731936  1043 net.cpp:400] relu6_clean -> fc6_clean (in-place)
I0322 08:51:50.731945  1043 net.cpp:163] Setting up relu6_clean
I0322 08:51:50.732266  1043 net.cpp:170] Top shape: 100 4096 (409600)
I0322 08:51:50.732272  1043 layer_factory.hpp:74] Creating layer drop6_clean
I0322 08:51:50.732277  1043 net.cpp:133] Creating Layer drop6_clean
I0322 08:51:50.732280  1043 net.cpp:453] drop6_clean <- fc6_clean
I0322 08:51:50.732282  1043 net.cpp:400] drop6_clean -> fc6_clean (in-place)
I0322 08:51:50.732287  1043 net.cpp:163] Setting up drop6_clean
I0322 08:51:50.732291  1043 net.cpp:170] Top shape: 100 4096 (409600)
I0322 08:51:50.732293  1043 layer_factory.hpp:74] Creating layer fc7_clean
I0322 08:51:50.732298  1043 net.cpp:133] Creating Layer fc7_clean
I0322 08:51:50.732300  1043 net.cpp:453] fc7_clean <- fc6_clean
I0322 08:51:50.732302  1043 net.cpp:411] fc7_clean -> fc7_clean
I0322 08:51:50.732308  1043 net.cpp:163] Setting up fc7_clean
I0322 08:51:50.839712  1043 net.cpp:170] Top shape: 100 4096 (409600)
I0322 08:51:50.839735  1043 layer_factory.hpp:74] Creating layer relu7_clean
I0322 08:51:50.839742  1043 net.cpp:133] Creating Layer relu7_clean
I0322 08:51:50.839745  1043 net.cpp:453] relu7_clean <- fc7_clean
I0322 08:51:50.839751  1043 net.cpp:400] relu7_clean -> fc7_clean (in-place)
I0322 08:51:50.839756  1043 net.cpp:163] Setting up relu7_clean
I0322 08:51:50.839937  1043 net.cpp:170] Top shape: 100 4096 (409600)
I0322 08:51:50.839942  1043 layer_factory.hpp:74] Creating layer drop7_clean
I0322 08:51:50.839947  1043 net.cpp:133] Creating Layer drop7_clean
I0322 08:51:50.839949  1043 net.cpp:453] drop7_clean <- fc7_clean
I0322 08:51:50.839952  1043 net.cpp:400] drop7_clean -> fc7_clean (in-place)
I0322 08:51:50.839956  1043 net.cpp:163] Setting up drop7_clean
I0322 08:51:50.839959  1043 net.cpp:170] Top shape: 100 4096 (409600)
I0322 08:51:50.839962  1043 layer_factory.hpp:74] Creating layer fc8_clean
I0322 08:51:50.839964  1043 net.cpp:133] Creating Layer fc8_clean
I0322 08:51:50.839967  1043 net.cpp:453] fc8_clean <- fc7_clean
I0322 08:51:50.839970  1043 net.cpp:411] fc8_clean -> fc8_clean
I0322 08:51:50.839973  1043 net.cpp:163] Setting up fc8_clean
I0322 08:51:50.840384  1043 net.cpp:170] Top shape: 100 14 (1400)
I0322 08:51:50.840389  1043 layer_factory.hpp:74] Creating layer fc8_clean_fc8_clean_0_split
I0322 08:51:50.840394  1043 net.cpp:133] Creating Layer fc8_clean_fc8_clean_0_split
I0322 08:51:50.840396  1043 net.cpp:453] fc8_clean_fc8_clean_0_split <- fc8_clean
I0322 08:51:50.840399  1043 net.cpp:411] fc8_clean_fc8_clean_0_split -> fc8_clean_fc8_clean_0_split_0
I0322 08:51:50.840402  1043 net.cpp:411] fc8_clean_fc8_clean_0_split -> fc8_clean_fc8_clean_0_split_1
I0322 08:51:50.840406  1043 net.cpp:163] Setting up fc8_clean_fc8_clean_0_split
I0322 08:51:50.840409  1043 net.cpp:170] Top shape: 100 14 (1400)
I0322 08:51:50.840411  1043 net.cpp:170] Top shape: 100 14 (1400)
I0322 08:51:50.840412  1043 layer_factory.hpp:74] Creating layer gather_label_clean_data_1_split_to_accuracy
I0322 08:51:50.840417  1043 net.cpp:133] Creating Layer gather_label_clean_data_1_split_to_accuracy
I0322 08:51:50.840418  1043 net.cpp:453] gather_label_clean_data_1_split_to_accuracy <- label_clean_data_1_split_0
I0322 08:51:50.840421  1043 net.cpp:411] gather_label_clean_data_1_split_to_accuracy -> gathered_label_clean_data_1_split_0
I0322 08:51:50.840425  1043 net.cpp:163] Setting up gather_label_clean_data_1_split_to_accuracy
I0322 08:51:50.840427  1043 net.cpp:170] Top shape: 100 (100)
I0322 08:51:50.840430  1043 layer_factory.hpp:74] Creating layer accuracy
I0322 08:51:50.840433  1043 net.cpp:133] Creating Layer accuracy
I0322 08:51:50.840435  1043 net.cpp:453] accuracy <- fc8_clean_fc8_clean_0_split_0
I0322 08:51:50.840438  1043 net.cpp:453] accuracy <- gathered_label_clean_data_1_split_0
I0322 08:51:50.840441  1043 net.cpp:411] accuracy -> accuracy
I0322 08:51:50.840443  1043 net.cpp:163] Setting up accuracy
I0322 08:51:50.840446  1043 net.cpp:170] Top shape: (1)
I0322 08:51:50.840448  1043 layer_factory.hpp:74] Creating layer gather_label_clean_data_1_split_to_loss_clean
I0322 08:51:50.840451  1043 net.cpp:133] Creating Layer gather_label_clean_data_1_split_to_loss_clean
I0322 08:51:50.840452  1043 net.cpp:453] gather_label_clean_data_1_split_to_loss_clean <- label_clean_data_1_split_1
I0322 08:51:50.840456  1043 net.cpp:411] gather_label_clean_data_1_split_to_loss_clean -> gathered_label_clean_data_1_split_1
I0322 08:51:50.840458  1043 net.cpp:163] Setting up gather_label_clean_data_1_split_to_loss_clean
I0322 08:51:50.840461  1043 net.cpp:170] Top shape: 100 (100)
I0322 08:51:50.840462  1043 layer_factory.hpp:74] Creating layer loss_clean
I0322 08:51:50.840466  1043 net.cpp:133] Creating Layer loss_clean
I0322 08:51:50.840468  1043 net.cpp:453] loss_clean <- fc8_clean_fc8_clean_0_split_1
I0322 08:51:50.840471  1043 net.cpp:453] loss_clean <- gathered_label_clean_data_1_split_1
I0322 08:51:50.840473  1043 net.cpp:411] loss_clean -> loss_clean
I0322 08:51:50.840476  1043 net.cpp:163] Setting up loss_clean
…
