…
I0321 12:39:18.933820 10075 net.cpp:330] The NetState phase (0) differed from the phase (1) specified by a rule in layer accuracy
I0321 12:39:18.933962 10075 net.cpp:47] Initializing net from parameters: 
name: "clothing1M_ntype"
state {
  phase: TRAIN
}
richness: 2000
layer {
  name: "data"
  type: "Data"
  top: "data"
  top: "label"
  include {
    phase: TRAIN
  }
  transform_param {
    mirror: true
    crop_size: 227
    mean_file: "external/exp/db/clothing1M/clothing1M_mean.binaryproto"
  }
  data_param {
    source: "external/exp/db/clothing1M/ntype_train"
    batch_size: 128
    backend: LMDB
  }
}
layer {
  name: "conv1"
  type: "Convolution"
  bottom: "data"
  top: "conv1"
  param {
    lr_mult: 1
    decay_mult: 1
  }
  param {
    lr_mult: 2
    decay_mult: 0
  }
  convolution_param {
    num_output: 96
    kernel_size: 11
    stride: 4
    weight_filler {
      type: "gaussian"
      std: 0.01
    }
    bias_filler {
      type: "constant"
      value: 0
    }
  }
}
layer {
  name: "relu1"
  type: "ReLU"
  bottom: "conv1"
  top: "conv1"
}
layer {
  name: "pool1"
  type: "Pooling"
  bottom: "conv1"
  top: "pool1"
  pooling_param {
    pool: MAX
    kernel_size: 3
    stride: 2
  }
}
layer {
  name: "norm1"
  type: "LRN"
  bottom: "pool1"
  top: "norm1"
  lrn_param {
    local_size: 5
    alpha: 0.0001
    beta: 0.75
  }
}
layer {
  name: "conv2"
  type: "Convolution"
  bottom: "norm1"
  top: "conv2"
  param {
    lr_mult: 1
    decay_mult: 1
  }
  param {
    lr_mult: 2
    decay_mult: 0
  }
  convolution_param {
    num_output: 256
    pad: 2
    kernel_size: 5
    group: 2
    weight_filler {
      type: "gaussian"
      std: 0.01
    }
    bias_filler {
      type: "constant"
      value: 1
    }
  }
}
layer {
  name: "relu2"
  type: "ReLU"
  bottom: "conv2"
  top: "conv2"
}
layer {
  name: "pool2"
  type: "Pooling"
  bottom: "conv2"
  top: "pool2"
  pooling_param {
    pool: MAX
    kernel_size: 3
    stride: 2
  }
}
layer {
  name: "norm2"
  type: "LRN"
  bottom: "pool2"
  top: "norm2"
  lrn_param {
    local_size: 5
    alpha: 0.0001
    beta: 0.75
  }
}
layer {
  name: "conv3"
  type: "Convolution"
  bottom: "norm2"
  top: "conv3"
  param {
    lr_mult: 1
    decay_mult: 1
  }
  param {
    lr_mult: 2
    decay_mult: 0
  }
  convolution_param {
    num_output: 384
    pad: 1
    kernel_size: 3
    weight_filler {
      type: "gaussian"
      std: 0.01
    }
    bias_filler {
      type: "constant"
      value: 0
    }
  }
}
layer {
  name: "relu3"
  type: "ReLU"
  bottom: "conv3"
  top: "conv3"
}
layer {
  name: "conv4"
  type: "Convolution"
  bottom: "conv3"
  top: "conv4"
  param {
    lr_mult: 1
    decay_mult: 1
  }
  param {
    lr_mult: 2
    decay_mult: 0
  }
  convolution_param {
    num_output: 384
    pad: 1
    kernel_size: 3
    group: 2
    weight_filler {
      type: "gaussian"
      std: 0.01
    }
    bias_filler {
      type: "constant"
      value: 1
    }
  }
}
layer {
  name: "relu4"
  type: "ReLU"
  bottom: "conv4"
  top: "conv4"
}
layer {
  name: "conv5"
  type: "Convolution"
  bottom: "conv4"
  top: "conv5"
  param {
    lr_mult: 1
    decay_mult: 1
  }
  param {
    lr_mult: 2
    decay_mult: 0
  }
  convolution_param {
    num_output: 256
    pad: 1
    kernel_size: 3
    group: 2
    weight_filler {
      type: "gaussian"
      std: 0.01
    }
    bias_filler {
      type: "constant"
      value: 1
    }
  }
}
layer {
  name: "relu5"
  type: "ReLU"
  bottom: "conv5"
  top: "conv5"
}
layer {
  name: "pool5"
  type: "Pooling"
  bottom: "conv5"
  top: "pool5"
  pooling_param {
    pool: MAX
    kernel_size: 3
    stride: 2
  }
}
layer {
  name: "fc6_ntype"
  type: "InnerProduct"
  bottom: "pool5"
  top: "fc6_ntype"
  param {
    lr_mult: 1
    decay_mult: 1
  }
  param {
    lr_mult: 2
    decay_mult: 0
  }
  inner_product_param {
    num_output: 4096
    weight_filler {
      type: "gaussian"
      std: 0.005
    }
    bias_filler {
      type: "constant"
      value: 1
    }
  }
}
layer {
  name: "relu6"
  type: "ReLU"
  bottom: "fc6_ntype"
  top: "fc6_ntype"
}
layer {
  name: "drop6"
  type: "Dropout"
  bottom: "fc6_ntype"
  top: "fc6_ntype"
  dropout_param {
    dropout_ratio: 0.5
  }
}
layer {
  name: "fc7_ntype"
  type: "InnerProduct"
  bottom: "fc6_ntype"
  top: "fc7_ntype"
  param {
    lr_mult: 1
    decay_mult: 1
  }
  param {
    lr_mult: 2
    decay_mult: 0
  }
  inner_product_param {
    num_output: 1024
    weight_filler {
      type: "gaussian"
      std: 0.005
    }
    bias_filler {
      type: "constant"
      value: 1
    }
  }
}
layer {
  name: "relu7"
  type: "ReLU"
  bottom: "fc7_ntype"
  top: "fc7_ntype"
}
layer {
  name: "drop7"
  type: "Dropout"
  bottom: "fc7_ntype"
  top: "fc7_ntype"
  dropout_param {
    dropout_ratio: 0.5
  }
}
layer {
  name: "fc8_ntype"
  type: "InnerProduct"
  bottom: "fc7_ntype"
  top: "fc8_ntype"
  param {
    lr_mult: 1
    decay_mult: 1
  }
  param {
    lr_mult: 2
    decay_mult: 0
  }
  inner_product_param {
    num_output: 3
    weight_filler {
      type: "gaussian"
      std: 0.01
    }
    bias_filler {
      type: "constant"
      value: 0
    }
  }
}
layer {
  name: "loss"
  type: "SoftmaxWithLoss"
  bottom: "fc8_ntype"
  bottom: "label"
  top: "loss"
}
I0321 12:39:18.934108 10075 layer_factory.hpp:74] Creating layer data
I0321 12:39:18.934121 10075 net.cpp:133] Creating Layer data
I0321 12:39:18.934125 10075 net.cpp:411] data -> data
I0321 12:39:18.934134 10075 net.cpp:411] data -> label
I0321 12:39:18.934139 10075 net.cpp:163] Setting up data
I0321 12:39:18.934142 10075 data_transformer.cpp:23] Loading mean file from: external/exp/db/clothing1M/clothing1M_mean.binaryproto
I0321 12:39:18.935804 10075 db_lmdb.cpp:22] Opened lmdb external/exp/db/clothing1M/ntype_train
I0321 12:39:18.936372 10075 data_layer.cpp:55] Skipping first 0 data points.
I0321 12:39:18.936442 10075 data_layer.cpp:100] output data size: 64,3,227,227
I0321 12:39:18.936552 10075 net.cpp:170] Top shape: 64 3 227 227 (9893568)
I0321 12:39:18.936573 10075 net.cpp:170] Top shape: 64 (64)
I0321 12:39:18.936580 10075 layer_factory.hpp:74] Creating layer conv1
I0321 12:39:18.936595 10075 net.cpp:133] Creating Layer conv1
I0321 12:39:18.936600 10075 net.cpp:453] conv1 <- data
I0321 12:39:18.936612 10075 net.cpp:411] conv1 -> conv1
I0321 12:39:18.936624 10075 net.cpp:163] Setting up conv1
I0321 12:39:23.559376 10075 net.cpp:170] Top shape: 64 96 55 55 (18585600)
I0321 12:39:23.559409 10075 layer_factory.hpp:74] Creating layer relu1
I0321 12:39:23.559418 10075 net.cpp:133] Creating Layer relu1
I0321 12:39:23.559422 10075 net.cpp:453] relu1 <- conv1
I0321 12:39:23.559425 10075 net.cpp:400] relu1 -> conv1 (in-place)
I0321 12:39:23.559434 10075 net.cpp:163] Setting up relu1
I0321 12:39:23.559597 10075 net.cpp:170] Top shape: 64 96 55 55 (18585600)
I0321 12:39:23.559604 10075 layer_factory.hpp:74] Creating layer pool1
I0321 12:39:23.559612 10075 net.cpp:133] Creating Layer pool1
I0321 12:39:23.559615 10075 net.cpp:453] pool1 <- conv1
I0321 12:39:23.559622 10075 net.cpp:411] pool1 -> pool1
I0321 12:39:23.559626 10075 net.cpp:163] Setting up pool1
I0321 12:39:23.559820 10075 net.cpp:170] Top shape: 64 96 27 27 (4478976)
I0321 12:39:23.559828 10075 layer_factory.hpp:74] Creating layer norm1
I0321 12:39:23.559835 10075 net.cpp:133] Creating Layer norm1
I0321 12:39:23.559839 10075 net.cpp:453] norm1 <- pool1
I0321 12:39:23.559844 10075 net.cpp:411] norm1 -> norm1
I0321 12:39:23.559849 10075 net.cpp:163] Setting up norm1
I0321 12:39:23.559854 10075 net.cpp:170] Top shape: 64 96 27 27 (4478976)
I0321 12:39:23.559855 10075 layer_factory.hpp:74] Creating layer conv2
I0321 12:39:23.559860 10075 net.cpp:133] Creating Layer conv2
I0321 12:39:23.559864 10075 net.cpp:453] conv2 <- norm1
I0321 12:39:23.559866 10075 net.cpp:411] conv2 -> conv2
I0321 12:39:23.559870 10075 net.cpp:163] Setting up conv2
I0321 12:39:23.628069 10075 cudnn_conv_layer.cpp:348] fft context time 3.20429 mem 121929728
I0321 12:39:23.666409 10075 net.cpp:170] Top shape: 64 256 27 27 (11943936)
I0321 12:39:23.666421 10075 layer_factory.hpp:74] Creating layer relu2
I0321 12:39:23.666425 10075 net.cpp:133] Creating Layer relu2
I0321 12:39:23.666427 10075 net.cpp:453] relu2 <- conv2
I0321 12:39:23.666430 10075 net.cpp:400] relu2 -> conv2 (in-place)
I0321 12:39:23.666435 10075 net.cpp:163] Setting up relu2
I0321 12:39:23.666539 10075 net.cpp:170] Top shape: 64 256 27 27 (11943936)
I0321 12:39:23.666544 10075 layer_factory.hpp:74] Creating layer pool2
I0321 12:39:23.666548 10075 net.cpp:133] Creating Layer pool2
I0321 12:39:23.666550 10075 net.cpp:453] pool2 <- conv2
I0321 12:39:23.666553 10075 net.cpp:411] pool2 -> pool2
I0321 12:39:23.666556 10075 net.cpp:163] Setting up pool2
I0321 12:39:23.666733 10075 net.cpp:170] Top shape: 64 256 13 13 (2768896)
I0321 12:39:23.666738 10075 layer_factory.hpp:74] Creating layer norm2
I0321 12:39:23.666744 10075 net.cpp:133] Creating Layer norm2
I0321 12:39:23.666745 10075 net.cpp:453] norm2 <- pool2
I0321 12:39:23.666749 10075 net.cpp:411] norm2 -> norm2
I0321 12:39:23.666752 10075 net.cpp:163] Setting up norm2
I0321 12:39:23.666755 10075 net.cpp:170] Top shape: 64 256 13 13 (2768896)
I0321 12:39:23.666757 10075 layer_factory.hpp:74] Creating layer conv3
I0321 12:39:23.666761 10075 net.cpp:133] Creating Layer conv3
I0321 12:39:23.666764 10075 net.cpp:453] conv3 <- norm2
I0321 12:39:23.666769 10075 net.cpp:411] conv3 -> conv3
I0321 12:39:23.666774 10075 net.cpp:163] Setting up conv3
I0321 12:39:23.782657 10075 cudnn_conv_layer.cpp:348] fft context time 4.44125 mem 243105792
I0321 12:39:23.845517 10075 net.cpp:170] Top shape: 64 384 13 13 (4153344)
I0321 12:39:23.845531 10075 layer_factory.hpp:74] Creating layer relu3
I0321 12:39:23.845536 10075 net.cpp:133] Creating Layer relu3
I0321 12:39:23.845538 10075 net.cpp:453] relu3 <- conv3
I0321 12:39:23.845542 10075 net.cpp:400] relu3 -> conv3 (in-place)
I0321 12:39:23.845546 10075 net.cpp:163] Setting up relu3
I0321 12:39:23.845734 10075 net.cpp:170] Top shape: 64 384 13 13 (4153344)
I0321 12:39:23.845741 10075 layer_factory.hpp:74] Creating layer conv4
I0321 12:39:23.845747 10075 net.cpp:133] Creating Layer conv4
I0321 12:39:23.845749 10075 net.cpp:453] conv4 <- conv3
I0321 12:39:23.845752 10075 net.cpp:411] conv4 -> conv4
I0321 12:39:23.845757 10075 net.cpp:163] Setting up conv4
I0321 12:39:23.902900 10075 cudnn_conv_layer.cpp:348] fft context time 1.9375 mem 93241344
I0321 12:39:23.932665 10075 net.cpp:170] Top shape: 64 384 13 13 (4153344)
I0321 12:39:23.932677 10075 layer_factory.hpp:74] Creating layer relu4
I0321 12:39:23.932682 10075 net.cpp:133] Creating Layer relu4
I0321 12:39:23.932683 10075 net.cpp:453] relu4 <- conv4
I0321 12:39:23.932687 10075 net.cpp:400] relu4 -> conv4 (in-place)
I0321 12:39:23.932690 10075 net.cpp:163] Setting up relu4
I0321 12:39:23.932814 10075 net.cpp:170] Top shape: 64 384 13 13 (4153344)
I0321 12:39:23.932821 10075 layer_factory.hpp:74] Creating layer conv5
I0321 12:39:23.932826 10075 net.cpp:133] Creating Layer conv5
I0321 12:39:23.932827 10075 net.cpp:453] conv5 <- conv4
I0321 12:39:23.932832 10075 net.cpp:411] conv5 -> conv5
I0321 12:39:23.932835 10075 net.cpp:163] Setting up conv5
I0321 12:39:23.969233 10075 cudnn_conv_layer.cpp:348] fft context time 1.45571 mem 62160896
I0321 12:39:23.990038 10075 net.cpp:170] Top shape: 64 256 13 13 (2768896)
I0321 12:39:23.990051 10075 layer_factory.hpp:74] Creating layer relu5
I0321 12:39:23.990054 10075 net.cpp:133] Creating Layer relu5
I0321 12:39:23.990056 10075 net.cpp:453] relu5 <- conv5
I0321 12:39:23.990059 10075 net.cpp:400] relu5 -> conv5 (in-place)
I0321 12:39:23.990062 10075 net.cpp:163] Setting up relu5
I0321 12:39:23.990180 10075 net.cpp:170] Top shape: 64 256 13 13 (2768896)
I0321 12:39:23.990185 10075 layer_factory.hpp:74] Creating layer pool5
I0321 12:39:23.990190 10075 net.cpp:133] Creating Layer pool5
I0321 12:39:23.990190 10075 net.cpp:453] pool5 <- conv5
I0321 12:39:23.990195 10075 net.cpp:411] pool5 -> pool5
I0321 12:39:23.990197 10075 net.cpp:163] Setting up pool5
I0321 12:39:23.990443 10075 net.cpp:170] Top shape: 64 256 6 6 (589824)
I0321 12:39:23.990452 10075 layer_factory.hpp:74] Creating layer gather_pool5_to_fc6_ntype
I0321 12:39:23.990458 10075 net.cpp:133] Creating Layer gather_pool5_to_fc6_ntype
I0321 12:39:23.990460 10075 net.cpp:453] gather_pool5_to_fc6_ntype <- pool5
I0321 12:39:23.990463 10075 net.cpp:411] gather_pool5_to_fc6_ntype -> gathered_pool5
I0321 12:39:23.990466 10075 net.cpp:163] Setting up gather_pool5_to_fc6_ntype
I0321 12:39:23.990470 10075 net.cpp:170] Top shape: 128 256 6 6 (1179648)
I0321 12:39:23.990471 10075 layer_factory.hpp:74] Creating layer fc6_ntype
I0321 12:39:23.990479 10075 net.cpp:133] Creating Layer fc6_ntype
I0321 12:39:23.990483 10075 net.cpp:453] fc6_ntype <- gathered_pool5
I0321 12:39:23.990489 10075 net.cpp:411] fc6_ntype -> fc6_ntype
I0321 12:39:23.990494 10075 net.cpp:163] Setting up fc6_ntype
I0321 12:39:24.232321 10075 net.cpp:170] Top shape: 128 4096 (524288)
I0321 12:39:24.232345 10075 layer_factory.hpp:74] Creating layer relu6
I0321 12:39:24.232352 10075 net.cpp:133] Creating Layer relu6
I0321 12:39:24.232355 10075 net.cpp:453] relu6 <- fc6_ntype
I0321 12:39:24.232360 10075 net.cpp:400] relu6 -> fc6_ntype (in-place)
I0321 12:39:24.232364 10075 net.cpp:163] Setting up relu6
I0321 12:39:24.232540 10075 net.cpp:170] Top shape: 128 4096 (524288)
I0321 12:39:24.232547 10075 layer_factory.hpp:74] Creating layer drop6
I0321 12:39:24.232550 10075 net.cpp:133] Creating Layer drop6
I0321 12:39:24.232553 10075 net.cpp:453] drop6 <- fc6_ntype
I0321 12:39:24.232555 10075 net.cpp:400] drop6 -> fc6_ntype (in-place)
I0321 12:39:24.232558 10075 net.cpp:163] Setting up drop6
I0321 12:39:24.232564 10075 net.cpp:170] Top shape: 128 4096 (524288)
I0321 12:39:24.232565 10075 layer_factory.hpp:74] Creating layer fc7_ntype
I0321 12:39:24.232570 10075 net.cpp:133] Creating Layer fc7_ntype
I0321 12:39:24.232571 10075 net.cpp:453] fc7_ntype <- fc6_ntype
I0321 12:39:24.232575 10075 net.cpp:411] fc7_ntype -> fc7_ntype
I0321 12:39:24.232579 10075 net.cpp:163] Setting up fc7_ntype
I0321 12:39:24.259600 10075 net.cpp:170] Top shape: 128 1024 (131072)
I0321 12:39:24.259624 10075 layer_factory.hpp:74] Creating layer relu7
I0321 12:39:24.259630 10075 net.cpp:133] Creating Layer relu7
I0321 12:39:24.259634 10075 net.cpp:453] relu7 <- fc7_ntype
I0321 12:39:24.259639 10075 net.cpp:400] relu7 -> fc7_ntype (in-place)
I0321 12:39:24.259642 10075 net.cpp:163] Setting up relu7
I0321 12:39:24.259951 10075 net.cpp:170] Top shape: 128 1024 (131072)
I0321 12:39:24.259958 10075 layer_factory.hpp:74] Creating layer drop7
I0321 12:39:24.259966 10075 net.cpp:133] Creating Layer drop7
I0321 12:39:24.259969 10075 net.cpp:453] drop7 <- fc7_ntype
I0321 12:39:24.259971 10075 net.cpp:400] drop7 -> fc7_ntype (in-place)
I0321 12:39:24.259975 10075 net.cpp:163] Setting up drop7
I0321 12:39:24.259979 10075 net.cpp:170] Top shape: 128 1024 (131072)
I0321 12:39:24.259980 10075 layer_factory.hpp:74] Creating layer fc8_ntype
I0321 12:39:24.259985 10075 net.cpp:133] Creating Layer fc8_ntype
I0321 12:39:24.259986 10075 net.cpp:453] fc8_ntype <- fc7_ntype
I0321 12:39:24.259989 10075 net.cpp:411] fc8_ntype -> fc8_ntype
I0321 12:39:24.259994 10075 net.cpp:163] Setting up fc8_ntype
I0321 12:39:24.260030 10075 net.cpp:170] Top shape: 128 3 (384)
I0321 12:39:24.260037 10075 layer_factory.hpp:74] Creating layer gather_data_to_loss
I0321 12:39:24.260042 10075 net.cpp:133] Creating Layer gather_data_to_loss
I0321 12:39:24.260045 10075 net.cpp:453] gather_data_to_loss <- label
I0321 12:39:24.260047 10075 net.cpp:411] gather_data_to_loss -> gathered_label
I0321 12:39:24.260054 10075 net.cpp:163] Setting up gather_data_to_loss
I0321 12:39:24.260061 10075 net.cpp:170] Top shape: 128 (128)
I0321 12:39:24.260063 10075 layer_factory.hpp:74] Creating layer loss
I0321 12:39:24.260067 10075 net.cpp:133] Creating Layer loss
I0321 12:39:24.260069 10075 net.cpp:453] loss <- fc8_ntype
I0321 12:39:24.260073 10075 net.cpp:453] loss <- gathered_label
I0321 12:39:24.260078 10075 net.cpp:411] loss -> loss
I0321 12:39:24.260083 10075 net.cpp:163] Setting up loss
I0321 12:39:24.260089 10075 layer_factory.hpp:74] Creating layer loss
…
I0321 12:39:24.339608 10075 net.cpp:330] The NetState phase (1) differed from the phase (0) specified by a rule in layer data
I0321 12:39:24.339721 10075 net.cpp:47] Initializing net from parameters: 
name: "clothing1M_ntype"
state {
  phase: TEST
}
richness: 2000
layer {
  name: "data"
  type: "Data"
  top: "data"
  top: "label"
  include {
    phase: TEST
  }
  transform_param {
    mirror: false
    crop_size: 227
    mean_file: "external/exp/db/clothing1M/clothing1M_mean.binaryproto"
  }
  data_param {
    source: "external/exp/db/clothing1M/ntype_val"
    batch_size: 100
    backend: LMDB
  }
}
layer {
  name: "conv1"
  type: "Convolution"
  bottom: "data"
  top: "conv1"
  param {
    lr_mult: 1
    decay_mult: 1
  }
  param {
    lr_mult: 2
    decay_mult: 0
  }
  convolution_param {
    num_output: 96
    kernel_size: 11
    stride: 4
    weight_filler {
      type: "gaussian"
      std: 0.01
    }
    bias_filler {
      type: "constant"
      value: 0
    }
  }
}
layer {
  name: "relu1"
  type: "ReLU"
  bottom: "conv1"
  top: "conv1"
}
layer {
  name: "pool1"
  type: "Pooling"
  bottom: "conv1"
  top: "pool1"
  pooling_param {
    pool: MAX
    kernel_size: 3
    stride: 2
  }
}
layer {
  name: "norm1"
  type: "LRN"
  bottom: "pool1"
  top: "norm1"
  lrn_param {
    local_size: 5
    alpha: 0.0001
    beta: 0.75
  }
}
layer {
  name: "conv2"
  type: "Convolution"
  bottom: "norm1"
  top: "conv2"
  param {
    lr_mult: 1
    decay_mult: 1
  }
  param {
    lr_mult: 2
    decay_mult: 0
  }
  convolution_param {
    num_output: 256
    pad: 2
    kernel_size: 5
    group: 2
    weight_filler {
      type: "gaussian"
      std: 0.01
    }
    bias_filler {
      type: "constant"
      value: 1
    }
  }
}
layer {
  name: "relu2"
  type: "ReLU"
  bottom: "conv2"
  top: "conv2"
}
layer {
  name: "pool2"
  type: "Pooling"
  bottom: "conv2"
  top: "pool2"
  pooling_param {
    pool: MAX
    kernel_size: 3
    stride: 2
  }
}
layer {
  name: "norm2"
  type: "LRN"
  bottom: "pool2"
  top: "norm2"
  lrn_param {
    local_size: 5
    alpha: 0.0001
    beta: 0.75
  }
}
layer {
  name: "conv3"
  type: "Convolution"
  bottom: "norm2"
  top: "conv3"
  param {
    lr_mult: 1
    decay_mult: 1
  }
  param {
    lr_mult: 2
    decay_mult: 0
  }
  convolution_param {
    num_output: 384
    pad: 1
    kernel_size: 3
    weight_filler {
      type: "gaussian"
      std: 0.01
    }
    bias_filler {
      type: "constant"
      value: 0
    }
  }
}
layer {
  name: "relu3"
  type: "ReLU"
  bottom: "conv3"
  top: "conv3"
}
layer {
  name: "conv4"
  type: "Convolution"
  bottom: "conv3"
  top: "conv4"
  param {
    lr_mult: 1
    decay_mult: 1
  }
  param {
    lr_mult: 2
    decay_mult: 0
  }
  convolution_param {
    num_output: 384
    pad: 1
    kernel_size: 3
    group: 2
    weight_filler {
      type: "gaussian"
      std: 0.01
    }
    bias_filler {
      type: "constant"
      value: 1
    }
  }
}
layer {
  name: "relu4"
  type: "ReLU"
  bottom: "conv4"
  top: "conv4"
}
layer {
  name: "conv5"
  type: "Convolution"
  bottom: "conv4"
  top: "conv5"
  param {
    lr_mult: 1
    decay_mult: 1
  }
  param {
    lr_mult: 2
    decay_mult: 0
  }
  convolution_param {
    num_output: 256
    pad: 1
    kernel_size: 3
    group: 2
    weight_filler {
      type: "gaussian"
      std: 0.01
    }
    bias_filler {
      type: "constant"
      value: 1
    }
  }
}
layer {
  name: "relu5"
  type: "ReLU"
  bottom: "conv5"
  top: "conv5"
}
layer {
  name: "pool5"
  type: "Pooling"
  bottom: "conv5"
  top: "pool5"
  pooling_param {
    pool: MAX
    kernel_size: 3
    stride: 2
  }
}
layer {
  name: "fc6_ntype"
  type: "InnerProduct"
  bottom: "pool5"
  top: "fc6_ntype"
  param {
    lr_mult: 1
    decay_mult: 1
  }
  param {
    lr_mult: 2
    decay_mult: 0
  }
  inner_product_param {
    num_output: 4096
    weight_filler {
      type: "gaussian"
      std: 0.005
    }
    bias_filler {
      type: "constant"
      value: 1
    }
  }
}
layer {
  name: "relu6"
  type: "ReLU"
  bottom: "fc6_ntype"
  top: "fc6_ntype"
}
layer {
  name: "drop6"
  type: "Dropout"
  bottom: "fc6_ntype"
  top: "fc6_ntype"
  dropout_param {
    dropout_ratio: 0.5
  }
}
layer {
  name: "fc7_ntype"
  type: "InnerProduct"
  bottom: "fc6_ntype"
  top: "fc7_ntype"
  param {
    lr_mult: 1
    decay_mult: 1
  }
  param {
    lr_mult: 2
    decay_mult: 0
  }
  inner_product_param {
    num_output: 1024
    weight_filler {
      type: "gaussian"
      std: 0.005
    }
    bias_filler {
      type: "constant"
      value: 1
    }
  }
}
layer {
  name: "relu7"
  type: "ReLU"
  bottom: "fc7_ntype"
  top: "fc7_ntype"
}
layer {
  name: "drop7"
  type: "Dropout"
  bottom: "fc7_ntype"
  top: "fc7_ntype"
  dropout_param {
    dropout_ratio: 0.5
  }
}
layer {
  name: "fc8_ntype"
  type: "InnerProduct"
  bottom: "fc7_ntype"
  top: "fc8_ntype"
  param {
    lr_mult: 1
    decay_mult: 1
  }
  param {
    lr_mult: 2
    decay_mult: 0
  }
  inner_product_param {
    num_output: 3
    weight_filler {
      type: "gaussian"
      std: 0.01
    }
    bias_filler {
      type: "constant"
      value: 0
    }
  }
}
layer {
  name: "accuracy"
  type: "Accuracy"
  bottom: "fc8_ntype"
  bottom: "label"
  top: "accuracy"
  include {
    phase: TEST
  }
}
layer {
  name: "loss"
  type: "SoftmaxWithLoss"
  bottom: "fc8_ntype"
  bottom: "label"
  top: "loss"
}
I0321 12:39:24.339902 10075 layer_factory.hpp:74] Creating layer data
I0321 12:39:24.339912 10075 net.cpp:133] Creating Layer data
I0321 12:39:24.339916 10075 net.cpp:411] data -> data
I0321 12:39:24.339922 10075 net.cpp:411] data -> label
I0321 12:39:24.339927 10075 net.cpp:163] Setting up data
I0321 12:39:24.339931 10075 data_transformer.cpp:23] Loading mean file from: external/exp/db/clothing1M/clothing1M_mean.binaryproto
I0321 12:39:24.340827 10075 db_lmdb.cpp:22] Opened lmdb external/exp/db/clothing1M/ntype_val
I0321 12:39:24.340847 10075 data_layer.cpp:55] Skipping first 0 data points.
I0321 12:39:24.340899 10075 data_layer.cpp:100] output data size: 50,3,227,227
I0321 12:39:24.340929 10075 net.cpp:170] Top shape: 50 3 227 227 (7729350)
I0321 12:39:24.340934 10075 net.cpp:170] Top shape: 50 (50)
I0321 12:39:24.340935 10075 layer_factory.hpp:74] Creating layer label_data_1_split
I0321 12:39:24.340939 10075 net.cpp:133] Creating Layer label_data_1_split
I0321 12:39:24.340941 10075 net.cpp:453] label_data_1_split <- label
I0321 12:39:24.340945 10075 net.cpp:411] label_data_1_split -> label_data_1_split_0
I0321 12:39:24.340952 10075 net.cpp:411] label_data_1_split -> label_data_1_split_1
I0321 12:39:24.340961 10075 net.cpp:163] Setting up label_data_1_split
I0321 12:39:24.340966 10075 net.cpp:170] Top shape: 50 (50)
I0321 12:39:24.340970 10075 net.cpp:170] Top shape: 50 (50)
I0321 12:39:24.340972 10075 layer_factory.hpp:74] Creating layer conv1
I0321 12:39:24.340978 10075 net.cpp:133] Creating Layer conv1
I0321 12:39:24.340982 10075 net.cpp:453] conv1 <- data
I0321 12:39:24.340986 10075 net.cpp:411] conv1 -> conv1
I0321 12:39:24.340991 10075 net.cpp:163] Setting up conv1
I0321 12:39:27.826270 10075 net.cpp:170] Top shape: 50 96 55 55 (14520000)
I0321 12:39:27.826287 10075 layer_factory.hpp:74] Creating layer relu1
I0321 12:39:27.826292 10075 net.cpp:133] Creating Layer relu1
I0321 12:39:27.826294 10075 net.cpp:453] relu1 <- conv1
I0321 12:39:27.826297 10075 net.cpp:400] relu1 -> conv1 (in-place)
I0321 12:39:27.826302 10075 net.cpp:163] Setting up relu1
I0321 12:39:27.826503 10075 net.cpp:170] Top shape: 50 96 55 55 (14520000)
I0321 12:39:27.826508 10075 layer_factory.hpp:74] Creating layer pool1
I0321 12:39:27.826514 10075 net.cpp:133] Creating Layer pool1
I0321 12:39:27.826515 10075 net.cpp:453] pool1 <- conv1
I0321 12:39:27.826519 10075 net.cpp:411] pool1 -> pool1
I0321 12:39:27.826522 10075 net.cpp:163] Setting up pool1
I0321 12:39:27.826620 10075 net.cpp:170] Top shape: 50 96 27 27 (3499200)
I0321 12:39:27.826627 10075 layer_factory.hpp:74] Creating layer norm1
I0321 12:39:27.826639 10075 net.cpp:133] Creating Layer norm1
I0321 12:39:27.826642 10075 net.cpp:453] norm1 <- pool1
I0321 12:39:27.826644 10075 net.cpp:411] norm1 -> norm1
I0321 12:39:27.826647 10075 net.cpp:163] Setting up norm1
I0321 12:39:27.826650 10075 net.cpp:170] Top shape: 50 96 27 27 (3499200)
I0321 12:39:27.826653 10075 layer_factory.hpp:74] Creating layer conv2
I0321 12:39:27.826659 10075 net.cpp:133] Creating Layer conv2
I0321 12:39:27.826663 10075 net.cpp:453] conv2 <- norm1
I0321 12:39:27.826668 10075 net.cpp:411] conv2 -> conv2
I0321 12:39:27.826673 10075 net.cpp:163] Setting up conv2
I0321 12:39:27.882203 10075 cudnn_conv_layer.cpp:348] fft context time 2.92477 mem 95257600
I0321 12:39:27.912964 10075 net.cpp:170] Top shape: 50 256 27 27 (9331200)
I0321 12:39:27.912979 10075 layer_factory.hpp:74] Creating layer relu2
I0321 12:39:27.912986 10075 net.cpp:133] Creating Layer relu2
I0321 12:39:27.912989 10075 net.cpp:453] relu2 <- conv2
I0321 12:39:27.912993 10075 net.cpp:400] relu2 -> conv2 (in-place)
I0321 12:39:27.912998 10075 net.cpp:163] Setting up relu2
I0321 12:39:27.913115 10075 net.cpp:170] Top shape: 50 256 27 27 (9331200)
I0321 12:39:27.913120 10075 layer_factory.hpp:74] Creating layer pool2
I0321 12:39:27.913125 10075 net.cpp:133] Creating Layer pool2
I0321 12:39:27.913127 10075 net.cpp:453] pool2 <- conv2
I0321 12:39:27.913130 10075 net.cpp:411] pool2 -> pool2
I0321 12:39:27.913136 10075 net.cpp:163] Setting up pool2
I0321 12:39:27.913331 10075 net.cpp:170] Top shape: 50 256 13 13 (2163200)
I0321 12:39:27.913338 10075 layer_factory.hpp:74] Creating layer norm2
I0321 12:39:27.913346 10075 net.cpp:133] Creating Layer norm2
I0321 12:39:27.913349 10075 net.cpp:453] norm2 <- pool2
I0321 12:39:27.913353 10075 net.cpp:411] norm2 -> norm2
I0321 12:39:27.913357 10075 net.cpp:163] Setting up norm2
I0321 12:39:27.913362 10075 net.cpp:170] Top shape: 50 256 13 13 (2163200)
I0321 12:39:27.913365 10075 layer_factory.hpp:74] Creating layer conv3
I0321 12:39:27.913372 10075 net.cpp:133] Creating Layer conv3
I0321 12:39:27.913375 10075 net.cpp:453] conv3 <- norm2
I0321 12:39:27.913381 10075 net.cpp:411] conv3 -> conv3
I0321 12:39:27.913386 10075 net.cpp:163] Setting up conv3
I0321 12:39:28.011061 10075 cudnn_conv_layer.cpp:348] fft context time 4.12739 mem 239471616
I0321 12:39:28.066891 10075 net.cpp:170] Top shape: 50 384 13 13 (3244800)
I0321 12:39:28.066905 10075 layer_factory.hpp:74] Creating layer relu3
I0321 12:39:28.066908 10075 net.cpp:133] Creating Layer relu3
I0321 12:39:28.066910 10075 net.cpp:453] relu3 <- conv3
I0321 12:39:28.066913 10075 net.cpp:400] relu3 -> conv3 (in-place)
I0321 12:39:28.066917 10075 net.cpp:163] Setting up relu3
I0321 12:39:28.067034 10075 net.cpp:170] Top shape: 50 384 13 13 (3244800)
I0321 12:39:28.067039 10075 layer_factory.hpp:74] Creating layer conv4
I0321 12:39:28.067044 10075 net.cpp:133] Creating Layer conv4
I0321 12:39:28.067046 10075 net.cpp:453] conv4 <- conv3
I0321 12:39:28.067050 10075 net.cpp:411] conv4 -> conv4
I0321 12:39:28.067054 10075 net.cpp:163] Setting up conv4
I0321 12:39:28.115864 10075 cudnn_conv_layer.cpp:348] fft context time 1.76259 mem 91424256
I0321 12:39:28.141078 10075 net.cpp:170] Top shape: 50 384 13 13 (3244800)
I0321 12:39:28.141088 10075 layer_factory.hpp:74] Creating layer relu4
I0321 12:39:28.141093 10075 net.cpp:133] Creating Layer relu4
I0321 12:39:28.141095 10075 net.cpp:453] relu4 <- conv4
I0321 12:39:28.141098 10075 net.cpp:400] relu4 -> conv4 (in-place)
I0321 12:39:28.141101 10075 net.cpp:163] Setting up relu4
I0321 12:39:28.141223 10075 net.cpp:170] Top shape: 50 384 13 13 (3244800)
I0321 12:39:28.141228 10075 layer_factory.hpp:74] Creating layer conv5
I0321 12:39:28.141233 10075 net.cpp:133] Creating Layer conv5
I0321 12:39:28.141235 10075 net.cpp:453] conv5 <- conv4
I0321 12:39:28.141238 10075 net.cpp:411] conv5 -> conv5
I0321 12:39:28.141242 10075 net.cpp:163] Setting up conv5
I0321 12:39:28.172698 10075 cudnn_conv_layer.cpp:348] fft context time 1.37539 mem 60949504
I0321 12:39:28.190152 10075 net.cpp:170] Top shape: 50 256 13 13 (2163200)
I0321 12:39:28.190177 10075 layer_factory.hpp:74] Creating layer relu5
I0321 12:39:28.190186 10075 net.cpp:133] Creating Layer relu5
I0321 12:39:28.190187 10075 net.cpp:453] relu5 <- conv5
I0321 12:39:28.190191 10075 net.cpp:400] relu5 -> conv5 (in-place)
I0321 12:39:28.190196 10075 net.cpp:163] Setting up relu5
I0321 12:39:28.190368 10075 net.cpp:170] Top shape: 50 256 13 13 (2163200)
I0321 12:39:28.190373 10075 layer_factory.hpp:74] Creating layer pool5
I0321 12:39:28.190382 10075 net.cpp:133] Creating Layer pool5
I0321 12:39:28.190383 10075 net.cpp:453] pool5 <- conv5
I0321 12:39:28.190387 10075 net.cpp:411] pool5 -> pool5
I0321 12:39:28.190390 10075 net.cpp:163] Setting up pool5
I0321 12:39:28.190582 10075 net.cpp:170] Top shape: 50 256 6 6 (460800)
I0321 12:39:28.190587 10075 layer_factory.hpp:74] Creating layer gather_pool5_to_fc6_ntype
I0321 12:39:28.190592 10075 net.cpp:133] Creating Layer gather_pool5_to_fc6_ntype
I0321 12:39:28.190593 10075 net.cpp:453] gather_pool5_to_fc6_ntype <- pool5
I0321 12:39:28.190596 10075 net.cpp:411] gather_pool5_to_fc6_ntype -> gathered_pool5
I0321 12:39:28.190599 10075 net.cpp:163] Setting up gather_pool5_to_fc6_ntype
I0321 12:39:28.190603 10075 net.cpp:170] Top shape: 100 256 6 6 (921600)
I0321 12:39:28.190604 10075 layer_factory.hpp:74] Creating layer fc6_ntype
I0321 12:39:28.190609 10075 net.cpp:133] Creating Layer fc6_ntype
I0321 12:39:28.190610 10075 net.cpp:453] fc6_ntype <- gathered_pool5
I0321 12:39:28.190613 10075 net.cpp:411] fc6_ntype -> fc6_ntype
I0321 12:39:28.190618 10075 net.cpp:163] Setting up fc6_ntype
I0321 12:39:28.431869 10075 net.cpp:170] Top shape: 100 4096 (409600)
I0321 12:39:28.431895 10075 layer_factory.hpp:74] Creating layer relu6
I0321 12:39:28.431900 10075 net.cpp:133] Creating Layer relu6
I0321 12:39:28.431903 10075 net.cpp:453] relu6 <- fc6_ntype
I0321 12:39:28.431908 10075 net.cpp:400] relu6 -> fc6_ntype (in-place)
I0321 12:39:28.431913 10075 net.cpp:163] Setting up relu6
I0321 12:39:28.432216 10075 net.cpp:170] Top shape: 100 4096 (409600)
I0321 12:39:28.432224 10075 layer_factory.hpp:74] Creating layer drop6
I0321 12:39:28.432227 10075 net.cpp:133] Creating Layer drop6
I0321 12:39:28.432229 10075 net.cpp:453] drop6 <- fc6_ntype
I0321 12:39:28.432232 10075 net.cpp:400] drop6 -> fc6_ntype (in-place)
I0321 12:39:28.432236 10075 net.cpp:163] Setting up drop6
I0321 12:39:28.432240 10075 net.cpp:170] Top shape: 100 4096 (409600)
I0321 12:39:28.432241 10075 layer_factory.hpp:74] Creating layer fc7_ntype
I0321 12:39:28.432245 10075 net.cpp:133] Creating Layer fc7_ntype
I0321 12:39:28.432246 10075 net.cpp:453] fc7_ntype <- fc6_ntype
I0321 12:39:28.432250 10075 net.cpp:411] fc7_ntype -> fc7_ntype
I0321 12:39:28.432256 10075 net.cpp:163] Setting up fc7_ntype
I0321 12:39:28.459236 10075 net.cpp:170] Top shape: 100 1024 (102400)
I0321 12:39:28.459257 10075 layer_factory.hpp:74] Creating layer relu7
I0321 12:39:28.459264 10075 net.cpp:133] Creating Layer relu7
I0321 12:39:28.459266 10075 net.cpp:453] relu7 <- fc7_ntype
I0321 12:39:28.459270 10075 net.cpp:400] relu7 -> fc7_ntype (in-place)
I0321 12:39:28.459275 10075 net.cpp:163] Setting up relu7
I0321 12:39:28.459449 10075 net.cpp:170] Top shape: 100 1024 (102400)
I0321 12:39:28.459455 10075 layer_factory.hpp:74] Creating layer drop7
I0321 12:39:28.459458 10075 net.cpp:133] Creating Layer drop7
I0321 12:39:28.459460 10075 net.cpp:453] drop7 <- fc7_ntype
I0321 12:39:28.459463 10075 net.cpp:400] drop7 -> fc7_ntype (in-place)
I0321 12:39:28.459466 10075 net.cpp:163] Setting up drop7
I0321 12:39:28.459470 10075 net.cpp:170] Top shape: 100 1024 (102400)
I0321 12:39:28.459471 10075 layer_factory.hpp:74] Creating layer fc8_ntype
I0321 12:39:28.459475 10075 net.cpp:133] Creating Layer fc8_ntype
I0321 12:39:28.459476 10075 net.cpp:453] fc8_ntype <- fc7_ntype
I0321 12:39:28.459481 10075 net.cpp:411] fc8_ntype -> fc8_ntype
I0321 12:39:28.459483 10075 net.cpp:163] Setting up fc8_ntype
I0321 12:39:28.459511 10075 net.cpp:170] Top shape: 100 3 (300)
I0321 12:39:28.459516 10075 layer_factory.hpp:74] Creating layer fc8_ntype_fc8_ntype_0_split
I0321 12:39:28.459519 10075 net.cpp:133] Creating Layer fc8_ntype_fc8_ntype_0_split
I0321 12:39:28.459522 10075 net.cpp:453] fc8_ntype_fc8_ntype_0_split <- fc8_ntype
I0321 12:39:28.459523 10075 net.cpp:411] fc8_ntype_fc8_ntype_0_split -> fc8_ntype_fc8_ntype_0_split_0
I0321 12:39:28.459527 10075 net.cpp:411] fc8_ntype_fc8_ntype_0_split -> fc8_ntype_fc8_ntype_0_split_1
I0321 12:39:28.459530 10075 net.cpp:163] Setting up fc8_ntype_fc8_ntype_0_split
I0321 12:39:28.459533 10075 net.cpp:170] Top shape: 100 3 (300)
I0321 12:39:28.459535 10075 net.cpp:170] Top shape: 100 3 (300)
I0321 12:39:28.459537 10075 layer_factory.hpp:74] Creating layer gather_label_data_1_split_to_accuracy
I0321 12:39:28.459539 10075 net.cpp:133] Creating Layer gather_label_data_1_split_to_accuracy
I0321 12:39:28.459540 10075 net.cpp:453] gather_label_data_1_split_to_accuracy <- label_data_1_split_0
I0321 12:39:28.459543 10075 net.cpp:411] gather_label_data_1_split_to_accuracy -> gathered_label_data_1_split_0
I0321 12:39:28.459547 10075 net.cpp:163] Setting up gather_label_data_1_split_to_accuracy
I0321 12:39:28.459549 10075 net.cpp:170] Top shape: 100 (100)
I0321 12:39:28.459550 10075 layer_factory.hpp:74] Creating layer accuracy
I0321 12:39:28.459554 10075 net.cpp:133] Creating Layer accuracy
I0321 12:39:28.459555 10075 net.cpp:453] accuracy <- fc8_ntype_fc8_ntype_0_split_0
I0321 12:39:28.459558 10075 net.cpp:453] accuracy <- gathered_label_data_1_split_0
I0321 12:39:28.459560 10075 net.cpp:411] accuracy -> accuracy
I0321 12:39:28.459563 10075 net.cpp:163] Setting up accuracy
I0321 12:39:28.459565 10075 net.cpp:170] Top shape: (1)
I0321 12:39:28.459566 10075 layer_factory.hpp:74] Creating layer gather_label_data_1_split_to_loss
I0321 12:39:28.459568 10075 net.cpp:133] Creating Layer gather_label_data_1_split_to_loss
I0321 12:39:28.459570 10075 net.cpp:453] gather_label_data_1_split_to_loss <- label_data_1_split_1
I0321 12:39:28.459573 10075 net.cpp:411] gather_label_data_1_split_to_loss -> gathered_label_data_1_split_1
I0321 12:39:28.459575 10075 net.cpp:163] Setting up gather_label_data_1_split_to_loss
I0321 12:39:28.459578 10075 net.cpp:170] Top shape: 100 (100)
I0321 12:39:28.459579 10075 layer_factory.hpp:74] Creating layer loss
I0321 12:39:28.459583 10075 net.cpp:133] Creating Layer loss
I0321 12:39:28.459583 10075 net.cpp:453] loss <- fc8_ntype_fc8_ntype_0_split_1
I0321 12:39:28.459585 10075 net.cpp:453] loss <- gathered_label_data_1_split_1
I0321 12:39:28.459589 10075 net.cpp:411] loss -> loss
I0321 12:39:28.459592 10075 net.cpp:163] Setting up loss
…
